trails/HighwayEnv/DQNAgent/run_20191108-151847_401/checkpoint-26.tar (torch_old, 78250 bytes, 21 tensors)

base_module.layers.0.weight f4 [64, 25]
0	0xbe4077e7	-0.18795739
1	0xbe33528d	-0.1751196
2	0xbe1a556e	-0.15071651
3	0xbdc7506d	-0.09732137
4	0x3bce8160	0.006302044
5	0xbd715e4c	-0.05892782
6	0xbdb8a33a	-0.09015508
7	0x3e31cbc1	0.17362882
8	0xbdc1b050	-0.09457457
9	0x3dd7e842	0.105423465
10	0xbe109835	-0.14120562
11	0xbbfae1c0	-0.007656306
12	0x3c981cd0	0.018568426
13	0x3e434e75	0.19072898
14	0x3de7a322	0.11310412
15	0x3e0a6141	0.13513662
16	0xbdb5aef0	-0.08871257
17	0xbe046608	-0.12929547
18	0x3de35f62	0.11102177
19	0xbd919b36	-0.07109682
20	0xbe13f77a	-0.14449874
21	0xbe29732d	-0.16547842
22	0xbda58463	-0.080818914
23	0x3e2eb26d	0.17060252
24	0xbe39d90b	-0.18149202
25	0x3e51e669	0.20498051
26	0xbdc3190b	-0.09526261
27	0xbe1106be	-0.14162728
28	0x3e1fdc2e	0.15611336
29	0x3e6b3635	0.22969897
30	0xbdb60b84	-0.08888915
31	0x3d0fe999	0.035134885
32	0xbda84d94	-0.08217922
33	0x3e27f073	0.16400318
34	0x3d45024e	0.0480979
35	0x3e32b2e3	0.17451052
36	0x3d2791d9	0.040910576
37	0x3e3b7ab2	0.18308523
38	0xbe76ad58	-0.24089563
39	0xbda9374b	-0.082624994
40	0x3d0042fe	0.03131389
41	0xbdefb360	-0.11704135
42	0x3df7cbeb	0.12099441
43	0xbd4e9095	-0.050430853
44	0xbe42ed44	-0.19035822
45	0xbe214135	-0.15747531
46	0xbe811e36	-0.25218362
47	0x3d1bfb29	0.038081322
48	0x3c73717a	0.014858598
49	0xbe490f31	-0.19634701
50	0xbe0d6562	-0.13808206
51	0x3e3f20b1	0.18664815
52	0x3e06f109	0.13177885
53	0x3d148718	0.036261648
54	0x3dacd73e	0.08439492
55	0xbe205a63	-0.1565948
56	0x3e020c0b	0.12699907
57	0x3e3bb153	0.18329363
58	0x3d42f1c0	0.047593832
59	0x3de52b2a	0.111898735
60	0x3c196d80	0.009364486
61	0xbd17b308	-0.037035972
62	0xbe02ae66	-0.1276184
63	0xbe0206fd	-0.12697978
64	0x3e0eddf7	0.1395186
65	0xbde187dd	-0.11012242
66	0x3e12e33b	0.14344494
67	0xbda4ecdd	-0.080529906
68	0x3e1a3393	0.15058737
69	0xbe227d0a	-0.15868011
70	0xbe198250	-0.14991117
71	0x3e06d56f	0.13167356
72	0x3e42005b	0.18945448
73	0xbe371fed	-0.17883272
74	0x3e36d961	0.17856361
75	0x3de6985e	0.112595305
76	0xbd989502	-0.07450296
77	0xbd05be78	-0.03265235
78	0x3e140565	0.14455183
79	0x3dc5ccb9	0.096581884
80	0xbe30ee0e	-0.1727831
81	0xbcd0fbff	-0.025510786
82	0x3e1e83f5	0.15480025
83	0x3e076e27	0.13225614
84	0xbcb03dab	-0.02151378
85	0x3d508e84	0.050917163
86	0x3e4972ce	0.19672701
87	0x3d10f141	0.035386328
88	0xbe15971f	-0.1460843
89	0x3d488b56	0.048961006
90	0xbe1d835c	-0.15382141
91	0xbb8e07d8	-0.004334431
92	0x3e08c2c2	0.13355544
93	0x3e2f3ae7	0.17112313
94	0xbc5eceb1	-0.013599084
95	0x3dd3c3a2	0.103400484
96	0xbe09ba10	-0.13449883
97	0xbde33c3a	-0.11095472
98	0xbd00c134	-0.031434253
99	0xbcfa876b	-0.03058215
100	0x3e4dfe08	0.20116436
101	0x3e1fe15d	0.15613313
102	0x3d7d2666	0.061804198
103	0x3dc9f631	0.098614104
104	0xbb2f827d	-0.0026780658
105	0x3e19ed23	0.15031867
106	0xbe13c49a	-0.14430466
107	0x3da818c3	0.08207848
108	0x3c440825	0.011964832
109	0xbd7fb2b3	-0.06242628
110	0x3dd31a9e	0.10307811
111	0xbba32e4f	-0.0049798856
112	0xbdf889e9	-0.12135679
113	0x3e093af1	0.1340139
114	0x3dd5c6a5	0.10438279
115	0x3e513632	0.2043083
116	0x3c7ac732	0.015306281
117	0x3c76c48f	0.015061512
118	0x3df9ab8b	0.12190922
119	0x3dacb518	0.084329784
120	0xbc70c1da	-0.014694655
121	0x3b3b175d	0.002854786
122	0xbe0c75be	-0.1371679
123	0xbc38d6c7	-0.011281676
124	0x3de8fceb	0.11376365
125	0x3cb5ff32	0.022216413
126	0x3e1b197a	0.15146437
127	0x3d657504	0.056019798
128	0xbcc5bd1c	-0.024138026
129	0xbe022ab6	-0.12711605
130	0x3d71f4dc	0.059071407
131	0x3e7b5ed6	0.24547896
132	0x3cf292d6	0.029611032
133	0x3dbf4fd3	0.09341397
134	0xbda808d9	-0.082048126
135	0x3cb36bb4	0.021901943
136	0xbdfcb6df	-0.123395674
137	0x3e0b3670	0.13594985
138	0xbd296213	-0.041353296
139	0xbde43599	-0.111430354
140	0xbbbb530d	-0.0057166875
141	0x3e6dd884	0.23227125
142	0x3e36dc34	0.17857438
143	0x3dc11924	0.09428623
144	0x3c8a4ec6	0.016883265
145	0x3dd5a3b5	0.10431615
146	0x3e26b3f8	0.1627959
147	0xbe2b466b	-0.16726081
148	0xbe3e6c0f	-0.18595909
149	0x3cd7fe4f	0.026366381
150	0xbe46c60a	-0.19411483
151	0xbde73f33	-0.11291351
152	0x3c863440	0.016382337
153	0xbd98e164	-0.07464865
154	0xbe121d25	-0.1426893
155	0x3e33f08f	0.17572235
156	0x3e1876bf	0.14889048
157	0xbe103935	-0.14084323
158	0x3d9cf39a	0.07663651
159	0x3d32b8e0	0.04363334
160	0xbe1260a5	-0.1429468
161	0xbdfe49b0	-0.124163985
162	0x3c630280	0.0138555765
163	0x3e3c7633	0.18404464
164	0x3cde80f0	0.027161092
165	0xbd453ce0	-0.048153758
166	0xbe20fc1a	-0.15721169
167	0xbe3363bd	-0.17518516
168	0x3e05769b	0.13033526
169	0xbd535a68	-0.05159989
170	0xbe2a8c7b	-0.16655152
171	0x3dcd5de2	0.10027672
172	0x3e19bac1	0.15012647
173	0x3c76ec50	0.01507099
174	0x3e3b43df	0.1828761
175	0x3e5157b2	0.2044361
176	0x3e1033c8	0.14082253
177	0xbd0172a2	-0.031603463
178	0x3e3b6af3	0.18302517
179	0xbc8f0a65	-0.017461011
180	0x3d19f5ed	0.03758805
181	0x3b71716b	0.0036841284
182	0x3e430c07	0.19047557
183	0xbe54da71	-0.20786454
184	0x3e1f6216	0.1556476
185	0xbe13478c	-0.14382762
186	0xbd98df2f	-0.07464444
187	0x3e296fbe	0.16546533
188	0xbe471070	-0.19439864
189	0x3dd9d639	0.10636563
190	0x3dbf8b0a	0.093526915
191	0x3e8597ad	0.26092282
192	0x3cad7b7e	0.02117705
193	0xbd986f4a	-0.07443102
194	0xbd88afe2	-0.06674172
195	0x3e2d4456	0.169206
196	0x3e51fb1d	0.20505948
197	0xbe2e1417	-0.16999851
198	0x3e1d2af9	0.15348424
199	0xbd9312a2	-0.07181288
200	0x3d3f85c9	0.046758447
201	0x3ddf196b	0.1089352
202	0x3e2ced2f	0.16887353
203	0xbcb5f1f3	-0.022210097
204	0x3e5f0b87	0.21781741
205	0xbd77af68	-0.060470015
206	0xbe325ca8	-0.17418158
207	0x3e09e747	0.13467132
208	0x3c2c065b	0.010499562
209	0xbe2464da	-0.16054097
210	0x3d2f92c9	0.042864595
211	0x3da7795c	0.08177444
212	0x3e28eab2	0.16495779
213	0x3e4f1242	0.20221809
214	0x3d9a7e8f	0.075436704
215	0x3b33a422	0.0027411063
216	0x3e268d3e	0.16264817
217	0xbdee1605	-0.11625294
218	0xbde97acd	-0.114003755
219	0x3ca1b711	0.019740613
220	0x3ddbb1b7	0.10727256
221	0xbe07ef80	-0.13274956
222	0xbd2263e1	-0.039646033
223	0x3b665c0d	0.0035150081
224	0xbd8729f1	-0.065997966
225	0xbd3a2376	-0.045443974
226	0x3e38f994	0.18063956
227	0x3e594198	0.21216428
228	0x3d9b546e	0.07584463
229	0xbe163bd0	-0.14671254
230	0xbd737a59	-0.05944285
231	0x3e07a79e	0.13247535
232	0xbde2b81d	-0.11070273
233	0x3dd13409	0.10215003
234	0x3deade0b	0.114681326
235	0x3e5af31e	0.21381804
236	0xbcf49f6f	-0.02986118
237	0x3e43cc22	0.19120839
238	0x3d30b36f	0.04313987
239	0x3d87221e	0.06598304
240	0x3cdc01bb	0.026856294
241	0x3a2cc12f	0.0006590066
242	0x3d8a3f3d	0.06750343
243	0x3df2ecd1	0.118615754
244	0x3e145f94	0.14489585
245	0xbdc26c7e	-0.094933495
246	0x3e6810c6	0.22662649
247	0x3d86ac77	0.06575864
248	0xbde4f7f4	-0.11180106
249	0x3db9b68d	0.09068022
250	0xbd8320aa	-0.064027146
251	0x3e4c754a	0.19966617
252	0xbd9c4681	-0.07630635
253	0x3d339d59	0.04385123
254	0x3e4732b4	0.19452935
255	0xbdaae64e	-0.083447084

base_module.layers.0.bias f4 [64]
0	0xbd4fc2f8	-0.050723046
1	0xbdd49531	-0.103800185
2	0xbe406b0f	-0.1879084
3	0x3e212b7b	0.15739243
4	0x3d5f7a98	0.054560274
5	0x3e75a2c9	0.23987879
6	0x3e4180bb	0.18896763
7	0x3cb2df59	0.021835016
8	0xbdb9b9fa	-0.09068675
9	0x3e11c935	0.1423691
10	0x3da14e45	0.07876257
11	0xbe3fd483	-0.1873341
12	0xbe18d156	-0.14923605
13	0x3e12641d	0.14296003
14	0x3e5efe21	0.2177663
15	0x3e1bc9eb	0.15213744
16	0x3e427464	0.18989712
17	0xbd6348bf	-0.055489298
18	0x3d8c67fc	0.06855771
19	0x3d8f4fda	0.06997652
20	0xbc76e820	-0.015069991
21	0xbddc36b6	-0.10752623
22	0x3e186fe4	0.14886433
23	0xbda73d75	-0.08166019
24	0x3e281156	0.16412863
25	0x3e6b3eac	0.22973126
26	0xbe3da58f	-0.18520187
27	0x3e36d57c	0.17854875
28	0xbdd6781e	-0.10472129
29	0x3e091a80	0.13389015
30	0xbe16d55a	-0.14729825
31	0xbda63ba7	-0.081168465
32	0x3df7a7ce	0.12092553
33	0xbd54050f	-0.051762637
34	0xbd6b0c79	-0.05738494
35	0xbd03b3bd	-0.032153834
36	0x3df4176e	0.11918531
37	0xbd2136e0	-0.039358974
38	0xbdf4b730	-0.11949003
39	0xbe440b1f	-0.19144867
40	0x3d8a3c12	0.06749739
41	0x3e450df1	0.192436
42	0xbd0e8804	-0.034797683
43	0x3e38fe3f	0.18065737
44	0x3e7a96ae	0.24471542
45	0xbd3dcba0	-0.04633677
46	0xbda95890	-0.08268845
47	0x3e55ca5f	0.2087798
48	0xbd1f28eb	-0.03885738
49	0xbc8f1bfb	-0.017469397
50	0x3d452e97	0.048140135
51	0x3df32b0b	0.11873444
52	0x3d37d814	0.044883803
53	0x3e413b11	0.18870188
54	0xbe298e00	-0.16558075
55	0xbd736794	-0.05942495
56	0xbe2cdbb7	-0.1688069
57	0x3d8b2ad1	0.06795276
58	0x3dbe23f5	0.09284202
59	0x3e3d772e	0.18502495
60	0x3e332d66	0.17497787
61	0xbe29fb22	-0.16599706
62	0x3e19797f	0.14987753
63	0x3ddb8c65	0.107201375

base_module.layers.1.weight f4 [64, 64]
0	0x3d70a900	0.05875492
1	0xbda4430e	-0.08020602
2	0x3dd148a6	0.10218935
3	0x3e071c6f	0.1319444
4	0x3d95e92f	0.07319867
5	0x3d9b7604	0.07590869
6	0xbdb7d92a	-0.08976968
7	0xbd55ebd0	-0.05222684
8	0x3db98747	0.09059005
9	0x3cbb5fed	0.02287289
10	0x3dc99aef	0.09844004
11	0xbdf06d72	-0.11739625
12	0x3dd81a22	0.105518594
13	0x3df1a9e6	0.11799984
14	0xbd03f244	-0.032213464
15	0x3c55e4d3	0.013055044
16	0x3decfcad	0.115716316
17	0xbdb4c443	-0.088264965
18	0x3ddee19d	0.10882876
19	0x3d83dbbd	0.06438396
20	0x3c9cb4e8	0.019129232
21	0xbc3c8a4d	-0.011507583
22	0xbdc458ee	-0.095872745
23	0x3c886e33	0.01665411
24	0xbd975b19	-0.073904224
25	0xbd3fa838	-0.046791285
26	0xbd6902fc	-0.05688761
27	0xbd7ba8cb	-0.06144027
28	0x3e115d81	0.14195825
29	0x3d32c35a	0.043643333
30	0xbccbe5f6	-0.024889927
31	0xbd51ce34	-0.05122204
32	0x3e2a1158	0.16608179
33	0x3d828722	0.06373431
34	0xbd0acf2b	-0.033888977
35	0xbdac14ef	-0.0840243
36	0x3d0b8da4	0.034070626
37	0x3dabef06	0.083951995
38	0x3dcad286	0.099034354
39	0xbdec2e4a	-0.115322664
40	0x3c3c00e0	0.011474818
41	0xbdbbfb1c	-0.09178755
42	0xbd86caaa	-0.06581624
43	0x3d3edd13	0.04659755
44	0x3e158396	0.14600977
45	0xbc099cf0	-0.008399233
46	0xbc6b6f86	-0.014369851
47	0x3b3b6128	0.0028591845
48	0x39fdc278	0.0004840081
49	0x3e247209	0.16059126
50	0x3e05ab16	0.13053545
51	0x3d5ec0f4	0.054383233
52	0x3dc99920	0.098436594
53	0x3d08bcfd	0.03338336
54	0xbd3ffbf4	-0.04687114
55	0x3dc9e5bb	0.09858271
56	0x3dfb9da4	0.12285927
57	0xbda62358	-0.0811221
58	0x3dcbc081	0.099488266
59	0x3dfdf255	0.12399737
60	0xbd0e2c1a	-0.034710027
61	0xbd8e4b1c	-0.0694792
62	0x3dc11d9a	0.09429474
63	0x3d425aa8	0.047449738
64	0x3df35864	0.118820935
65	0x3d69e22b	0.057100456
66	0x3dc8b998	0.09801024
67	0x3de7deb6	0.113217756
68	0x3d29052f	0.04126471
69	0xbd4ff34d	-0.05076914
70	0xbded3fd8	-0.11584443
71	0x3c7242ef	0.014786466
72	0xbdde8be7	-0.10866528
73	0xbd8c34d7	-0.06846016
74	0xbdbc5da5	-0.09197549
75	0xbda6336a	-0.08115275
76	0xbd7f45ca	-0.062322415
77	0x3d21a0ef	0.03946012
78	0xbdf81467	-0.121132664
79	0xbd9bb1a6	-0.07602243
80	0x3d64d4ac	0.055866882
81	0xbce93f70	-0.028472632
82	0x3cab258a	0.020891923
83	0x3cb9b5e3	0.022669738
84	0x3d7819c8	0.060571462
85	0x3d3463cc	0.044040486
86	0x3d01347a	0.031544186
87	0x3c89d72b	0.016826233
88	0xbc971b89	-0.018445747
89	0xbdccb7d3	-0.09995999
90	0x3d540470	0.051762044
91	0xbd87d5fd	-0.06632612
92	0xbd4148d1	-0.047188584
93	0xba07438b	-0.0005159906
94	0xbde518ab	-0.11186346
95	0xbc694870	-0.014238462
96	0xbd90b41b	-0.070656024
97	0xbc3a07d0	-0.011354402
98	0x3c05fb91	0.008177654
99	0xbde3a2a8	-0.111150086
100	0x3d76f927	0.060296204
101	0xbc88df28	-0.016707972
102	0x3d6bc5fc	0.05756186
103	0x3d9cbabc	0.07652804
104	0x3d74355e	0.059621207
105	0xbd9ed34e	-0.07755147
106	0x3dccaaaa	0.09993489
107	0x3dc8bd7d	0.09801767
108	0xbd378f3a	-0.044814326
109	0x3d24dee8	0.040251642
110	0x3df10df4	0.117702395
111	0xbd8d862d	-0.069103576
112	0x3dbbca28	0.091694176
113	0xbde5b5e8	-0.112163365
114	0x3cbcd7e3	0.023052162
115	0x3c9f96d5	0.019481102
116	0xbcbd71b1	-0.023125501
117	0xbdd87d65	-0.10570792
118	0x3da004f6	0.07813446
119	0x3ddabc3b	0.10680433
120	0xbd5638dc	-0.05230032
121	0xbdabdeb7	-0.08392089
122	0xbd575ab3	-0.052576732
123	0x3a80c800	0.000982523
124	0x3dffbb9a	0.12486954
125	0xbdd40a60	-0.103535414
126	0x3d0251fc	0.031816468
127	0x3dcdcdc6	0.10049014
128	0x3df377c2	0.11888076
129	0x3d0f766f	0.035025056
130	0x3dd7f616	0.10544984
131	0x3e058bc4	0.13041598
132	0x3e0f08f7	0.13968264
133	0x3e10a504	0.14125448
134	0xbdaea7b8	-0.085280836
135	0x3e1d7d6d	0.15379877
136	0xbcb5c714	-0.022189654
137	0xbc818d5d	-0.015814478
138	0x3cc936df	0.024562297
139	0xbda8f502	-0.082498565
140	0x3e067c76	0.13133416
141	0x3e2555bf	0.16145991
142	0xbd73ee50	-0.059553444
143	0xbd837457	-0.064186744
144	0x3e2c4578	0.16823375
145	0x3d12534c	0.03572397
146	0x3d8b2f1e	0.06796096
147	0x3c3bebed	0.011469823
148	0xbd9c7ef4	-0.07641402
149	0xbcde0f4c	-0.027106903
150	0xbcf55e12	-0.029952083
151	0x3e31c685	0.17360885
152	0x3aeaa5e0	0.0017902218
153	0xbd4174b3	-0.047230434
154	0x3dbfdc30	0.09368169
155	0x3e1037ae	0.1408374
156	0xbe04d6a5	-0.12972505
157	0x3d5c9d0d	0.053860713
158	0x3b0f2d43	0.0021847046
159	0x3decbfaa	0.115599945
160	0x3cc5bf6b	0.024139127
161	0xbaa9eff4	-0.0012965188
162	0x3cd641ca	0.026154418
163	0x3bd6ebf6	0.0065588905
164	0xbbe81a3a	-0.0070832046
165	0xbdfe1b3e	-0.1240754
166	0xbd926b84	-0.07149413
167	0xbbc0b8df	-0.0058814134
168	0x3d168cc6	0.036755346
169	0x3ddbe8a4	0.10737732
170	0x3d3300e7	0.043702032
171	0x3d5436ab	0.051809948
172	0x3dd2c4dc	0.10291454
173	0x3de697c0	0.11259413
174	0xbd7ced87	-0.06174996
175	0x3a52fbed	0.0008048404
176	0x3dd57ffc	0.10424802
177	0x3cafcb54	0.02145926
178	0xbd7bcb3c	-0.061473116
179	0xbd91eb24	-0.07124928
180	0xbd613fff	-0.054992672
181	0x3d5da10a	0.054108657
182	0xbd6e4224	-0.058168545
183	0x3d5d485d	0.05402409
184	0x3c4013e0	0.011723489
185	0x3ca45c03	0.020063406
186	0x3d168904	0.036751762
187	0x3d0ffa84	0.03515102
188	0xbdb19f04	-0.08672908
189	0x3dccb51e	0.09995483
190	0xbdaf4728	-0.08558494
191	0x3de0a33a	0.10968633
192	0x3d657a6c	0.056024954
193	0xbd9e6f33	-0.07736053
194	0xbc724240	-0.014786303
195	0x3e224c54	0.1584943
196	0xbd760009	-0.060058627
197	0x3d9d6fc6	0.07687335
198	0x3dbe688c	0.092972845
199	0xbc10fe4f	-0.008849694
200	0x3d1353a0	0.035968423
201	0x3e294335	0.16529544
202	0x3e09066d	0.13381357
203	0xbdabf800	-0.083969116
204	0x3e136a89	0.14396109
205	0xbd483555	-0.048878986
206	0x3d4d59ed	0.050134588
207	0x3bca6297	0.0061763036
208	0x3bf7d3f3	0.007563108
209	0xbd73dca0	-0.059536576
210	0x3e034268	0.128183
211	0x3cd39b6b	0.025830945
212	0x3da7cc74	0.08193293
213	0x3ddc5163	0.10757711
214	0xbd3058c0	-0.04305339
215	0xbcddb104	-0.027061947
216	0x3e2e7fec	0.17040986
217	0x3de17e8c	0.11010465
218	0xbda4cd52	-0.08046974
219	0x3e011b86	0.12608156
220	0x3b8dc2bb	0.004326192
221	0x3ddee078	0.10882658
222	0x3c9411e2	0.018074933
223	0xbdf220f0	-0.118226886
224	0x3dced8ad	0.100999214
225	0x3d8aa511	0.06769765
226	0xbd98a5ca	-0.07453497
227	0xbd610eb4	-0.054945663
228	0x3cffff78	0.031249747
229	0x3d3a529c	0.04548894
230	0x3cf12e98	0.029441163
231	0x3df3496d	0.11879239
232	0xbd1ec9bb	-0.038766604
233	0x3e1ee0f5	0.15515502
234	0x3d9d8b9b	0.07692643
235	0xbc817162	-0.015801135
236	0xbd37d2cb	-0.044878762
237	0x3d6d6134	0.05795403
238	0x3e10e298	0.14148939
239	0xbd196131	-0.037446205
240	0x3e255720	0.16146517
241	0xbdfabb1a	-0.12242718
242	0x3deab0cf	0.11459505
243	0x3e1b1994	0.15146476
244	0xbd246683	-0.040136825
245	0x3df0ce2f	0.117580764
246	0x3d6fabdc	0.058513507
247	0x3d442000	0.04788208
248	0xbd7eaf38	-0.06217882
249	0x3e036e3e	0.12835023
250	0x3df045be	0.11732052
251	0x3db46758	0.08808774
252	0xbd719204	-0.058977142
253	0xbddad602	-0.1068535
254	0xbdc87eb0	-0.09789789
255	0x3d2b5865	0.041832346

base_module.layers.1.bias f4 [64]
0	0x3e115f67	0.1419655
1	0x3daac7bb	0.08338877
2	0x3e129b81	0.14317133
3	0x3d528756	0.051398598
4	0x3da24897	0.07924002
5	0xbdabea8e	-0.08394347
6	0xbdcdce04	-0.1004906
7	0x3dd7abc2	0.10530807
8	0xbddb63a4	-0.10712364
9	0x3c83fa76	0.01611064
10	0x3dc8a017	0.0979616
11	0x3dd140b1	0.10217417
12	0x3d0a0e06	0.03370478
13	0xbd34c0bc	-0.04412912
14	0xbd805d88	-0.0626784
15	0xbc08d786	-0.008352166
16	0xbc91a60f	-0.017779378
17	0x3d610b70	0.05494255
18	0x3d82ebf8	0.06392664
19	0x3dee7170	0.1164273
20	0x3dfa1ee5	0.12212924
21	0xbd9f9540	-0.07792139
22	0x3dd1d0f8	0.10244936
23	0x3dc41001	0.09573365
24	0xbd43818c	-0.047730967
25	0x3c871d6f	0.016493527
26	0x3d20da18	0.03927049
27	0x3d85f23a	0.06540342
28	0x3db80162	0.08984639
29	0xbc4f863b	-0.01266628
30	0xbd30e4af	-0.04318684
31	0x3d5874a6	0.05284562
32	0x3e0f8e9c	0.14019245
33	0xbd985ebb	-0.074399434
34	0xbc800d1e	-0.015631255
35	0xbd830d77	-0.063990526
36	0x3dc5c2ed	0.0965632
37	0x3df42aae	0.11922203
38	0x3d3d4b4a	0.04621438
39	0x3ccd78d0	0.025082022
40	0x3cd1275d	0.025531465
41	0x3d5e35dc	0.054250583
42	0xbd8f46fe	-0.069959626
43	0x3dd39ac7	0.10332256
44	0x3d1190e4	0.03553857
45	0xbdd36188	-0.10321337
46	0x3dbb8074	0.0915536
47	0x3c63b90c	0.013899099
48	0x3ca88ebd	0.020575875
49	0x3d71f1f8	0.05906865
50	0x3dd9e648	0.10639626
51	0xbdffefe8	-0.1249693
52	0x3da23e9d	0.07922099
53	0x3dab35cd	0.08359871
54	0x3da7512d	0.0816978
55	0x3e133ef4	0.14379483
56	0x3d8f9ef2	0.07012738
57	0xbd52b1f0	-0.051439226
58	0xbdc5f11c	-0.096651286
59	0xbdcffa4f	-0.101551645
60	0x3dbb3820	0.09141564
61	0xbd4d311f	-0.050095674
62	0x3db9fb6d	0.09081159
63	0xbcd23fb0	-0.025665134

advantage.weight f4 [5, 64]
0	0x3dc08ad7	0.094014816
1	0xbdc76bf0	-0.09737384
2	0xbc9f4855	-0.01944367
3	0x3d9eb554	0.07749429
4	0x3e024e65	0.12725218
5	0xbdf29635	-0.11845056
6	0x3d2d07e8	0.042243868
7	0x3d829a9c	0.06377146
8	0xbdb24c77	-0.08705991
9	0xbddbc014	-0.10729995
10	0xbde3d65e	-0.11124872
11	0x3dc0d1de	0.09415029
12	0xbd823668	-0.063580334
13	0x3d4584e4	0.048222438
14	0x3c6971f5	0.014248361
15	0x3dc23020	0.09481835
16	0xbd90452a	-0.07044442
17	0xbd274662	-0.040838607
18	0xbd819834	-0.063278586
19	0x3b4c92dc	0.0031215465
20	0xbd3a5104	-0.04548742
21	0xbd92d3b8	-0.071692884
22	0xbd8580cc	-0.06518707
23	0x3ce905cc	0.028445147
24	0xbc802d88	-0.015646711
25	0x3d07c36f	0.033145364
26	0x3e1d61ea	0.15369383
27	0x3d5b62eb	0.053561132
28	0xbd9c5186	-0.07632737
29	0x3c2e8441	0.010651649
30	0x3de8bb50	0.11363852
31	0x3df9ffaf	0.12206971
32	0x3db2b8ce	0.08726655
33	0xbd9ab8f1	-0.07554806
34	0xbd925a61	-0.07146145
35	0xbde83d78	-0.11339849
36	0xbe0b6e7f	-0.1361637
37	0xbd69e580	-0.057103634
38	0xbcf1c939	-0.029514896
39	0x3d9053f4	0.07047263
40	0xbc227a53	-0.00991686
41	0x3dbb8766	0.091566846
42	0xbdbebe78	-0.09313673
43	0xbcc03b9c	-0.023465924
44	0x3cb276e9	0.021785216
45	0x3dcc4598	0.099742115
46	0xbd54512f	-0.051835235
47	0xbcf9d949	-0.030499117
48	0x3da07e3e	0.07836579
49	0x3cbbff53	0.022948897
50	0x3dd9723c	0.106174916
51	0x3dae8958	0.0852229
52	0x3d807c4a	0.06273706
53	0x3d55a20a	0.052156486
54	0xbcac4410	-0.021028548
55	0xbd8fa7b2	-0.07014407
56	0xbc86b348	-0.01644291
57	0x3da2c6a0	0.07948041
58	0xbdc8999b	-0.09794923
59	0x3dbd15d7	0.09232681
60	0x3c8d7ef8	0.017272457
61	0x3d8d55f4	0.0690116
62	0x3e0536da	0.13009205
63	0xbd816f8e	-0.063201055
64	0xbd1e6af1	-0.038676206
65	0x3de5a655	0.11213366
66	0xbe009f09	-0.12560667
67	0x3d179e77	0.03701636
68	0x3b4d5bd3	0.003133525
69	0x3d95585f	0.07292246
70	0xbd2c0d3e	-0.042004816
71	0x3d827260	0.063694715
72	0xbd893a82	-0.067006126
73	0x3dafd869	0.08586199
74	0xbcfac499	-0.030611323
75	0xbd73a537	-0.059483733
76	0x3db5716d	0.08859525
77	0x3d193148	0.037400514
78	0x3dc11e27	0.09429579
79	0xbcea728b	-0.028619071
80	0xbdf0fc86	-0.11766915
81	0xbd8b2d05	-0.06795696
82	0x3cd19ac8	0.0255865
83	0x3c997758	0.018733665
84	0xbc688448	-0.014191695
85	0x3ce50850	0.027958065
86	0x3da7b496	0.08188741
87	0x3c445fb8	0.011985712
88	0xbdaba576	-0.083811685
89	0x3ce9c67b	0.028537026
90	0xbd5a0d52	-0.05323536
91	0x3dabd854	0.08390871
92	0xbbc5a7a0	-0.0060319453
93	0xbd3a0e23	-0.045423638
94	0x3d0278ba	0.031853415
95	0x3d98b6d4	0.07456747
96	0xbd52ef59	-0.05149779
97	0xbd11346a	-0.035450377
98	0x3d599a93	0.05312593
99	0x3d89d216	0.06729524
100	0x3d1a3553	0.03764851
101	0xbc23d6b0	-0.009999916
102	0xbd92f79f	-0.07176136
103	0x3bd4a200	0.0064890385
104	0x3cbfb9c3	0.023404008
105	0x3d0fecdf	0.035138007
106	0x3d31a538	0.043370456
107	0x3dd9d1a9	0.106356926
108	0xbd93174a	-0.071821764
109	0xbcd33770	-0.02578327
110	0xbe0453ea	-0.12922636
111	0xbc544a28	-0.012957133
112	0x3cd17d1b	0.02557235
113	0x3c893676	0.016749602
114	0xbdb69c90	-0.08916581
115	0xbd9cae0c	-0.07650384
116	0x3d22fc4b	0.039791387
117	0xbd480ab6	-0.04883834
118	0xbd2dadc9	-0.042402063
119	0x3d0c4cae	0.034252815
120	0x3da7269c	0.08161661
121	0xbcf6b15a	-0.030113865
122	0x3e0b2e08	0.13591778
123	0x3dd7021b	0.104984485
124	0x3d05a5fc	0.032629
125	0x3d070672	0.03296513
126	0x3ca3fd2c	0.020018183
127	0xbda6edde	-0.08150838
128	0x3cddece1	0.027090492
129	0xbdb6ce8c	-0.089261144
130	0x3da368e5	0.079789914
131	0x3dc59b8b	0.09648808
132	0x3c29d1c0	0.01036495
133	0x3da66406	0.08124547
134	0xbddfdf65	-0.10931281
135	0xbde47106	-0.1115437
136	0x3c102845	0.0087986635
137	0x3de6d62c	0.11271319
138	0xbc22d338	-0.009938054
139	0xbc67a12e	-0.014137549
140	0xbcc37cc6	-0.023863208
141	0x3d971710	0.07377446
142	0x3e09313d	0.13397689
143	0xbda2f9df	-0.079578154
144	0x3d10dfa2	0.035369523
145	0xbc14d19b	-0.009083177
146	0xbbcf77b6	-0.0063314093
147	0xbdd2ac67	-0.102867894
148	0xbd833f48	-0.06408554
149	0xbd18e1ec	-0.03732483
150	0xbc8789c8	-0.016545191
151	0x3cd7205b	0.026260545
152	0xbd845b0c	-0.06462678
153	0x3dd3926f	0.10330664
154	0xbcd59481	-0.026071789
155	0xbdedcd24	-0.11611393
156	0xbd52e8c8	-0.05149153
157	0x3be1e228	0.006893415
158	0xbdad029f	-0.084477656
159	0xbd6f709b	-0.058457
160	0xbd83c239	-0.064335294
161	0x3d6c7626	0.057729863
162	0xbd935931	-0.07194746
163	0x3dc63dc1	0.096797474
164	0x3d5996d2	0.05312235
165	0x3cba24b0	0.022722572
166	0xbc564bab	-0.013079564
167	0x3d94ebe4	0.07271555
168	0x3db25c7e	0.08709048
169	0xbe059ec6	-0.13048849
170	0xbddefefc	-0.10888478
171	0x3ca1bc01	0.019742968
172	0x3dbc4ddf	0.0919454
173	0xbda071ae	-0.07834183
174	0xbe0544df	-0.13014553
175	0xbd8a4eba	-0.06753297
176	0xbda833d7	-0.08213013
177	0x3dc54c4f	0.09633695
178	0xbdba6e88	-0.091031134
179	0x3ca05350	0.019570976
180	0xbd404471	-0.04694027
181	0x3dca61fb	0.098819695
182	0xbd38c8b3	-0.045113277
183	0xbd912342	-0.07086803
184	0x3d430600	0.047613144
185	0xbb251c61	-0.0025193917
186	0xbd884305	-0.06653408
187	0x3de8d4bd	0.113687016
188	0xbdd1b61e	-0.10239814
189	0xbd929468	-0.071572125
190	0xbdf64498	-0.12024802
191	0xbde6523c	-0.11246154
192	0x3cec315b	0.028832128
193	0x3dbf7c5e	0.09349893
194	0x3d88e403	0.06684115
195	0x3d6db2c0	0.058031797
196	0xbd964b49	-0.07338578
197	0xbdd855bf	-0.1056323
198	0xbdcd5a65	-0.10027007
199	0x3ddd8804	0.108169585
200	0xbd3c3c3e	-0.04595589
201	0xbd5e5742	-0.054282434
202	0xbc8795a6	-0.01655085
203	0x3d941bb0	0.072318435
204	0xbdccab31	-0.0999359
205	0x3d06fb80	0.032954693
206	0xbd0fd5fe	-0.03511619
207	0x3d54d3b1	0.051959697
208	0x3d8f5e8b	0.070004545
209	0xbdba6fb3	-0.09103336
210	0x3d092b8f	0.033488806
211	0x3d913ea0	0.07092023
212	0xbdc42f10	-0.09579289
213	0xbdf5861a	-0.119884685
214	0x3d8d8224	0.06909588
215	0x3c149e31	0.009070919
216	0x3db94660	0.09046626
217	0x3dcf4354	0.10120264
218	0xbda54862	-0.080704466
219	0x3e078f84	0.1323834
220	0x3ce1a520	0.027544558
221	0x3cb2c8e9	0.021824317
222	0x3ddeb0d7	0.10873573
223	0x3db13db9	0.08654351
224	0xbd062469	-0.032749567
225	0x3dcabaf3	0.09898939
226	0x3d8136b9	0.06309266
227	0xbc8c351d	-0.01711517
228	0x3ce28010	0.027648956
229	0x3dcaef8e	0.09908973
230	0xbd28a6c4	-0.041174665
231	0x3d8a91c0	0.06766081
232	0xbc919a0d	-0.017773652
233	0x3dee9ca6	0.11650972
234	0xbdf5dfa4	-0.12005547
235	0x3d234fbc	0.039870963
236	0xbdd304c9	-0.10303647
237	0xbd819464	-0.063271314
238	0x3d8db2e9	0.0691889
239	0x3d8cd1dc	0.06875965
240	0xbca285fa	-0.019839276
241	0xbcffa6c0	-0.031207442
242	0x3dd479ba	0.1037478
243	0x3d68f81c	0.05687724
244	0xbd9b8e18	-0.075954616
245	0x3d566eb4	0.05235167
246	0x3d4c6af2	0.04990668
247	0x3dfd3d92	0.12365259
248	0xbddfb1dc	-0.10922596
249	0xbd8750ba	-0.06607194
250	0xbd9d1ab1	-0.076711066
251	0x3d9f0b2f	0.07765805
252	0x3d3e69fc	0.046487793
253	0xbde34b3c	-0.11098334
254	0x3ca178ad	0.019710863
255	0xbd9f9ce0	-0.077935934

advantage.bias f4 [5]
0	0x3cf64c93	0.03006581
1	0xbcfb39cb	-0.030667206
2	0xbd251c84	-0.040310398
3	0xbd94d938	-0.07267994
4	0xbd5f9fb0	-0.05459565

value.weight f4 [1, 64]
0	0x3cfb8527	0.03070314
1	0xbca89407	-0.020578397
2	0x3dbc3804	0.09190372
3	0x3dc72224	0.09723309
4	0xbd348473	-0.044071626
5	0xbd5b276b	-0.05350439
6	0xbdab4d6b	-0.08364376
7	0x3d7f9df5	0.0624065
8	0x3dbd7452	0.09250702
9	0xbde504b4	-0.11182538
10	0xbde97c7c	-0.11400697
11	0xbbd98657	-0.006638329
12	0x3dd9b2db	0.10629817
13	0x3ac5b000	0.0015082359
14	0x3dc84723	0.09779193
15	0xbdc13dfa	-0.09435649
16	0x3e197a91	0.14988162
17	0xbd177399	-0.036975477
18	0xbdd116b3	-0.10209408
19	0x3e16037e	0.1464977
20	0x3dd7beea	0.10534461
21	0xbd7b0584	-0.061284557
22	0xbd5b78d0	-0.053582013
23	0x3e22303c	0.15838712
24	0xbdcf3bce	-0.10118829
25	0x3e22e08c	0.1590597
26	0x3b162aab	0.0022913616
27	0xbd2fe959	-0.042947147
28	0xbb02e300	-0.0019971728
29	0x3dcc5617	0.09977358
30	0x3e1231a0	0.14276743
31	0x3e1a3fd9	0.15063418
32	0x3dd44550	0.10364783
33	0x3d25c828	0.040474087
34	0x3e1ef0a6	0.15521488
35	0x3e2af15a	0.16693631
36	0x3d9f3aa2	0.07774855
37	0xbdb05068	-0.08609086
38	0x3dd059c2	0.1017337
39	0xbd702ce0	-0.058636546
40	0x3d6bd40d	0.057575274
41	0xbd274838	-0.040840358
42	0xbdf45996	-0.1193115
43	0xb994c134	-0.00028372707
44	0x3e329b89	0.17442144
45	0x3cabbdf0	0.020964593
46	0xbd847d20	-0.06469178
47	0x3de36e01	0.11104966
48	0xbdc69f3f	-0.096983425
49	0x3e00a8d6	0.12564406
50	0x3dbc51a8	0.09195262
51	0x3dca9ada	0.09892817
52	0x3e1202fe	0.14258954
53	0x3c492a06	0.012278086
54	0x3dbce22c	0.09222826
55	0x3e1591d1	0.14606406
56	0xbc057bc0	-0.00814718
57	0xbdcd2aca	-0.10017927
58	0x3cbe7413	0.023248708
59	0xbcf23e93	-0.029570853
60	0x3dd7d030	0.105377555
61	0x3d933998	0.071887195
62	0xbd4a1063	-0.049332034
63	0x3b291340	0.0025798827

exp_avg f4 [64, 25]
0	0x00000000	0.0
1	0x00000000	0.0
2	0x00000000	0.0
3	0x00000000	0.0
4	0x00000000	0.0
5	0x00000000	0.0
6	0x00000000	0.0
7	0x00000000	0.0
8	0x00000000	0.0
9	0x00000000	0.0
10	0x00000000	0.0
11	0x00000000	0.0
12	0x00000000	0.0
13	0x00000000	0.0
14	0x00000000	0.0
15	0x00000000	0.0
16	0x00000000	0.0
17	0x00000000	0.0
18	0x00000000	0.0
19	0x00000000	0.0
20	0x00000000	0.0
21	0x00000000	0.0
22	0x00000000	0.0
23	0x00000000	0.0
24	0x00000000	0.0
25	0x3778caf8	1.4829209e-05
26	0x3778caf8	1.4829209e-05
27	0xb847bf46	-4.7623435e-05
28	0x35e6f000	1.7206185e-06
29	0xb57e1cec	-9.466446e-07
30	0x3778caf8	1.4829209e-05
31	0x36481dc6	2.9819653e-06
32	0x392a3729	0.00016233012
33	0xb72089b2	-9.568803e-06
34	0x3682e3bc	3.9008137e-06
35	0x3778caf8	1.4829209e-05
36	0xb8e8da80	-0.00011103321
37	0xb89f23bc	-7.588367e-05
38	0x37cafd68	2.4198278e-05
39	0xb6594028	-3.2372864e-06
40	0x3778caf8	1.4829209e-05
41	0x3834f7f4	4.314627e-05
42	0x38eca2fc	0.00011283715
43	0xb7daeee5	-2.6098869e-05
44	0xb62babb0	-2.558092e-06
45	0x3778caf8	1.4829209e-05
46	0x393b0f49	0.00017839404
47	0x393b7ef4	0.00017881003
48	0xb7f617e4	-2.933661e-05
49	0x3613c200	2.201763e-06
50	0x00000000	0.0
51	0x00000000	0.0
52	0x00000000	0.0
53	0x00000000	0.0
54	0x00000000	0.0
55	0x00000000	0.0
56	0x00000000	0.0
57	0x00000000	0.0
58	0x00000000	0.0
59	0x00000000	0.0
60	0x00000000	0.0
61	0x00000000	0.0
62	0x00000000	0.0
63	0x00000000	0.0
64	0x00000000	0.0
65	0x00000000	0.0
66	0x00000000	0.0
67	0x00000000	0.0
68	0x00000000	0.0
69	0x00000000	0.0
70	0x00000000	0.0
71	0x00000000	0.0
72	0x00000000	0.0
73	0x00000000	0.0
74	0x00000000	0.0
75	0x3abe3f23	0.0014514666
76	0x3abe3f23	0.0014514666
77	0x3a4bbacf	0.0007771672
78	0x3a3e7784	0.0007265734
79	0xb69306e2	-4.3817427e-06
80	0x3abe3f23	0.0014514666
81	0x39b293e4	0.00034060993
82	0xb96cc268	-0.00022579136
83	0xb981ff2f	-0.00024794924
84	0x368a8a8f	4.128851e-06
85	0x3abe3f23	0.0014514666
86	0xb8f14af8	-0.000115057395
87	0xb90d28a3	-0.00013461946
88	0xb943ef78	-0.00018685858
89	0xb69d0f76	-4.6807645e-06
90	0x3abe3f23	0.0014514666
91	0xb9124896	-0.00013950685
92	0xb913d342	-0.00014097712
93	0xb94faceb	-0.00019805475
94	0xb6d1d2ff	-6.2532486e-06
95	0x3abe3f23	0.0014514666
96	0xb9e3604f	-0.0004336857
97	0xba3d918b	-0.00072314654
98	0xb984749a	-0.00025263877
99	0x37fb370e	2.9947169e-05
100	0x3a6157d5	0.0008596157
101	0x3a6157d5	0.0008596157
102	0x3a0479d2	0.0005053553
103	0x39e2fb2e	0.00043293223
104	0xb6dceff1	-6.584444e-06
105	0x3a6157d5	0.0008596157
106	0xb845ed42	-4.7189424e-05
107	0x3909a368	0.00013126212
108	0xb9463ad6	-0.0001890467
109	0x36d34cbd	6.2972235e-06
110	0x3a6157d5	0.0008596157
111	0xb99932b1	-0.00029220202
112	0xb9b2fc8c	-0.00034138968
113	0xb86ecde2	-5.6935365e-05
114	0xb7839320	-1.5684927e-05
115	0x3a6157d5	0.0008596157
116	0xb93cb947	-0.00017998098
117	0x3a0468a2	0.0005050992
118	0xb931cc65	-0.00016956178
119	0xb7999675	-1.8309083e-05
120	0x3a6157d5	0.0008596157
121	0xba602dd8	-0.0008551753
122	0xba49e4b3	-0.00077016203
123	0xb990d7cb	-0.000276266
124	0x38167148	3.586829e-05
125	0x3ad0f4b2	0.0015942066
126	0x3ad0f4b2	0.0015942066
127	0x3a0f2604	0.0005460682
128	0x3a51befb	0.00080011756
129	0xb7ca7276	-2.4133577e-05
130	0x3ad0f4b2	0.0015942066
131	0xb99edf09	-0.00030302283
132	0x3a61933b	0.0008605008
133	0xb9a02ed7	-0.00030552477
134	0x37c5b041	2.3566305e-05
135	0x3ad0f4b2	0.0015942066
136	0xba59c3bb	-0.0008307059
137	0xb99344b9	-0.00028089227
138	0xb8e951dc	-0.00011125553
139	0xb7834edc	-1.5653139e-05
140	0x3ad0f4b2	0.0015942066
141	0xba86ed65	-0.0010294138
142	0x3aa9ad9d	0.0012945418
143	0xb9954708	-0.00028472417
144	0xb7f604b6	-2.9327679e-05
145	0x3ad0f4b2	0.0015942066
146	0xbb08eb22	-0.0020892103
147	0xba989751	-0.0011641775
148	0xb9e9dcbc	-0.00044605683
149	0x39010be6	0.00012306831
150	0x00000000	0.0
151	0x00000000	0.0
152	0x00000000	0.0
153	0x00000000	0.0
154	0x00000000	0.0
155	0x00000000	0.0
156	0x00000000	0.0
157	0x00000000	0.0
158	0x00000000	0.0
159	0x00000000	0.0
160	0x00000000	0.0
161	0x00000000	0.0
162	0x00000000	0.0
163	0x00000000	0.0
164	0x00000000	0.0
165	0x00000000	0.0
166	0x00000000	0.0
167	0x00000000	0.0
168	0x00000000	0.0
169	0x00000000	0.0
170	0x00000000	0.0
171	0x00000000	0.0
172	0x00000000	0.0
173	0x00000000	0.0
174	0x00000000	0.0
175	0x3acdf49e	0.001571316
176	0x3acdf49e	0.001571316
177	0x3a2be738	0.00065575866
178	0x3a4ee89f	0.00078929396
179	0xb7a334d5	-1.9455716e-05
180	0x3acdf49e	0.001571316
181	0xb9621119	-0.00021559409
182	0x3a2b015a	0.0006523334
183	0xb9a3f4a2	-0.00031272048
184	0x379d674d	1.8763962e-05
185	0x3acdf49e	0.001571316
186	0xba28bfc9	-0.00064372696
187	0xb9ca1105	-0.00038541123
188	0xb8df3b7c	-0.000106445485
189	0xb7a8291f	-2.004631e-05
190	0x3acdf49e	0.001571316
191	0xba2ff411	-0.0006712089
192	0x3a914c8d	0.0011085436
193	0xb9923dee	-0.0002789343
194	0xb7eaceb4	-2.7991227e-05
195	0x3acdf49e	0.001571316
196	0xbae8a993	-0.0017750732
197	0xba9ba367	-0.0011874259
198	0xb9ec0e35	-0.00045024013
199	0x38d0ecd4	9.9623256e-05
200	0x3a945a94	0.0011318498
201	0x3a945a94	0.0011318498
202	0x39ed1e97	0.00045226954
203	0x3a0e7bc0	0.00054353103
204	0xb724c998	-9.822099e-06
205	0x3a945a94	0.0011318498
206	0x3899435d	7.308156e-05
207	0x3919f538	0.00014682568
208	0xb9327a92	-0.00017021064
209	0x37174779	9.016942e-06
210	0x3a945a94	0.0011318498
211	0xb966a910	-0.0002199749
212	0xb9106063	-0.00013768817
213	0xb8d4bf4e	-0.00010144581
214	0xb594aae5	-1.1076596e-06
215	0x3a945a94	0.0011318498
216	0xb9c9d7a7	-0.0003849838
217	0x39cbbbb6	0.00038859033
218	0xb91b0e60	-0.00014787307
219	0xb7148474	-8.852327e-06
220	0x3a945a94	0.0011318498
221	0xba30a493	-0.00067383907
222	0xba0a9a1a	-0.0005287245
223	0xb95f3600	-0.00021287054
224	0x3846930a	4.734382e-05
225	0x3ad1b240	0.0015998557
226	0x3ad1b240	0.0015998557
227	0x3a1c4c33	0.00059622823
228	0x3a51d5ed	0.0008004595
229	0xb7bbb607	-2.23769e-05
230	0x3ad1b240	0.0015998557
231	0xb9614dd7	-0.0002148667
232	0x3a36b112	0.00069691346
233	0xb99ce17d	-0.0002992264
234	0x37b92872	2.2072552e-05
235	0x3ad1b240	0.0015998557
236	0xba348cbe	-0.00068874273
237	0xb988649d	-0.00026014904
238	0xb8f80aa5	-0.00011827544
239	0xb76cb3ad	-1.410853e-05
240	0x3ad1b240	0.0015998557
241	0xba4820bd	-0.0007634273
242	0x3a90e238	0.0011053747
243	0xb98dc51f	-0.00027040482
244	0xb7c30f0a	-2.3252815e-05
245	0x3ad1b240	0.0015998557
246	0xbae59e72	-0.0017518534
247	0xba8cac93	-0.0010732583
248	0xb9ddad26	-0.0004228141
249	0x38e5dab1	0.000109603054
250	0x3ac3967d	0.0014922168
251	0x3ac3967d	0.0014922168
252	0x3a188fa2	0.0005819743
253	0x3a391d9c	0.0007061602
254	0xb7b264c1	-2.126617e-05
255	0x3ac3967d	0.0014922168

exp_avg_sq f4 [64, 25]
0	0x00000000	0.0
1	0x00000000	0.0
2	0x00000000	0.0
3	0x00000000	0.0
4	0x00000000	0.0
5	0x00000000	0.0
6	0x00000000	0.0
7	0x00000000	0.0
8	0x00000000	0.0
9	0x00000000	0.0
10	0x00000000	0.0
11	0x00000000	0.0
12	0x00000000	0.0
13	0x00000000	0.0
14	0x00000000	0.0
15	0x00000000	0.0
16	0x00000000	0.0
17	0x00000000	0.0
18	0x00000000	0.0
19	0x00000000	0.0
20	0x00000000	0.0
21	0x00000000	0.0
22	0x00000000	0.0
23	0x00000000	0.0
24	0x00000000	0.0
25	0x364b6b37	3.0311764e-06
26	0x364b6b37	3.0311764e-06
27	0x33a63d84	7.741167e-08
28	0x350fae18	5.352499e-07
29	0x2e9cb0f5	7.1254926e-11
30	0x364b6b37	3.0311764e-06
31	0x3404f04a	1.2380875e-07
32	0x3435fec4	1.6949622e-07
33	0x329f3fea	1.8539101e-08
34	0x2ebb9979	8.531038e-11
35	0x364b6b37	3.0311764e-06
36	0x33e91438	1.0853586e-07
37	0x34d8b6a2	4.0366018e-07
38	0x3299ba5a	1.7896287e-08
39	0x2f27153d	1.5196107e-10
40	0x364b6b37	3.0311764e-06
41	0x338c5ccc	6.536138e-08
42	0x3467baab	2.1581461e-07
43	0x32bfabad	2.2313396e-08
44	0x2f2f83c7	1.5962974e-10
45	0x364b6b37	3.0311764e-06
46	0x33eef858	1.1127912e-07
47	0x34b8d707	3.4429124e-07
48	0x32d5b815	2.4880174e-08
49	0x2f94d14c	2.7069758e-10
50	0x00000000	0.0
51	0x00000000	0.0
52	0x00000000	0.0
53	0x00000000	0.0
54	0x00000000	0.0
55	0x00000000	0.0
56	0x00000000	0.0
57	0x00000000	0.0
58	0x00000000	0.0
59	0x00000000	0.0
60	0x00000000	0.0
61	0x00000000	0.0
62	0x00000000	0.0
63	0x00000000	0.0
64	0x00000000	0.0
65	0x00000000	0.0
66	0x00000000	0.0
67	0x00000000	0.0
68	0x00000000	0.0
69	0x00000000	0.0
70	0x00000000	0.0
71	0x00000000	0.0
72	0x00000000	0.0
73	0x00000000	0.0
74	0x00000000	0.0
75	0x36e0f0c0	6.703747e-06
76	0x36e0f0c0	6.703747e-06
77	0x3493423e	2.742908e-07
78	0x359a3364	1.1488851e-06
79	0x2eeaeace	1.0682798e-10
80	0x36e0f0c0	6.703747e-06
81	0x3456c587	2.0002163e-07
82	0x34c3a7f1	3.6443774e-07
83	0x32eae8a1	2.7346973e-08
84	0x2f6ceb61	2.1547698e-10
85	0x36e0f0c0	6.703747e-06
86	0x3480204a	2.386535e-07
87	0x3529e524	6.329085e-07
88	0x32e5f6b5	2.6771298e-08
89	0x2f0ab881	1.2616576e-10
90	0x36e0f0c0	6.703747e-06
91	0x34b1bb17	3.3104945e-07
92	0x347b31c2	2.3394298e-07
93	0x32e562be	2.6704011e-08
94	0x2f58ed82	1.9729465e-10
95	0x36e0f0c0	6.703747e-06
96	0x345f458c	2.0793794e-07
97	0x3501b4ff	4.831963e-07
98	0x32d38536	2.462421e-08
99	0x30146d5a	5.3997484e-10
100	0x384fd61b	4.9552047e-05
101	0x384fd61b	4.9552047e-05
102	0x36a415f0	4.8901347e-06
103	0x3708a88f	8.145477e-06
104	0x30492976	7.3182294e-10
105	0x384fd61b	4.9552047e-05
106	0x361cf0a8	2.3385892e-06
107	0x35aafbaf	1.2739237e-06
108	0x342ff2b2	1.6386437e-07
109	0x3088f4ca	9.964876e-10
110	0x384fd61b	4.9552047e-05
111	0x361227cf	2.1778867e-06
112	0x361afe38	2.3095763e-06
113	0x343033bc	1.6410098e-07
114	0x30a0505e	1.1664374e-09
115	0x384fd61b	4.9552047e-05
116	0x362a0ac3	2.5338238e-06
117	0x358eb9a8	1.0633858e-06
118	0x343882b6	1.7183888e-07
119	0x308fb877	1.0457047e-09
120	0x384fd61b	4.9552047e-05
121	0x3617c1e9	2.2613624e-06
122	0x35ec7372	1.7616969e-06
123	0x343919d1	1.723886e-07
124	0x31538766	3.0781506e-09
125	0x39126d3c	0.00013964338
126	0x39126d3c	0.00013964338
127	0x376659f9	1.3730017e-05
128	0x37c11bfa	2.302042e-05
129	0x311628df	2.1851105e-09
130	0x39126d3c	0.00013964338
131	0x36d1fe25	6.2582717e-06
132	0x36592e46	3.2362454e-06
133	0x34ec0e37	4.3968768e-07
134	0x313f9506	2.7878868e-09
135	0x39126d3c	0.00013964338
136	0x36c43622	5.847557e-06
137	0x36cdc481	6.132352e-06
138	0x34f6b38b	4.5951705e-07
139	0x31732caf	3.5386554e-09
140	0x39126d3c	0.00013964338
141	0x36fe2996	7.574631e-06
142	0x36325e7f	2.657907e-06
143	0x3500ad2f	4.793573e-07
144	0x31746a13	3.556697e-09
145	0x39126d3c	0.00013964338
146	0x36f38b55	7.2581847e-06
147	0x36932899	4.3856676e-06
148	0x34f85b4b	4.6260024e-07
149	0x323c8546	1.0973343e-08
150	0x00000000	0.0
151	0x00000000	0.0
152	0x00000000	0.0
153	0x00000000	0.0
154	0x00000000	0.0
155	0x00000000	0.0
156	0x00000000	0.0
157	0x00000000	0.0
158	0x00000000	0.0
159	0x00000000	0.0
160	0x00000000	0.0
161	0x00000000	0.0
162	0x00000000	0.0
163	0x00000000	0.0
164	0x00000000	0.0
165	0x00000000	0.0
166	0x00000000	0.0
167	0x00000000	0.0
168	0x00000000	0.0
169	0x00000000	0.0
170	0x00000000	0.0
171	0x00000000	0.0
172	0x00000000	0.0
173	0x00000000	0.0
174	0x00000000	0.0
175	0x3944ba9a	0.00018761531
176	0x3944ba9a	0.00018761531
177	0x3781532e	1.5416732e-05
178	0x3801fb30	3.0989933e-05
179	0x311be039	2.2682924e-09
180	0x3944ba9a	0.00018761531
181	0x36e907d6	6.9448533e-06
182	0x368dfac6	4.2313213e-06
183	0x35185a4b	5.6755806e-07
184	0x316333cf	3.3062297e-09
185	0x3944ba9a	0.00018761531
186	0x36dbcd7c	6.55063e-06
187	0x37176e66	9.0260055e-06
188	0x3527cd11	6.251076e-07
189	0x317df1bb	3.6953753e-09
190	0x3944ba9a	0.00018761531
191	0x3709b5e8	8.20819e-06
192	0x367f6941	3.8059227e-06
193	0x35260895	6.185231e-07
194	0x31770fc5	3.5952195e-09
195	0x3944ba9a	0.00018761531
196	0x36f90cdb	7.422275e-06
197	0x36bc6deb	5.6156327e-06
198	0x35144ff2	5.525063e-07
199	0x322fe743	1.02389235e-08
200	0x3705ff7c	7.986902e-06
201	0x3705ff7c	7.986902e-06
202	0x35758279	9.1459475e-07
203	0x35bb4a75	1.3954256e-06
204	0x2f8894d7	2.4844013e-10
205	0x3705ff7c	7.986902e-06
206	0x34d1e670	3.909695e-07
207	0x34a11204	3.0001695e-07
208	0x332ed804	4.0708997e-08
209	0x2fa84699	3.0609185e-10
210	0x3705ff7c	7.986902e-06
211	0x34ba5e9d	3.471404e-07
212	0x352ee4e9	6.515316e-07
213	0x3321c5c9	3.7665618e-08
214	0x2fb30f86	3.257094e-10
215	0x3705ff7c	7.986902e-06
216	0x35109418	5.3859685e-07
217	0x349a5df7	2.8753104e-07
218	0x3330d972	4.117596e-08
219	0x2fea5261	4.2622886e-10
220	0x3705ff7c	7.986902e-06
221	0x350d5ffd	5.2666275e-07
222	0x34e8336a	4.3250776e-07
223	0x332d0db7	4.0292175e-08
224	0x30c18e6b	1.4083076e-09
225	0x38e62020	0.000109732384
226	0x38e62020	0.000109732384
227	0x373565d4	1.0812149e-05
228	0x37976c7b	1.8051118e-05
229	0x30f01f57	1.7471206e-09
230	0x38e62020	0.000109732384
231	0x369ef7c6	4.7376116e-06
232	0x362ee3d7	2.606064e-06
233	0x34b864f0	3.4346112e-07
234	0x3116c372	2.193897e-09
235	0x38e62020	0.000109732384
236	0x3696ef9a	4.4982417e-06
237	0x369fe8ce	4.7656713e-06
238	0x34bfbd97	3.5714467e-07
239	0x313d9e29	2.7593023e-09
240	0x38e62020	0.000109732384
241	0x36c16275	5.76331e-06
242	0x360b5319	2.0760983e-06
243	0x34c81fc9	3.727603e-07
244	0x3130c713	2.5724531e-09
245	0x38e62020	0.000109732384
246	0x36b6ea8d	5.451328e-06
247	0x3672ccdd	3.6180056e-06
248	0x34c215b2	3.61511e-07
249	0x321136f2	8.452604e-09
250	0x38c160ad	9.2209644e-05
251	0x38c160ad	9.2209644e-05
252	0x37244847	9.79199e-06
253	0x377de06e	1.5132229e-05
254	0x30df5fea	1.6252646e-09
255	0x38c160ad	9.2209644e-05

exp_avg f4 [64]
0	0x00000000	0.0
1	0x3778cb15	1.4829236e-05
2	0x00000000	0.0
3	0x3abe3f22	0.0014514665
4	0x3a6157d5	0.0008596157
5	0x3ad0f4b4	0.0015942068
6	0x00000000	0.0
7	0x3acdf49f	0.0015713162
8	0x3a945a93	0.0011318497
9	0x3ad1b243	0.0015998561
10	0x3ac3967b	0.0014922166
11	0x00000000	0.0
12	0xb9366cb4	-0.00017397368
13	0x3b03de95	0.0020121683
14	0x3b03f2c4	0.0020133713
15	0x3ae71b83	0.00176321
16	0x3ad82698	0.0016490994
17	0x3aa30588	0.0012437562
18	0x3a860763	0.001022559
19	0x3b46f04e	0.0030355635
20	0x00000000	0.0
21	0x3ace90ab	0.0015759667
22	0x3b057a89	0.0020367226
23	0x3a34fdaa	0.0006904254
24	0x38963133	7.1617214e-05
25	0x3a9a6ec3	0.0011782277
26	0x00000000	0.0
27	0x3b20118f	0.0024424528
28	0xb9bbce29	-0.0003582102
29	0x3a8b6332	0.0010634421
30	0x3a5d22cf	0.0008435668
31	0x00000000	0.0
32	0x3a08b74c	0.00052153016
33	0x3107daa3	1.9769366e-09
34	0x3821735c	3.8492828e-05
35	0x26a479ce	1.1412801e-15
36	0x3b20da13	0.0024544045
37	0x00000000	0.0
38	0x00000000	0.0
39	0x33e8a1df	1.0832786e-07
40	0x3a834b66	0.0010016977
41	0x3ad72f14	0.0016417229
42	0x39d5fcc7	0.0004081486
43	0x39fc8aeb	0.00048168687
44	0x3afefd44	0.0019454141
45	0x00000000	0.0
46	0x3a292648	0.0006452543
47	0x3a3ed537	0.00072796963
48	0x3ade6065	0.0016965984
49	0xb86711e0	-5.509134e-05
50	0x3ae37672	0.0017354025
51	0x3ae41d88	0.001740382
52	0x38fc100c	0.00012019285
53	0x39fe091a	0.00048453436
54	0x00000000	0.0
55	0x39eadcd4	0.00044796488
56	0x00000000	0.0
57	0x3a8eeb48	0.001090386
58	0x3af929da	0.0019009665
59	0x39b373fc	0.00034227956
60	0x2b16fbef	5.3640333e-13
61	0x00000000	0.0
62	0x00000000	0.0
63	0x3acd29f5	0.0015652763

exp_avg_sq f4 [64]
0	0x00000000	0.0
1	0x364b6b36	3.0311762e-06
2	0x00000000	0.0
3	0x36e0f0c0	6.703747e-06
4	0x384fd61b	4.9552047e-05
5	0x39126d3c	0.00013964338
6	0x00000000	0.0
7	0x3944ba9a	0.00018761531
8	0x3705ff7d	7.986903e-06
9	0x38e62020	0.000109732384
10	0x38c160ad	9.2209644e-05
11	0x00000000	0.0
12	0x372c7a87	1.0280527e-05
13	0x39599a47	0.00020752205
14	0x39256632	0.00015773697
15	0x3808f5ab	3.2653723e-05
16	0x389b28cb	7.398574e-05
17	0x38d27723	0.00010035771
18	0x3887540a	6.452955e-05
19	0x3841856c	4.6139045e-05
20	0x00000000	0.0
21	0x3862859e	5.400704e-05
22	0x392aac9f	0.0001627677
23	0x388550fc	6.357019e-05
24	0x3725d550	9.884432e-06
25	0x38f09227	0.00011471315
26	0x00000000	0.0
27	0x391d3f48	0.00014996261
28	0x368653ed	4.0032814e-06
29	0x37af14e4	2.0871354e-05
30	0x37906798	1.7214377e-05
31	0x00000000	0.0
32	0x36088676	2.0343846e-06
33	0x3139704d	2.6984879e-09
34	0x373918c9	1.103263e-05
35	0x2a439202	1.7370136e-13
36	0x391dcba8	0.00015048555
37	0x00000000	0.0
38	0x00000000	0.0
39	0x31b7b118	5.346134e-09
40	0x384d2ba5	4.8916456e-05
41	0x38a19b7d	7.70604e-05
42	0x36a6144e	4.9495493e-06
43	0x35cbb821	1.5178267e-06
44	0x38d072c7	9.939592e-05
45	0x00000000	0.0
46	0x38355486	4.323248e-05
47	0x37fce272	3.0146188e-05
48	0x38aacc3c	8.144273e-05
49	0x36352767	2.6994037e-06
50	0x387fed00	6.101746e-05
51	0x37e4a672	2.7257225e-05
52	0x354cb2a5	7.6255884e-07
53	0x372ea7b9	1.0410259e-05
54	0x00000000	0.0
55	0x37eeb3ae	2.845548e-05
56	0x00000000	0.0
57	0x38b5e976	8.674238e-05
58	0x38814e75	6.165813e-05
59	0x36389c39	2.750907e-06
60	0x3446a1e2	1.849908e-07
61	0x00000000	0.0
62	0x00000000	0.0
63	0x37fcd1fc	3.0138523e-05

exp_avg f4 [64, 64]
0	0x00000000	0.0
1	0x382f216b	4.1754374e-05
2	0x00000000	0.0
3	0x38b26345	8.506192e-05
4	0x3a6b9e5a	0.0008988135
5	0x3a3e06a2	0.0007248913
6	0x00000000	0.0
7	0x3a3227d1	0.0006796094
8	0x39784cfe	0.00023679805
9	0x39fe7870	0.00048536388
10	0x38ee6acf	0.00011368619
11	0x00000000	0.0
12	0x3695f377	4.468889e-06
13	0x3a699aba	0.00089113007
14	0x3a48c8d5	0.0007659321
15	0x3a389329	0.00070409715
16	0x39edb808	0.00045341277
17	0x3a55a5af	0.0008149994
18	0x3a2c86b5	0.0006581352
19	0x38fe0fad	0.00012114584
20	0x00000000	0.0
21	0x3a2ca0f7	0.0006585265
22	0x39c6cd53	0.0003791848
23	0x39e14c35	0.00042972123
24	0x3905f490	0.00012774975
25	0x3a1d4454	0.00059992564
26	0x00000000	0.0
27	0x3a3b742b	0.0007150794
28	0x38108c14	3.4462733e-05
29	0x39ea0bd2	0.00044640765
30	0x394a35d1	0.0001928427
31	0x00000000	0.0
32	0x39202f15	0.00015276328
33	0xae214683	-3.666979e-11
34	0x387c2940	6.01199e-05
35	0xa52485c8	-1.427006e-16
36	0x39f04596	0.00045828213
37	0x00000000	0.0
38	0x00000000	0.0
39	0x33d22a1a	9.786545e-08
40	0x3a80907a	0.0009808682
41	0x3a3a5c69	0.0007109107
42	0x38231bbd	3.888806e-05
43	0x389f04ce	7.582606e-05
44	0x3a336707	0.00068436604
45	0x00000000	0.0
46	0x3991f885	0.00027841717
47	0x39f7cf40	0.00047265925
48	0x39d8e1fb	0.000413671
49	0x38c7e38d	9.531444e-05
50	0x3a39f55d	0.0007093752
51	0x39d9c4dc	0.00041536137
52	0x3673526c	3.6257798e-06
53	0x399edb20	0.0003029937
54	0x00000000	0.0
55	0x399a8b30	0.00029476872
56	0x00000000	0.0
57	0x3a4e5fa0	0.00078725256
58	0x3a9c42ab	0.0011921724
59	0x366ddbfb	3.5443798e-06
60	0xa7912d62	-4.029479e-15
61	0x00000000	0.0
62	0x00000000	0.0
63	0x3a4d688e	0.0007835709
64	0x00000000	0.0
65	0x1fa2ffb5	6.90327e-20
66	0x00000000	0.0
67	0x20838b04	2.2284256e-19
68	0x216e09c8	8.065048e-19
69	0x20cbe99c	3.4544127e-19
70	0x00000000	0.0
71	0x210bec5c	4.740785e-19
72	0x20ebe2e8	3.9960702e-19
73	0x20820e3c	2.2032276e-19
74	0x1e947c55	1.5721532e-20
75	0x00000000	0.0
76	0x9eac1632	-1.8220388e-20
77	0x21a56c09	1.1209432e-18
78	0x21129d82	4.9675184e-19
79	0x2177bee3	8.393949e-19
80	0x1eff9717	2.7061664e-20
81	0x20cb698a	3.4459378e-19
82	0x2114162d	5.01737e-19
83	0x1e08ec2d	7.24862e-21
84	0x00000000	0.0
85	0x211054b4	4.89012e-19
86	0x1fbbc2ea	7.952004e-20
87	0x1ca68233	1.1018614e-21
88	0x9edfb9f4	-2.3687952e-20
89	0x211500ee	5.0484394e-19
90	0x00000000	0.0
91	0x2112e597	4.9770584e-19
92	0x2018df78	1.294884e-19
93	0x1f302282	3.7297994e-20
94	0x1fc07fa9	8.152636e-20
95	0x00000000	0.0
96	0x9cb88ff7	-1.2213313e-21
97	0x00000000	0.0
98	0x1fe4dfde	9.693211e-20
99	0x00000000	0.0
100	0x2133cd17	6.0918993e-19
101	0x00000000	0.0
102	0x00000000	0.0
103	0x1b877bf9	2.2413992e-22
104	0x215d017b	7.487967e-19
105	0x2108e9f5	4.638823e-19
106	0x1da62f7c	4.398893e-21
107	0x1ec38bce	2.070425e-20
108	0x2158dd01	7.3476143e-19
109	0x00000000	0.0
110	0x99542a30	-1.0968663e-23
111	0x20d10382	3.5408298e-19
112	0x9cd67fc0	-1.4194355e-21
113	0x1c02251e	4.3061365e-22
114	0x210ce511	4.773701e-19
115	0x207b828a	2.1303719e-19
116	0x9cd7d732	-1.4283133e-21
117	0x1fdf8436	9.46629e-20
118	0x00000000	0.0
119	0x1fb6a96b	7.7360277e-20
120	0x00000000	0.0
121	0x21361baa	6.170061e-19
122	0x21992952	1.0378621e-18
123	0x00000000	0.0
124	0x00000000	0.0
125	0x00000000	0.0
126	0x00000000	0.0
127	0x21794e7c	8.4468355e-19
128	0x00000000	0.0
129	0x39cda3e3	0.00039222752
130	0x00000000	0.0
131	0x399cf3ab	0.00029936185
132	0x3a32e9fd	0.0006825028
133	0x3989ba3b	0.0002626943
134	0x00000000	0.0
135	0x390c1715	0.00013360039
136	0x38ffd5f3	0.00012199199
137	0xb828e2f3	-4.0265684e-05
138	0xba2c0c1c	-0.0006563084
139	0x00000000	0.0
140	0x392efe51	0.00016688673
141	0x3a659ec4	0.00087593147
142	0x3742ae56	1.1603892e-05
143	0x3a0ae27a	0.000529803
144	0xb98677df	-0.00025647783
145	0x39c21fd5	0.0003702628
146	0x39bceada	0.00036033132
147	0x39edbdd7	0.00045345604
148	0x00000000	0.0
149	0x39126487	0.00013961094
150	0x3959c6b4	0.00020768755
151	0xb9b4d6ad	-0.0003449222
152	0xb9891543	-0.00026146517
153	0xb65b27fe	-3.2656822e-06
154	0x00000000	0.0
155	0x394b526a	0.0001939029
156	0x3948250f	0.00019087292
157	0xb8cc935a	-9.7549244e-05
158	0xb8e8c643	-0.00011099551
159	0x00000000	0.0
160	0xb82028e4	-3.8185055e-05
161	0xaef91782	-1.1327385e-10
162	0xb8d7f6a3	-0.000102979386
163	0xa551422f	-1.8150284e-16
164	0x38fe94d6	0.00012139387
165	0x00000000	0.0
166	0x00000000	0.0
167	0x32af3cc0	2.0400307e-08
168	0x39bdd14b	0.00036204825
169	0x39c57cdf	0.00037667804
170	0x3876aa26	5.8809434e-05
171	0x386943dd	5.561473e-05
172	0x3a673b38	0.0008820775
173	0x00000000	0.0
174	0xb9b85d3a	-0.00035164674
175	0xb86319ea	-5.414515e-05
176	0xb7f9a9f4	-2.9762254e-05
177	0xb7b19188	-2.1167813e-05
178	0x399968f9	0.00029260645
179	0x38ed4911	0.0001131465
180	0x389151e3	6.9293914e-05
181	0xb98097d6	-0.0002452719
182	0x00000000	0.0
183	0x39ac5ec4	0.00032877002
184	0x00000000	0.0
185	0x39d78909	0.00041110095
186	0x3a260014	0.0006332409
187	0x352642bc	6.193693e-07
188	0xa87a97cd	-1.3910704e-14
189	0x00000000	0.0
190	0x00000000	0.0
191	0xb701c76a	-7.735429e-06
192	0x00000000	0.0
193	0x39167e45	0.00014352154
194	0x00000000	0.0
195	0x3919e740	0.00014677364
196	0x3a71f20c	0.0009229488
197	0x3a1c3859	0.0005959324
198	0x00000000	0.0
199	0x3a01a53f	0.0004945583
200	0x396edc95	0.00022779622
201	0x398065f5	0.00024490026
202	0xb94e843f	-0.00019694956
203	0x00000000	0.0
204	0x3898110e	7.2511015e-05
205	0x3a67aaa8	0.00088373804
206	0x3a103b20	0.00055019744
207	0x3a28ef78	0.0006444375
208	0x3973cd8b	0.00023250857
209	0x3a27a8e5	0.00063957117
210	0x3a14135b	0.0005648636
211	0x396c0780	0.00022509508
212	0x00000000	0.0
213	0x3a01f43f	0.0004957355
214	0x39ba30e9	0.00035513125
215	0x39941e79	0.00028251464
216	0xb85009b0	-4.9600087e-05
217	0x39c9ee60	0.0003851531
218	0x00000000	0.0
219	0x3a0d81da	0.00053980725
220	0x38dc3cb5	0.00010501725
221	0x39a71c70	0.0003187391
222	0x391a3d40	0.00014709402
223	0x00000000	0.0
224	0x396bbf58	0.00022482628
225	0xaef2d7a4	-1.10431914e-10
226	0x38a2f779	7.770857e-05
227	0xa57135eb	-2.0921686e-16
228	0x39bba1db	0.0003578801
229	0x00000000	0.0
230	0x00000000	0.0
231	0xb4019395	-1.2067751e-07
232	0x3a544953	0.00080980844
233	0x3a295b7c	0.00064604706
234	0x3839ea9d	4.4325938e-05
235	0x3886c889	6.4269705e-05
236	0x3a4f2c57	0.00079030305
237	0x00000000	0.0
238	0xb68dcfc5	-4.226315e-06
239	0x398d444e	0.00026944507
240	0x39aa3797	0.00032466344
241	0x38bd8aa7	9.038048e-05
242	0x3a2b0a42	0.0006524661
243	0x39af8636	0.00033478596
244	0x382186d1	3.851095e-05
245	0x397fda56	0.00024400032
246	0x00000000	0.0
247	0x39b6a61d	0.0003483751
248	0x00000000	0.0
249	0x3a3fa66c	0.00073108706
250	0x3a8e79db	0.0010870056
251	0x3638bb14	2.752703e-06
252	0xa881ca8f	-1.4409723e-14
253	0x00000000	0.0
254	0x00000000	0.0
255	0x3a06c78e	0.00051414303
