trails/HighwayEnv/DQNAgent/run_20191108-151847_401/checkpoint-7.tar (torch_old, 78242 bytes, 21 tensors)

base_module.layers.0.weight f4 [64, 25]
-0.18795739 -0.1751196 -0.15071651 -0.09732137 0.006302044 -0.05892782 -0.09015508 0.17362882
-0.09457457 0.105423465 -0.14120562 -0.007656306 0.018568426 0.19072898 0.11310412 0.13513662
-0.08871257 -0.12929547 0.11102177 -0.07109682 -0.14449874 -0.16547842 -0.080818914 0.17060252
-0.18149202 0.208182 -0.0920611 -0.13586347 0.15836753 0.19232032 -0.085687645 0.04838701
-0.077112705 0.15861641 0.09980272 0.17771202 0.022820618 0.17287922 -0.22628462 -0.0982852
0.03451534 -0.1418587 0.14200807 -0.055232942 -0.1724042 -0.15427381 -0.20437619 0.06569781
0.01155069 -0.1518307 -0.13808206 0.18664815 0.13177885 0.036261648 0.08439492 -0.1565948
0.12699907 0.18329363 0.047593832 0.111898735 0.009364486 -0.037035972 -0.1276184 -0.12697978
0.1395186 -0.11012242 0.14344494 -0.080529906 0.15058737 -0.15868011 -0.14991117 0.13167356
0.18945448 -0.17883272 0.17856361 0.104860626 -0.08223764 -0.044270683 0.13804507 0.08699614
-0.18051785 -0.022908363 0.14209104 0.12431612 -0.02097361 0.043182507 0.16802089 0.03281564
-0.14221819 0.024622222 -0.16155615 -0.036708206 0.102509916 0.17274858 -0.018476866 0.095665805
-0.16618642 -0.10638472 -0.03759146 0.020061953 0.18903217 0.14400093 0.049888484 0.0857912
-0.03849894 0.13818647 -0.15935625 0.07595535 0.017126516 -0.03524164 0.09094586 -0.021099089
-0.13690512 0.15756051 0.08983765 0.1921761 -0.011035125 0.026978107 0.13101533 0.10716359
-0.026826888 -0.0026810193 -0.12043036 -0.008996476 0.11974359 0.010716059 0.139964 0.044065744
-0.03542821 -0.16683675 0.04757106 0.22817878 0.036556292 0.091478094 -0.051640835 0.010401585
-0.1414194 0.11452654 -0.024096979 -0.124475 -0.017217062 0.19622022 0.19281799 0.0978673
0.035887424 0.09281581 0.14498247 -0.15589353 -0.18936202 0.053417426 -0.19411483 -0.11291351
0.016382337 -0.07464865 -0.1426893 0.17572235 0.14889048 -0.14084323 0.07663651 0.04363334
-0.1429468 -0.124163985 0.0138555765 0.18404464 0.027161092 -0.048153758 -0.15721169 -0.17518516
0.13033526 -0.05159989 -0.16655152 0.10027672 0.15012647 0.01507099 0.1828761 0.19477022
0.13115665 -0.042201508 0.17357585 -0.054685544 0.027922172 -0.0122484 0.1910245 -0.20917048
0.18092772 -0.1534935 -0.09116071 0.15275858 -0.18107478 0.094605386 0.08386109 0.23252629
0.029593427 -0.07169908 -0.04707054 0.15954012 0.19279343 -0.1583733 0.14970846 -0.052025426
0.03845722 0.10063398 0.16220406 -0.028145008 0.17711537 -0.06877126 -0.18487886 0.147152
-0.010308642 -0.12664731 0.034563366 0.06337603 0.14328352 0.20611173 0.0662402 -0.0055601364
0.12050791 -0.12294344 -0.1241775 0.038873915 0.09897134 -0.15153503 -0.040763967 -0.018485824
-0.04919609 -0.05699233 0.1690912 0.20020305 0.06462212 -0.18987374 -0.070991226 0.11499779
-0.10751653 0.09972015 0.14910021 0.20226967 -0.049467172 0.1731948 0.05939516 0.05635875
0.015307937 -0.03381244 0.08340596 0.12174607 0.16912861 -0.106481865 0.21083565 0.079461455
-0.116045706 0.11906645 -0.07829579 0.1853975 -0.08822734 0.028585738 0.15873411 -0.09771573
00000000: e777 40be 8d52 33be 6e55 1abe 6d50 c7bd
00000010: 6081 ce3b 4c5e 71bd 3aa3 b8bd c1cb 313e
00000020: 50b0 c1bd 42e8 d73d 3598 10be c0e1 fabb
00000030: d01c 983c 754e 433e 22a3 e73d 4161 0a3e
00000040: f0ae b5bd 0866 04be 625f e33d 369b 91bd
00000050: 7af7 13be 2d73 29be 6384 a5bd 6db2 2e3e
00000060: 0bd9 39be aa2d 553e 888a bcbd cb1f 0bbe
00000070: 192b 223e 9eef 443e 017d afbd 7531 463d
00000080: 44ed 9dbd 576c 223e 5e65 cc3d 24fa 353e
00000090: 4ef2 ba3c 4007 313e 28b7 67be c049 c9bd
000000a0: f55f 0d3d 6843 11be 906a 113e f03b 62bd
000000b0: ba8a 30be f4f9 1dbe fe47 51be 938c 863d
000000c0: 1b3f 3d3c 8279 1bbe 6265 0dbe b120 3f3e
000000d0: 09f1 063e 1887 143d 3ed7 ac3d 635a 20be
000000e0: 0b0c 023e 53b1 3b3e c0f1 423d 2a2b e53d
000000f0: 806d 193c 08b3 17bd 66ae 02be fd06 02be
00000100: f7dd 0e3e dd87 e1bd 3be3 123e ddec a4bd
00000110: 9333 1a3e 0a7d 22be 5082 19be 6fd5 063e
00000120: 5b00 423e ed1f 37be 61d9 363e 2bc1 d63d
00000130: 356c a8bd 2d55 35bd b05b 0d3e 082b b23d
00000140: acd9 38be 52aa bbbc 5080 113e 7399 fe3d
00000150: d9d0 abbc 24e0 303d ab0d 2c3e b169 063d
00000160: a5a1 11be 8bb4 c93c fa6e 25be 585b 16bd
00000170: b8f0 d13d 01e5 303e cc5c 97bc 6fec c33d
00000180: c62c 2abe 3be0 d9bd 81f9 19bd f758 a43c
00000190: a691 413e fb74 133e de57 4c3d 4cb3 af3d
000001a0: 11b1 1dbd c180 0d3e 492e 23be 7b8e 9b3d
000001b0: e84c 8c3c 8a59 10bd d341 ba3d ffd7 acbc
000001c0: db30 0cbe 8b57 213e cdfc b73d d0c9 443e
000001d0: abcc 34bc 3101 dd3c e228 063e 9678 db3d
000001e0: 10c4 dbbc 0ab4 2fbb 31a4 f6bd f565 13bc
000001f0: 213c f53d 6992 2f3c b952 0f3e 487e 343d
00000200: 2c1d 11bd 41d7 2abe dfd9 423d b3a7 693e
00000210: 0dbc 153d de58 bb3d 5785 53bd 696b 2a3c
00000220: 3fd0 10be e48c ea3d 0767 c5bc c0ec febd
00000230: cc0a 8dbc f4ed 483e 1472 453e a76e c83d
00000240: b1fe 123d 3716 be3d 4976 143e 8ea2 1fbe
00000250: 1ee8 41be 3bcc 5a3d 0ac6 46be 333f e7bd
00000260: 4034 863c 64e1 98bd 251d 12be 8ff0 333e
00000270: bf76 183e 3539 10be 9af3 9c3d e0b8 323d
00000280: a560 12be b049 febd 8002 633c 3376 3c3e
00000290: f080 de3c e03c 45bd 1afc 20be bd63 33be
000002a0: 9b76 053e 685a 53bd 7b8c 2abe e25d cd3d
000002b0: c1ba 193e 50ec 763c df43 3b3e d871 473e
000002c0: ee4d 063e 7ddb 2cbd debd 313e f3fd 5fbd
000002d0: 0abd e43c 83ad 48bc ed9b 433e c930 56be
000002e0: 1e45 393e 662d 1dbe 77b2 babd bf6c 1c3e
000002f0: ab6b 39be 78c0 c13d 5dbf ab3d 5f1b 6e3e
00000300: ea6d f23c f8d6 92bd 0acd 40bd 7c5e 233e
00000310: a46b 453e 9c2c 22be 2d4d 193e 9d18 55bd
00000320: 5185 1d3d 3019 ce3d d218 263e 5c90 e6bc
00000330: bb5d 353e f2d7 8cbd e250 3dbe 04af 163e
00000340: 94e5 28bc d5af 01be 5192 0d3d 4bcb 813d
00000350: eab8 123e f40e 533e f1a8 873d ce31 b6bb
00000360: dacc f63d c5c9 fbbd c650 febd 413a 1f3d
00000370: 7cb1 ca3d 002c 1bbe 1ef8 26bd 956f 97bc
00000380: d781 49bd ca70 69bd 3e26 2d3e 0702 4d3e
00000390: 9a58 843d 436e 42be d963 91bd f683 eb3d
000003a0: a031 dcbd 143a cc3d baad 183e c81f 4f3e
000003b0: 179e 4abd fa59 313e 5748 733d 6fd8 663d
000003c0: 24ce 7a3c ea7e 0abd bed0 aa3d 0156 f93d
000003d0: 0d30 2d3e 2a13 dabd 4de5 573e b0bc a23d
000003e0: 5fa9 edbd 1cd9 f33d 8b59 a0bd d8d8 3d3e
000003f0: 89b0 b4bd a32c ea3c 328b 223e 2f1f c8bd

base_module.layers.0.bias f4 [64]
-0.050723046 -0.10059868 -0.1879084 0.14965768 0.04242805 0.22837842 0.18896763 0.012169142
-0.09898797 0.13082075 0.064493924 -0.1873341 -0.15296742 0.13230492 0.20772497 0.13944572
0.17715959 -0.067756765 0.056651022 0.06483225 -0.015069991 -0.11996891 0.1375815 -0.10561925
0.15787883 0.21854198 -0.18520187 0.16721694 -0.10956405 0.11905548 -0.15816522 -0.081168465
0.11250521 -0.04413131 -0.05705345 -0.02595894 0.10885269 -0.039358974 -0.11949003 -0.18659386
0.055108797 0.18030913 -0.03718523 0.1770577 0.23377886 -0.04633677 -0.101024106 0.19565423
-0.051123872 -0.014034475 0.03569085 0.10638809 0.052599534 0.17947845 -0.16558075 -0.074652195
-0.1688069 0.05628996 0.08055428 0.18814854 0.19092853 -0.16599706 0.14987753 0.09439598
00000000: f8c2 4fbd ae06 cebd 0f6b 40be dd3f 193e
00000010: 09c9 2d3d 08dc 693e bb80 413e 1561 473c
00000020: 34ba cabd e0f5 053e 6415 843d 83d4 3fbe
00000030: 7ea3 1cbe f17a 073e dbb5 543e dcca 0e3e
00000040: 5369 353e 0fc4 8abd e70a 683d c5c6 843d
00000050: 20e8 76bc 43b2 f5bd 2ae2 0c3e e84e d8bd
00000060: fdaa 213e 78c9 5f3e 8fa5 3dbe eb3a 2b3e
00000070: 1e63 e0bd 5cd3 f33d 10f6 21be a73b a6bd
00000080: 2269 e63d 08c3 34bd e1b0 69bd d8a7 d4bc
00000090: 29ee de3d e036 21bd 30b7 f4bd 7612 3fbe
000000a0: c3b9 613d f5a2 383e 8a4f 18bd 9d4e 353e
000000b0: ba63 6f3e a0cb 3dbd bae5 cebd 9559 483e
000000c0: 4467 51bd dbf0 65bc 9230 123d 00e2 d93d
000000d0: 9c72 573d 33c9 373e 008e 29be 40e3 98bd
000000e0: b7db 2cbe 4d90 663d a4f9 a43d 03aa 403e
000000f0: c582 433e 22fb 29be 7f79 193e ae52 c13d

base_module.layers.1.weight f4 [64, 64]
0.05875492 -0.07454724 0.10218935 0.10542774 0.06331207 0.07045019 -0.08976968 -0.055474397
0.088693365 0.022491679 0.08805176 -0.11739625 0.09830825 0.111117706 -0.04098315 0.006089184
0.109645545 -0.09145484 0.10308595 0.058093313 0.019129232 -0.017137202 -0.1104678 0.002390202
-0.055926673 -0.05591347 -0.05688761 -0.06929443 0.13752149 0.036223557 -0.038203992 -0.05122204
0.13383417 0.06548518 -0.04924387 -0.08941376 0.023993995 0.083951995 0.099034354 -0.11231236
0.0036816073 -0.09839025 -0.037223827 0.06532226 0.13540012 -0.008399233 0.011983976 -0.0027434062
-0.010161852 0.14770873 0.12211766 0.046618722 0.09173686 0.018107664 -0.04687114 0.0892511
0.12285927 -0.090902686 0.09170951 0.12016797 -0.036166072 -0.0694792 0.09429474 0.04068533
0.118820935 0.057100475 0.09801024 0.113217756 0.041264713 -0.050769135 -0.11584443 0.014786482
-0.10866528 -0.06846016 -0.09197549 -0.08115275 -0.062322445 0.039460126 -0.121132664 -0.07602243
0.055866882 -0.028472615 0.020891938 0.02266975 0.060571462 0.044040494 0.0315442 0.016826242
-0.018445747 -0.09995999 0.051762044 -0.06632612 -0.047188576 -0.00051596994 -0.11186346 -0.014238462
-0.070656024 -0.011354402 0.00817767 -0.111150086 0.06029621 -0.016707972 0.05756186 0.07652804
0.059621215 -0.07755147 0.09993489 0.09801767 -0.044814315 0.040251642 0.117702395 -0.069103576
0.091694176 -0.112163365 0.023052176 0.019481126 -0.023125501 -0.10570792 0.07813446 0.10680433
-0.05230032 -0.08392089 -0.052576724 0.000982523 0.12486954 -0.103535414 0.031816468 0.10049014
0.11888076 0.047584295 0.10544984 0.1317205 0.13230498 0.12603891 -0.085280836 0.13803576
-0.030581893 -0.028092759 0.0018623543 -0.082498565 0.13975845 0.15465032 -0.069299005 -0.07333253
0.15154007 0.0265102 0.057078972 0.02079043 -0.07641402 -0.03806482 -0.041074984 0.14489318
-0.011676409 -0.056018054 0.09368169 0.13305189 -0.107426345 0.041053683 -0.025684923 0.115599945
-0.029068625 0.0018133819 0.010079645 0.0009925663 -0.019628277 -0.1240754 -0.07149413 -0.0040896563
0.028258191 0.096060455 0.020648576 0.052350707 0.09847414 0.11259413 -0.08365295 -0.014410055
0.080818206 0.05115172 -0.07340837 -0.07316084 -0.040801898 0.03225036 -0.058168545 0.040311545
0.011723489 0.010410668 0.028009541 0.010405034 -0.09435651 0.09995483 -0.08558494 0.10227713
0.056024954 -0.08034733 -0.014786303 0.13581175 -0.070996255 0.06377793 0.092972845 -0.021832556
0.024142371 0.15428641 0.12000356 -0.083969116 0.14776407 -0.05872837 0.03909371 -0.004994935
-0.0058985515 -0.07142481 0.11733264 0.017922346 0.08193293 0.09493851 -0.057412576 -0.0417836
0.16048686 0.09988979 -0.08046974 0.115071595 0.016050309 0.09497004 0.0009976667 -0.118226886
0.08111867 0.06596474 -0.08178028 -0.060602397 0.019693831 0.04548894 0.029441163 0.11977649
-0.049753334 0.14242278 0.058907676 -0.020282902 -0.054837808 0.05795403 0.1308823 -0.050635736
0.1455263 -0.10325038 0.102428734 0.14270085 -0.030769585 0.10552494 0.058513507 0.030333392
-0.06217882 0.117249325 0.10623479 0.048315376 -0.071239516 -0.1068535 -0.09789789 0.0315683
00000000: 00a9 703d 39ac 98bd a648 d13d 80ea d73d
00000010: c2a9 813d 3048 903d 2ad9 b7bd 1f39 63bd
00000020: dea4 b53d 7840 b83c 7b54 b43d 726d f0bd
00000030: d655 c93d ae91 e33d f3dd 27bd c787 c73b
00000040: d88d e03d ad4c bbbd ba1e d33d 41f3 6d3d
00000050: e8b4 9c3c 5163 8cbc f13c e2bd efa4 1c3b
00000060: 5e13 65bd 8605 65bd fc02 69bd 3dea 8dbd
00000070: 6fd2 0c3e 275f 143d ca7b 1cbd 34ce 51bd
00000080: d30b 093e 181d 863d f1b3 49bd 901e b7bd
00000090: 0e8f c43c 06ef ab3d 86d2 ca3d 0604 e6bd
000000a0: 1f47 713b d480 c9bd 0378 18bd adc7 853d
000000b0: 54a6 0a3e f09c 09bc 7058 443c b8ca 33bb
000000c0: e67d 26bc f540 173e d318 fa3d 46f3 3e3d
000000d0: 89e0 bb3d 8656 943c f4fb 3fbd 48c9 b63d
000000e0: a49d fb3d 302b babd 32d2 bb3d a01a f63d
000000f0: e022 14bd 1c4b 8ebd 9a1d c13d a9a5 263d
00000100: 6458 f33d 30e2 693d 98b9 c83d b6de e73d
00000110: 3005 293d 4cf3 4fbd d83f edbd 0043 723c
00000120: e78b debd d734 8cbd a55d bcbd 6a33 a6bd
00000130: d245 7fbd f1a0 213d 6714 f8bd a6b1 9bbd
00000140: acd4 643d 673f e9bc 9225 ab3c e9b5 b93c
00000150: c819 783d ce63 343d 7e34 013d 30d7 893c
00000160: 891b 97bc d3b7 ccbd 7004 543d fdd5 87bd
00000170: cf48 41bd 2842 07ba ab18 e5bd 7048 69bc
00000180: 1bb4 90bd d007 3abc a2fb 053c a8a2 e3bd
00000190: 29f9 763d 28df 88bc fcc5 6b3d bcba 9c3d
000001a0: 6035 743d 4ed3 9ebd aaaa cc3d 7dbd c83d
000001b0: 378f 37bd e8de 243d f40d f13d 2d86 8dbd
000001c0: 28ca bb3d e8b5 e5bd ebd7 bc3c e296 9f3c
000001d0: b171 bdbc 657d d8bd f604 a03d 3bbc da3d
000001e0: dc38 56bd b7de abbd b15a 57bd 00c8 803a
000001f0: 9abb ff3d 600a d4bd fc51 023d c6cd cd3d
00000200: c277 f33d c0e7 423d 16f6 d73d bde1 063e
00000210: f57a 073e 5810 013e b8a7 aebd 3f59 0d3e
00000220: e186 fabc c922 e6bc 3e1a f43a 02f5 a8bd
00000230: d71c 0f3e a75c 1e3e a3ec 8dbd 5e2f 96bd
00000240: 522d 1b3e eb2b d93c a4cb 693d b150 aa3c
00000250: f47e 9cbd dbe9 1bbd 3e3e 28bd e15e 143e
00000260: 694e 3fbc 3073 65bd 30dc bf3d c13e 083e
00000270: 5802 dcbd e827 283d 3069 d2bc aabf ec3d
00000280: 5321 eebc 00af ed3a 1825 253c 0019 823a
00000290: 7bcb a0bc 3e1b febd 846b 92bd 8602 86bb
000002a0: b97d e73c 58bb c43d 3427 a93c b26d 563d
000002b0: cfac c93d c097 e63d 3d52 abbd 2718 6cbc
000002c0: 0484 a53d 7784 513d 2157 96bd 5ad5 95bd
000002d0: e41f 27bd f418 043d 2442 6ebd b81d 253d
000002e0: e013 403c 8291 2a3c 4474 e53c e079 2a3c
000002f0: fc3d c1bd 1eb5 cc3d 2847 afbd ac76 d13d
00000300: 6c7a 653d 248d a4bd 4042 72bc 3c12 0b3e
00000310: 7c66 91bd 019e 823d 8c68 be3d 30da b2bc
00000320: 39c6 c53c 42fd 1d3e 6dc4 f53d 00f8 abbd
00000330: 774f 173e 298d 70bd ba20 203d 8dac a3bb
00000340: a348 c1bb 2c47 92bd 184c f03d e2d1 923c
00000350: 74cc a73d 1f6f c23d 7329 6bbd 4825 2bbd
00000360: ab56 243e 0593 cc3d 52cd a4bd a8aa eb3d
00000370: f07b 833c a77f c23d 24c4 823a f020 f2bd
00000380: 8c21 a63d 8618 873d 6b7c a7bd 383a 78bd
00000390: f554 a13c 9c52 3a3d 982e f13c 604d f53d
000003a0: 27ca 4bbd 47d7 113e 2d49 713d 5428 a6bc
000003b0: 9c9d 60bd 3461 6d3d 0206 063e 6b67 4fbd
000003c0: d904 153e ef74 d3bd 28c6 d13d 2c20 123e
000003d0: 7f10 fcbc 761d d83d dcab 6f3d bc7d f83c
000003e0: 38af 7ebd 6a20 f03d a091 d93d 58e6 453d
000003f0: 06e6 91bd 02d6 dabd b07e c8bd c34d 013d

base_module.layers.1.bias f4 [64]
0.13489862 0.08338877 0.13627183 0.041536484 0.07899063 -0.08328795 -0.101159506 0.094979666
-0.100099646 0.016110651 0.0979616 0.102153435 0.02380594 -0.04412912 -0.07315229 -0.008351742
-0.026769172 0.05494199 0.06392668 0.10840729 0.11306769 -0.07792139 0.10244936 0.08767209
-0.047730967 0.008683229 0.03217933 0.0650827 0.08984639 -0.02131976 -0.050921265 0.044953685
0.13226557 -0.06714606 -0.02389269 -0.072970025 0.08654172 0.11922203 0.037689094 0.025082022
0.014659068 0.054250684 -0.069959626 0.103323355 0.027372422 -0.10321337 0.09155549 0.0050550895
0.020575946 0.049703177 0.10639626 -0.1249693 0.07074821 0.08502626 0.07262532 0.13575524
0.07012738 -0.052573074 -0.103671685 -0.09600701 0.09141564 -0.06196288 0.09081161 -0.025665134
00000000: dd22 0a3e bbc7 aa3d d88a 0b3e 2922 2a3d
00000010: d7c5 a13d df92 aabd b72c cfbd b384 c23d
00000020: 0b01 cdbd 7cfa 833c 17a0 c83d d235 d13d
00000030: ad04 c33c bcc0 34bd ded0 95bd bfd5 08bc
00000040: 064b dbbc da0a 613d feeb 823d a404 de3d
00000050: 0890 e73d 4095 9fbd f8d0 d13d 6d8d b33d
00000060: 8c81 43bd 1a44 0e3c 79ce 033d 144a 853d
00000070: 6201 b83d c7a6 aebc d192 50bd 5b21 383d
00000080: a070 073e e083 89bd 9aba c3bc 4f71 95bd
00000090: c93c b13d ae2a f43d e15f 1a3d d078 cd3c
000000a0: 962c 703c f735 5e3d fe46 8fbd 329b d33d
000000b0: 213c e03c 8861 d3bd 7281 bb3d 2aa5 a53b
000000c0: e38e a83c 8f95 4b3d 48e6 d93d e8ef ffbd
000000d0: 70e4 903d 3f22 ae3d 95bc 943d 6c03 0b3e
000000e0: f29e 8f3d dd56 57bd d251 d4bd 539f c4bd
000000f0: 2038 bb3d cacc 7dbd 70fb b93d b03f d2bc

advantage.weight f4 [5, 64]
0.08770775 -0.09737384 -0.018199831 0.08410438 0.12723477 -0.11806289 0.004470557 0.06251891
-0.10423927 -0.10729995 -0.11124872 0.09414983 -0.060564276 0.048222438 0.013106798 0.09481835
-0.064440034 -0.040838607 -0.063278586 0.0027227995 -0.040900063 -0.071692884 -0.06518707 0.027774611
-0.015646711 0.031568777 0.12442845 0.05434084 -0.07632737 0.008200252 0.11346533 0.12371232
0.08335143 -0.081057966 -0.0721461 -0.11270569 -0.13506939 -0.057103634 -0.03265364 0.07047263
-0.009206796 0.091566846 -0.09313673 -0.023465985 0.027941115 0.099742115 -0.051835336 -0.032132737
0.07836579 0.025628474 0.106174916 0.0852229 0.06702059 0.055715356 -0.017345037 -0.06644734
-0.01644291 0.07196791 -0.071697414 0.097520046 0.017272457 0.06817668 0.13009205 -0.063201055
-0.041031703 0.11213366 -0.12890184 0.03559515 0.0030680306 0.0732782 -0.05900856 0.059968714
-0.054784488 0.08586199 -0.030611321 -0.05948347 0.083101034 0.037400514 0.09107004 -0.028619025
-0.118608795 -0.06795696 0.025586545 0.013569392 -0.018482018 0.027958065 0.08188741 0.007270042
-0.083811685 0.027720237 -0.06555213 0.079006344 -0.0060319453 -0.047108848 0.030622166 0.07269646
-0.056715477 -0.040960267 0.048748307 0.06508388 0.03526471 -0.009999916 -0.07239072 0.0064890385
0.01814709 0.035138007 0.043370456 0.10635736 -0.071490794 -0.02578327 -0.12922643 -0.020704353
0.025572332 0.013358654 -0.08916581 -0.07650384 0.036551595 -0.053548407 -0.045203753 0.028264169
0.08161661 -0.055688135 0.12394441 0.11017772 0.032629 0.02941234 0.0200182 -0.08150838
0.029635394 -0.089261144 0.079128355 0.09495997 0.010389648 0.08159973 -0.09545488 -0.103479475
0.01570443 0.11271319 -0.009938047 -0.01413765 -0.022577835 0.07377446 0.13397089 -0.07957814
0.03496063 -0.0090831425 -0.0063314163 -0.1014492 -0.061528217 -0.03732483 -0.016545191 0.027568344
-0.06462678 0.104956634 -0.016465511 -0.10975987 -0.05149153 0.00945512 -0.0843227 -0.055115305
-0.060731746 0.052219972 -0.0698909 0.09825831 0.054659277 0.022722572 -0.013175825 0.07271555
0.08537157 -0.13048849 -0.10888478 0.01974292 0.08705135 -0.07834183 -0.13014553 -0.062449772
-0.08213013 0.094882764 -0.091031134 0.019570976 -0.04804248 0.103687175 -0.04560393 -0.06665596
0.047613144 0.021249667 -0.060637515 0.11888025 -0.10239814 -0.06749404 -0.12024802 -0.11246154
0.035944235 0.09349893 0.07063226 0.05207299 -0.07335729 -0.10704087 -0.046464242 0.109236404
-0.054452043 -0.054282434 -0.016550852 0.072319165 -0.10125899 0.032954693 -0.034007065 0.051959585
0.062277433 -0.091033354 0.03348883 0.07542078 -0.09948435 -0.119884685 0.06909588 0.012022894
0.09046626 0.10365802 -0.035959326 0.13012728 0.027544558 0.023869215 0.10822784 0.08288528
-0.026632017 0.093479484 0.06318278 -0.016788688 0.025075147 0.09908973 -0.03755098 0.06766081
-0.01411414 0.11650972 -0.12005547 0.039870754 -0.10867054 -0.063271314 0.069189 0.073268496
-0.019839276 -0.031868104 0.1037478 0.05687724 -0.07723939 0.04439587 0.048468065 0.12091667
-0.10922596 -0.038111545 -0.1096178 0.07829334 0.046487793 -0.10242654 0.019710863 -0.077935934
00000000: 1fa0 b33d f06b c7bd d017 95bc eb3e ac3d
00000010: d549 023e f5ca f1bd c07d 923b ea09 803d
00000020: 667b d5bd 14c0 dbbd 5ed6 e3bd a0d1 c03d
00000030: 3f12 78bd e484 453d e5bd 563c 2030 c23d
00000040: 23f9 83bd 6246 27bd 3498 81bd ff70 323b
00000050: d386 27bd b8d3 92bd cc80 85bd 9587 e33c
00000060: 882d 80bc 434e 013d 58d4 fe3d 8094 5e3d
00000070: 8651 9cbd 5a5a 063c 8360 e83d e35c fd3d
00000080: 28b4 aa3d b801 a6bd 56c1 93bd 3ed2 e6bd
00000090: a14f 0abe 80e5 69bd d3bf 05bd f453 903d
000000a0: 1ad8 16bc 6687 bb3d 78be bebd bd3b c0bc
000000b0: c4e4 e43c 9845 cc3d 4a51 54bd 9e9d 03bd
000000c0: 3e7e a03d cef2 d13c 3c72 d93d 5889 ae3d
000000d0: 1742 893d c935 643d 2e17 8ebc 8b15 88bd
000000e0: 48b3 86bc e963 933d 18d6 92bd 97b8 c73d
000000f0: f87e 8d3c 37a0 8b3d da36 053e 8e6f 81bd
00000100: dc10 28bd 55a6 e53d d8fe 03be 38cc 113d
00000110: 0311 493b e212 963d f6b2 71bd c1a1 753d
00000120: b365 60bd 69d8 af3d 98c4 fabc f0a4 73bd
00000130: e030 aa3d 4831 193d ee82 ba3d 7272 eabc
00000140: 2be9 f2bd 052d 8bbd e09a d13c 2852 5e3c
00000150: 9a67 97bc 5008 e53c 96b4 a73d 8839 ee3b
00000160: 76a5 abbd 8d15 e33c 3240 86bd 14ce a13d
00000170: a0a7 c5bb 35f5 40bd 56db fa3c e2e1 943d
00000180: 7d4e 68bd f4c5 27bd 4eac 473d b34a 853d
00000190: bb71 103d b0d6 23bc 9641 94bd 00a2 d43b
000001a0: 35a9 943c dfec 0f3d 38a5 313d e3d1 d93d
000001b0: c469 92bd 7037 d3bc ef53 04be 2d9c a9bc
000001c0: 117d d13c 42de 5a3c 909c b6bd 0cae 9cbd
000001d0: 20b7 153d 9355 5bbd 9227 39bd 428a e73c
000001e0: 9c26 a73d 3e19 64bd 91d6 fd3d dba4 e13d
000001f0: fca5 053d 26f2 f03c 35fd a33c deed a6bd
00000200: edc5 f23c 8cce b6bd 0c0e a23d 5f7a c23d
00000210: 5839 2a3c c21d a73d d97d c3bd 0ced d3bd
00000220: 94a6 803c 2cd6 e63d 31d3 22bc 9aa1 67bc
00000230: 27f5 b8bc 1017 973d aa2f 093e ddf9 a2bd
00000240: e132 0f3d 76d1 14bc c577 cfbb 99c4 cfbd
00000250: 0305 7cbd ece1 18bd c889 87bc 02d7 e13c
00000260: 0c5b 84bd 81f3 d63d aee2 86bc c8c9 e0bd
00000270: c8e8 52bd a6e9 1a3c 61b1 acbd 96c0 61bd
00000280: dac1 78bd 9ce4 553d f622 8fbd a73b c93d
00000290: 68e2 5f3d b024 ba3c 6adf 57bc e4eb 943d
000002a0: 4ad7 ae3d c69e 05be fcfe debd e7bb a13c
000002b0: fa47 b23d ae71 a0bd df44 05be 55cb 7fbd
000002c0: d733 a8bd e551 c23d 886e babd 5053 a03c
000002d0: 31c8 44bd f159 d43d 30cb 3abd ec82 88bd
000002e0: 0006 433d c813 ae3c 0b5f 78bd 7d77 f33d
000002f0: 1eb6 d1bd 513a 8abd 9844 f6bd 3c52 e6bd
00000300: 433a 133d 5e7c bf3d a5a7 903d 7d4a 553d
00000310: 593c 96bd 3e38 dbbd 4a51 3ebd 56b7 df3d
00000320: 1b09 5fbd 4257 5ebd a795 87bc 121c 943d
00000330: e060 cfbd 80fb 063d fe4a 0bbd 93d3 543d
00000340: 9f16 7f3d b26f babd 952b 093d 3676 9a3d
00000350: 73be cbbd 1a86 f5bd 2482 8d3d acfb 443c
00000360: 6046 b93d a84a d43d 164a 13bd 1640 053e
00000370: 20a5 e13c 5f89 c33c 8fa6 dd3d c2bf a93d
00000380: 632b dabc 2c72 bf3d f965 813d 6e88 89bc
00000390: 656a cd3c 8eef ca3d 0ecf 19bd c091 8a3d
000003a0: fe3e 67bc a69c ee3d a4df f5bd 844f 233d
000003b0: a98e debd 6494 81bd f6b2 8d3d cb0d 963d
000003c0: fa85 a2bc 2188 02bd ba79 d43d 1cf8 683d
000003d0: af2f 9ebd 72d8 353d 7386 463d 29a3 f73d
000003e0: dcb1 dfbd da1a 1cbd 4c7f e0bd 4258 a03d
000003f0: fc69 3e3d 01c5 d1bd ad78 a13c e09c 9fbd

advantage.bias f4 [5]
0.029409673 -0.035150655 -0.037427638 -0.06984223 -0.05605127
00000000: 8eec f03c 22fa 0fbd b94d 19bd 7109 8fbd
00000010: 0496 65bd

value.weight f4 [1, 64]
0.021842789 -0.02057841 0.07977362 0.083012745 -0.044083912 -0.053859334 -0.07402009 0.04953572
0.10104774 -0.11182538 -0.11400697 -0.0066385157 0.09328219 0.0015082359 0.084257565 -0.09435649
0.13559334 -0.036975518 -0.10209408 0.13482107 0.09305844 -0.061284557 -0.053582013 0.14663433
-0.10118829 0.14669375 -0.0018983744 -0.042108227 -0.0019971728 0.0872008 0.13066424 0.13852991
0.092487074 0.04730682 0.14317621 0.1537692 0.064078234 -0.08609086 0.089691505 -0.058636546
0.042796463 -0.040840387 -0.1193115 -0.00028389276 0.16030873 0.020964593 -0.06469193 0.098348245
-0.096983425 0.11158946 0.09195262 0.09892817 0.129451 0.005598134 0.079075865 0.13384633
-0.00814718 -0.08393669 0.010801092 -0.03483212 0.105377555 0.05694189 -0.04933205 0.0025798827
00000000: a6ef b23c 0e94 a8bc 5a60 a33d 9602 aa3d
00000010: 5591 34bd 9b9b 5cbd d897 97bd f8e5 4a3d
00000020: 1ef2 ce3d b404 e5bd 7c7c e9bd e887 d9bb
00000030: bc0a bf3d 00b0 c53a 3b8f ac3d fa3d c1bd
00000040: fbd8 0a3e a473 17bd b316 d1bd 890e 0a3e
00000050: 6c95 be3d 8405 7bbd d078 5bbd 4f27 163e
00000060: ce3b cfbd e336 163e e0d2 f8ba ad79 2cbd
00000070: 00e3 02bb 5596 b23d d9cc 053e c9da 0d3e
00000080: dd69 bd3d ccc4 413d c99c 123e ac75 1d3e
00000090: 733b 833d 6850 b0bd 2eb0 b73d e02c 70bd
000000a0: 584b 2f3d 4048 27bd 9659 f4bd 71d7 94b9
000000b0: f927 243e f0bd ab3c 347d 84bd ce6a c93d
000000c0: 3f9f c6bd 0489 e43d a851 bc3d da9a ca3d
000000d0: ce8e 043e 8d70 b73b 87f2 a13d 030f 093e
000000e0: c07b 05bc 00e7 abbd 10f7 303c 20ac 0ebd
000000f0: 30d0 d73d e63b 693d 6710 4abd 4013 293b

exp_avg f4 [64, 25]
0.0 0.0 0.0 0.0 0.0 0.0 0.0 0.0
0.0 0.0 0.0 0.0 0.0 0.0 0.0 0.0
0.0 0.0 0.0 0.0 0.0 0.0 0.0 0.0
0.0 0.0010383199 0.0010383199 0.0001416034 0.00029292595 -6.119072e-06 0.0010383199 0.00012258318
-6.062414e-05 5.9580074e-05 7.965801e-06 0.0010383199 0.0004452088 -0.0001377082 9.843079e-05 -3.7262316e-06
0.0010383199 -0.00012904387 0.0003771002 6.626115e-05 8.796048e-06 0.0010383199 0.00018066849 0.0003477426
9.389421e-05 1.989878e-05 0.0 0.0 0.0 0.0 0.0 0.0
0.0 0.0 0.0 0.0 0.0 0.0 0.0 0.0
0.0 0.0 0.0 0.0 0.0 0.0 0.0 0.0
0.0 0.0 0.0 0.00040708738 0.00040708738 2.8928062e-05 0.0002151292 -4.0726164e-07
0.00040708738 0.000102900034 -4.5669276e-05 -7.988285e-05 3.4110005e-07 0.00040708738 0.00014727356 -7.169955e-05
-5.827122e-05 1.6496135e-06 0.00040708738 -0.00020722282 7.6244636e-05 -6.5610126e-05 -2.2071119e-07 0.00040708738
-5.3946e-05 0.00015370877 -4.291698e-05 2.009076e-05 0.00046058273 0.00046058273 -3.3070606e-05 -7.0481394e-05
-6.3376197e-06 0.00046058273 3.1407628e-05 -0.00015855477 0.0002023141 7.664255e-06 0.00046058273 0.0010597947
-0.0008999921 0.000281081 -1.730955e-05 0.00046058273 -0.00034262257 0.0008555727 0.00022367015 1.1878025e-05
0.00046058273 0.0002165069 0.0004085294 0.0002732788 3.5586323e-05 6.354649e-05 6.354649e-05 -0.000114264665
-0.00023999342 -9.325112e-06 6.354649e-05 -7.4671974e-05 -4.0244267e-05 0.0002004998 1.0865802e-05 6.354649e-05
0.0016437739 -0.0019780758 0.00035140416 -3.4286288e-05 6.354649e-05 -0.00087460654 0.0013312801 0.00027349556
1.8668079e-05 6.354649e-05 -9.7171695e-05 0.00041698274 0.0003297361 7.803369e-05 0.0 0.0
0.0 0.0 0.0 0.0 0.0 0.0 0.0 0.0
0.0 0.0 0.0 0.0 0.0 0.0 0.0 0.0
0.0 0.0 0.0 0.0 0.0 0.0 0.0 -1.1004536e-05
-1.1004536e-05 -0.00010701136 -0.00031079474 -7.955699e-06 -1.1004536e-05 -5.3672335e-05 -0.00022798793 0.00024804554
9.674617e-06 -1.1004536e-05 0.0016429678 -0.0019352142 0.000383715 -3.2604632e-05 -1.1004536e-05 -0.0007371422
0.0013362162 0.00031454363 1.7227432e-05 -1.1004536e-05 3.931726e-06 0.00041909967 0.0003630022 7.255224e-05
0.00019644876 0.00019644876 8.6411865e-06 0.000111571026 2.2033163e-07 0.00019644876 9.570998e-05 0.00015621728
-5.992979e-05 -9.175015e-08 0.00019644876 0.00035092296 -0.0003469067 -8.16994e-06 -1.1169516e-05 0.00019644876
-0.00022877687 0.00020982198 -3.388348e-05 1.7345116e-06 0.00019644876 -6.079216e-05 -4.065929e-06 -1.6467277e-05
2.1581018e-05 0.00014718152 0.00014718152 -7.508226e-05 -0.00018423372 -8.445145e-06 0.00014718152 -3.9526248e-07
-0.0001790751 0.00018354056 9.778022e-06 0.00014718152 0.0014092404 -0.001733255 0.00030178676 -2.3624867e-05
0.00014718152 -0.000747136 0.0011879384 0.0002487562 1.6629781e-05 0.00014718152 -5.3840708e-05 0.00042423705
0.0002902707 7.072143e-05 0.00078741205 0.00078741205 0.00022527168 5.0167953e-05 -5.7271814e-06 0.00078741205
00000000: 0000 0000 0000 0000 0000 0000 0000 0000
00000010: 0000 0000 0000 0000 0000 0000 0000 0000
00000020: 0000 0000 0000 0000 0000 0000 0000 0000
00000030: 0000 0000 0000 0000 0000 0000 0000 0000
00000040: 0000 0000 0000 0000 0000 0000 0000 0000
00000050: 0000 0000 0000 0000 0000 0000 0000 0000
00000060: 0000 0000 3c18 883a 3c18 883a 607b 1439
00000070: db93 9939 6e52 cdb6 3c18 883a ac89 0039
00000080: ad46 7eb8 9ee5 7938 dba4 0537 3c18 883a
00000090: ea6a e939 c365 10b9 a16c ce38 2c10 7ab6
000000a0: 3c18 883a f34f 07b9 88b5 c539 aff5 8a38
000000b0: bd92 1337 3c18 883a d471 3d39 3951 b639
000000c0: 12e9 c438 4eec a637 0000 0000 0000 0000
000000d0: 0000 0000 0000 0000 0000 0000 0000 0000
000000e0: 0000 0000 0000 0000 0000 0000 0000 0000
000000f0: 0000 0000 0000 0000 0000 0000 0000 0000
00000100: 0000 0000 0000 0000 0000 0000 0000 0000
00000110: 0000 0000 0000 0000 0000 0000 0000 0000
00000120: 0000 0000 0000 0000 0000 0000 586e d539
00000130: 586e d539 8aaa f237 4e94 6139 9da5 dab4
00000140: 586e d539 09cc d738 038d 3fb8 c786 a7b8
00000150: 6f20 b734 586e d539 726d 1a39 675d 96b8
00000160: 3f68 74b8 4a68 dd35 586e d539 f449 59b9
00000170: 87e5 9f38 2b98 89b8 a1fc 6cb4 586e d539
00000180: 1444 62b8 e22c 2139 c201 34b8 9488 a837
00000190: 5e7a f139 5e7a f139 4bb5 0ab8 69cf 93b8
000001a0: bda7 d4b6 5e7a f139 afbb 0338 b941 26b9
000001b0: 4724 5439 b995 0037 5e7a f139 cfe8 8a3a
000001c0: 73ed 6bba 0e5e 9339 fa33 91b7 5e7a f139
000001d0: 06a2 b3b9 8348 603a 0089 6a39 bb47 4737
000001e0: 5e7a f139 2106 6339 e32f d639 dc46 8f39
000001f0: 8642 1538 4344 8538 4344 8538 60a1 efb8
00000200: bea6 7bb9 0d73 1cb7 4344 8538 3699 9cb8
00000210: f4cb 28b8 413d 5239 444c 3637 4344 8538
00000220: e673 d73a 9ba2 01bb ab3c b839 9fce 0fb8
00000230: 4344 8538 da45 65ba 597e ae3a f463 8f39
00000240: 6599 9c37 4344 8538 a8c8 cbb8 7a9e da39
00000250: 6ee0 ac39 05a6 a338 0000 0000 0000 0000
00000260: 0000 0000 0000 0000 0000 0000 0000 0000
00000270: 0000 0000 0000 0000 0000 0000 0000 0000
00000280: 0000 0000 0000 0000 0000 0000 0000 0000
00000290: 0000 0000 0000 0000 0000 0000 0000 0000
000002a0: 0000 0000 0000 0000 0000 0000 0000 0000
000002b0: 0000 0000 0000 0000 0000 0000 1fa0 38b7
000002c0: 1fa0 38b7 496b e0b8 2af2 a2b9 7879 05b7
000002d0: 1fa0 38b7 3b1e 61b8 0b10 6fb9 1c0c 8239
000002e0: 2a50 2237 1fa0 38b7 da58 d73a 03a7 fdba
000002f0: 5b2d c939 f5c0 08b8 1fa0 38b7 c73c 41ba
00000300: fa23 af3a 55e9 a439 a183 9037 1fa0 38b7
00000310: 45ed 8336 9bba db39 5551 be39 3027 9838
00000320: d0fd 4d39 d0fd 4d39 9df9 1037 3dfb e938
00000330: 4c94 6c34 d0fd 4d39 e7b7 c838 42ce 2339
00000340: 1f5d 7bb8 2e08 c5b3 d0fd 4d39 15fc b739
00000350: 07e1 b5b9 a011 09b7 b564 3bb7 d0fd 4d39
00000360: d3e3 6fb9 a903 5c39 1c1e 0eb8 5dcd e835
00000370: d0fd 4d39 16fb 7eb8 106e 88b6 3523 8ab7
00000380: e208 b537 bd54 1a39 bd54 1a39 7b75 9db8
00000390: dd2e 41b9 9faf 0db7 bd54 1a39 7634 d4b4
000003a0: 1bc6 3bb9 cb74 4039 490c 2437 bd54 1a39
000003b0: 43b6 b83a 632e e3ba 2239 9e39 042e c6b7
000003c0: bd54 1a39 73db 43ba 99b4 9b3a 7e6b 8239
000003d0: 2f80 8b37 bd54 1a39 05d3 61b8 226c de39
000003e0: 792f 9839 4750 9438 546a 4e3a 546a 4e3a
000003f0: e836 6c39 6e6b 5238 1d2c c0b6 546a 4e3a

exp_avg_sq f4 [64, 25]
0.0 0.0 0.0 0.0 0.0 0.0 0.0 0.0
0.0 0.0 0.0 0.0 0.0 0.0 0.0 0.0
0.0 0.0 0.0 0.0 0.0 0.0 0.0 0.0
0.0 1.8195379e-06 1.8195379e-06 2.469657e-08 3.059925e-07 2.1137958e-11 1.8195379e-06 5.986725e-08
5.8342607e-08 7.1785813e-09 2.6616988e-11 1.8195379e-06 6.2671134e-08 2.5202982e-07 7.608023e-09 6.1585605e-11
1.8195379e-06 3.7086345e-08 1.0786475e-07 7.296712e-09 1.0468755e-10 1.8195379e-06 4.3225484e-08 1.316942e-07
8.503946e-09 1.285368e-10 0.0 0.0 0.0 0.0 0.0 0.0
0.0 0.0 0.0 0.0 0.0 0.0 0.0 0.0
0.0 0.0 0.0 0.0 0.0 0.0 0.0 0.0
0.0 0.0 0.0 5.5440332e-06 5.5440332e-06 6.242364e-08 9.298147e-07 3.244622e-11
5.5440332e-06 1.0832534e-07 2.3820773e-07 1.5389233e-08 1.2887304e-10 5.5440332e-06 1.044957e-07 5.0792113e-07
1.7865446e-08 2.7990837e-11 5.5440332e-06 2.209932e-07 1.4339908e-07 1.6709514e-08 9.550893e-11 5.5440332e-06
8.191794e-08 3.1220267e-07 1.29841045e-08 1.3361015e-10 2.7519072e-05 2.7519072e-05 1.7312827e-06 4.3712976e-06
1.613762e-10 2.7519072e-05 9.938383e-07 4.854611e-07 6.000788e-08 2.1663855e-10 2.7519072e-05 9.954935e-07
1.0340324e-06 6.588654e-08 3.1969508e-10 2.7519072e-05 1.1029568e-06 3.3475112e-07 5.91614e-08 2.826832e-10
2.7519072e-05 7.892292e-07 3.6809638e-07 5.3860294e-08 3.9244372e-10 8.273207e-05 8.273207e-05 5.2214104e-06
1.3145838e-05 4.5477289e-10 8.273207e-05 2.8750992e-06 7.817221e-07 1.526309e-07 6.523403e-10 8.273207e-05
2.7225817e-06 2.782234e-06 1.8396267e-07 9.57875e-10 8.273207e-05 3.079721e-06 8.5523493e-07 1.8011153e-07
1.3276457e-09 8.273207e-05 2.7687818e-06 9.657426e-07 1.4436432e-07 1.7590674e-09 0.0 0.0
0.0 0.0 0.0 0.0 0.0 0.0 0.0 0.0
0.0 0.0 0.0 0.0 0.0 0.0 0.0 0.0
0.0 0.0 0.0 0.0 0.0 0.0 0.0 0.00014072556
0.00014072556 7.2287994e-06 2.2854329e-05 5.89982e-10 0.00014072556 3.6857246e-06 2.1093958e-06 3.084947e-07
1.306262e-09 0.00014072556 3.5294283e-06 6.3605457e-06 3.9515103e-07 1.20991e-09 0.00014072556 4.3630835e-06
2.2611748e-06 3.4690729e-07 1.4795783e-09 0.00014072556 3.480539e-06 2.2400598e-06 2.597427e-07 1.9006818e-09
3.0510414e-06 3.0510414e-06 1.2266607e-07 5.228869e-07 3.3526883e-11 3.0510414e-06 1.2076411e-07 5.135899e-08
1.0073391e-08 3.901453e-11 3.0510414e-06 9.1152785e-08 2.7098744e-07 1.1143979e-08 4.35887e-11 3.0510414e-06
1.3070537e-07 1.0345524e-07 1.2266098e-08 1.6498089e-10 3.0510414e-06 9.203715e-08 8.8357346e-08 8.785673e-09
1.2987317e-10 6.341827e-05 6.341827e-05 4.1451467e-06 1.0021407e-05 3.5262673e-10 6.341827e-05 2.0663792e-06
6.820629e-07 1.1046567e-07 4.982061e-10 6.341827e-05 1.966587e-06 2.1935145e-06 1.3560341e-07 7.535021e-10
6.341827e-05 2.3710454e-06 6.14795e-07 1.2682027e-07 7.232261e-10 6.341827e-05 2.0796847e-06 8.280318e-07
1.0815629e-07 1.3558878e-09 4.610981e-05 4.610981e-05 3.3111203e-06 7.2061625e-06 3.1229594e-10 4.610981e-05
00000000: 0000 0000 0000 0000 0000 0000 0000 0000
00000010: 0000 0000 0000 0000 0000 0000 0000 0000
00000020: 0000 0000 0000 0000 0000 0000 0000 0000
00000030: 0000 0000 0000 0000 0000 0000 0000 0000
00000040: 0000 0000 0000 0000 0000 0000 0000 0000
00000050: 0000 0000 0000 0000 0000 0000 0000 0000
00000060: 0000 0000 d936 f435 d936 f435 5524 d432
00000070: 4a47 a434 73ee b92d d936 f435 5e90 8033
00000080: 6094 7a33 78a7 f631 2120 ea2d d936 f435
00000090: d295 8633 b74e 8734 70b4 0232 9d6d 872e
000000a0: d936 f435 de48 1f33 46a3 e733 8fb6 fa31
000000b0: da35 e62e d936 f435 eca6 3933 d367 0d34
000000c0: c018 1232 e553 0d2f 0000 0000 0000 0000
000000d0: 0000 0000 0000 0000 0000 0000 0000 0000
000000e0: 0000 0000 0000 0000 0000 0000 0000 0000
000000f0: 0000 0000 0000 0000 0000 0000 0000 0000
00000100: 0000 0000 0000 0000 0000 0000 0000 0000
00000110: 0000 0000 0000 0000 0000 0000 0000 0000
00000120: 0000 0000 0000 0000 0000 0000 e206 ba36
00000130: e206 ba36 c20d 8633 6198 7935 32b3 0e2e
00000140: e206 ba36 7ca0 e833 0bc6 7f34 4831 8432
00000150: 89b2 0d2f e206 ba36 1e67 e033 1358 0835
00000160: 8876 9932 c335 f62d e206 ba36 264a 6d34
00000170: 3df9 1934 9c88 8f32 bf06 d22e e206 ba36
00000180: ddea af33 cf9c a734 b210 5f32 eae7 122f
00000190: c2d8 e637 c2d8 e637 6c5e e835 29ad 9236
000001a0: 5d6f 312f c2d8 e637 0664 8535 a250 0235
000001b0: aedd 8033 5532 6e2f c2d8 e637 e59c 8535
000001c0: 15c9 8a35 827d 8d33 15c1 af2f c2d8 e637
000001d0: 4f09 9435 d8b7 b334 a618 7e33 2068 9b2f
000001e0: c2d8 e637 6bdb 5335 c89e c534 0554 6733
000001f0: 8bbf d72f 7180 ad38 7180 ad38 9333 af36
00000200: f28c 5c37 9803 fa2f 7180 ad38 d4f1 4036
00000210: 89d7 5135 dde2 2334 5e50 3330 7180 ad38
00000220: 99b5 3636 6bb6 3a36 4687 4534 3ba6 8330
00000230: 7180 ad38 34ad 4e36 4c93 6535 ae64 4134
00000240: 6178 b630 7180 ad38 4fcf 3936 aa9e 8135
00000250: 9002 1b34 afc3 f130 0000 0000 0000 0000
00000260: 0000 0000 0000 0000 0000 0000 0000 0000
00000270: 0000 0000 0000 0000 0000 0000 0000 0000
00000280: 0000 0000 0000 0000 0000 0000 0000 0000
00000290: 0000 0000 0000 0000 0000 0000 0000 0000
000002a0: 0000 0000 0000 0000 0000 0000 0000 0000
000002b0: 0000 0000 0000 0000 0000 0000 bb8f 1339
000002c0: bb8f 1339 ea8e f236 4cb7 bf37 4b2c 2230
000002d0: bb8f 1339 4458 7736 258f 0d36 309f a534
000002e0: 0288 b330 bb8f 1339 1edb 6c36 ac6c d536
000002f0: 2525 d434 ec49 a630 bb8f 1339 9a66 9236
00000300: b0be 1736 933e ba34 095a cb30 bb8f 1339
00000310: 3493 6936 ef53 1636 c472 8b34 269d 0231
00000320: 7ec0 4c36 7ec0 4c36 31b6 0334 845c 0c35
00000330: ea73 132e 7ec0 4c36 63ab 0134 cf95 5c33
00000340: 3e0f 2d32 7596 2b2e 7ec0 4c36 c6bf c333
00000350: 3b7c 9134 bd73 3f32 83b4 3f2e 7ec0 4c36
00000360: 0558 0c34 1f2b de33 dfba 5232 fe65 352f
00000370: 7ec0 4c36 f5a5 c533 f7be bd33 ccef 1632
00000380: 0ccc 0e2f 6dff 8438 6dff 8438 8a16 8b36
00000390: 9e21 2837 cddb c12f 6dff 8438 20ac 0a36
000003a0: 0117 3735 2539 ed33 23f2 0830 6dff 8438
000003b0: b5f9 0336 4b34 1336 629a 1134 ff1e 4f30
000003c0: 6dff 8438 401e 1f36 6408 2535 172c 0834
000003d0: 83cc 4630 6dff 8438 b690 0b36 e945 5e35
000003e0: 8d43 e833 105a ba30 0866 4138 0866 4138
000003f0: 9d34 5e36 77cc f136 bfaf ab2f 0866 4138

exp_avg f4 [64]
0.0 0.0010383199 0.0 0.00040708738 0.0004605828 6.354649e-05 0.0 -1.1004536e-05
0.000196449 0.00014718152 0.00078741205 0.0 0.0021271198 -5.3841977e-05 -0.00027082642 0.00010745687
0.00044449783 -0.0001243392 0.0005507083 0.0019358135 0.0 -0.00042509098 0.00020883919 0.0003740303
0.00034451764 -5.971114e-05 0.0 -0.00016018077 -0.00030194156 0.0003184726 -4.6926752e-06 0.0
-8.260325e-05 0.0 0.00014075876 0.0 -0.00018230418 0.0 0.0 2.5075728e-05
-0.00025392981 7.270745e-05 -0.00040357796 0.00048800785 1.1954701e-06 0.0 0.0006005742 0.00024074303
0.0002570174 -0.00056639453 -0.00018921985 -0.00017388804 0.00025607293 0.0011768852 0.0 -4.602892e-05
0.0 6.5839806e-05 -0.0004083287 0.0 0.0007102595 0.0 0.0 6.798403e-05
00000000: 0000 0000 3c18 883a 0000 0000 586e d539
00000010: 617a f139 4344 8538 0000 0000 1fa0 38b7
00000020: e0fd 4d39 bd54 1a39 546a 4e3a 0000 0000
00000030: 2667 0b3b 62d4 61b8 b5fd 8db9 785a e138
00000040: 7d0b e939 0d61 02b9 695d 103a 1fbb fd3a
00000050: 0000 0000 bfde deb9 d8fb 5a39 7f19 c439
00000060: 60a0 b439 5972 7ab8 0000 0000 33f6 27b9
00000070: e94d 9eb9 abf8 a639 c675 9db6 0000 0000
00000080: 483b adb8 0000 0000 a498 1339 0000 0000
00000090: e828 3fb9 0000 0000 0000 0000 b759 d237
000000a0: e221 85b9 847a 9838 5197 d3b9 4edb ff39
000000b0: 0a74 a035 0000 0000 da6f 1d3a f76f 7c39
000000c0: 4bc0 8639 187a 14ba 5169 46b9 b755 36b9
000000d0: 8741 8639 b741 9a3a 0000 0000 2d0f 41b8
000000e0: 0000 0000 7a13 8a38 f314 d6b9 0000 0000
000000f0: b530 3a3a 0000 0000 0000 0000 a692 8e38

exp_avg_sq f4 [64]
0.0 1.8195379e-06 0.0 5.5440337e-06 2.7519072e-05 8.273208e-05 0.0 0.00014072556
3.0510414e-06 6.341827e-05 4.610981e-05 0.0 5.793752e-06 0.00014740293 0.00011538551 1.570562e-05
3.6434758e-05 5.7583547e-05 3.6821893e-05 2.1251231e-05 0.0 2.9563445e-05 0.00010739764 2.0747648e-05
6.999266e-06 7.556084e-05 0.0 9.687473e-05 4.3878385e-06 6.826005e-06 6.85278e-06 0.0
5.4515897e-07 0.0 1.3323668e-05 0.0 0.00010474518 0.0 0.0 4.809155e-09
2.5627096e-05 4.109571e-05 3.8900487e-07 7.827762e-07 6.580347e-05 0.0 1.0756844e-05 1.2538805e-05
4.290757e-05 2.759796e-07 3.3960612e-05 1.289832e-05 8.445259e-07 6.455208e-06 0.0 1.5114986e-05
0.0 5.5216446e-05 3.501416e-05 0.0 8.319436e-08 0.0 0.0 1.2218853e-05
00000000: 0000 0000 d936 f435 0000 0000 e306 ba36
00000010: c2d8 e637 7280 ad38 0000 0000 bb8f 1339
00000020: 7ec0 4c36 6dff 8438 0866 4138 0000 0000
00000030: f367 c236 2c90 1a39 20fb f138 90bf 8337
00000040: 86d1 1838 dd85 7138 3571 1a38 ac44 b237
00000050: 0000 0000 04ff f737 ab3a e138 3c0b ae37
00000060: 3ddb ea36 6b76 9e38 0000 0000 3a29 cb38
00000070: 3f3b 9336 f00a e536 eff0 e536 0000 0000
00000080: 0a57 1235 0000 0000 b888 5f37 0000 0000
00000090: a4aa db38 0000 0000 0000 0000 c63d a531
000000a0: c5f9 d637 2f5e 2c38 6cd8 d034 f91f 5235
000000b0: f8ff 8938 0000 0000 4b78 3437 c25d 5237
000000c0: a7f7 3338 592a 9434 ee70 0e38 dd65 5837
000000d0: 61b3 6235 d199 d836 0000 0000 5f96 7d37
000000e0: 0000 0000 3598 6738 2bdc 1238 0000 0000
000000f0: 95a8 b233 0000 0000 0000 0000 93ff 4c37

exp_avg f4 [64, 64]
0.0 0.0001125674 0.0 1.2613428e-05 -5.4517863e-05 0.00013489123 0.0 4.712717e-05
-8.035417e-05 0.00014865978 0.00013034308 0.0 -2.7354157e-05 7.902728e-05 8.940119e-05 0.0001426213
7.227347e-05 0.00010874272 4.882072e-05 6.646957e-05 0.0 0.0001537856 0.00010838655 -9.555317e-05
-3.379385e-05 0.00012124777 0.0 6.2029285e-05 -3.7097732e-05 3.6270678e-05 -1.1391443e-06 0.0
-6.0591603e-05 0.0 -3.8538343e-05 0.0 0.00012811502 0.0 0.0 1.1331433e-07
2.4119947e-05 3.0274737e-06 5.951303e-06 1.4306149e-05 0.00013517743 0.0 0.000119349694 0.00013400102
5.871541e-05 -0.00012430562 -1.5538908e-05 3.9518174e-05 1.8421185e-06 -7.067845e-05 0.0 6.2438434e-05
0.0 1.9791776e-05 -1.5452526e-05 0.0 1.0684594e-05 0.0 0.0 8.483978e-06
0.0 1.3629899e-09 0.0 4.3998325e-09 1.5923732e-08 6.8204344e-09 0.0 9.360266e-09
7.889894e-09 4.3500825e-09 3.104081e-10 0.0 -3.597459e-10 2.2132031e-08 9.80793e-09 1.657312e-08
5.343088e-10 6.803707e-09 9.906363e-09 1.4311763e-10 0.0 9.655117e-09 1.5700528e-09 2.175528e-11
-4.676978e-10 9.9676996e-09 0.0 9.826773e-09 2.5566351e-09 7.3641626e-10 1.6096665e-09 0.0
-2.4114119e-11 0.0 1.9138402e-09 0.0 1.20279156e-08 0.0 0.0 4.4254466e-12
1.478434e-08 9.158951e-09 8.685228e-11 4.0878734e-10 1.4507218e-08 0.0 -2.1656663e-13 6.991058e-09
-2.8025509e-11 8.502089e-12 9.425263e-09 4.206236e-09 -2.8200817e-11 1.8690363e-09 0.0 1.5274118e-09
0.0 1.2182248e-08 2.0491683e-08 0.0 0.0 0.0 0.0 1.667754e-08
0.0 0.0004722359 0.0 0.0001710745 0.0013845516 0.00029353227 0.0 5.5203964e-05
1.7835666e-05 0.00067422487 0.000731748 0.0 0.00022672533 0.0018887327 0.0011600307 0.0012014101
0.00046212735 0.0010917474 0.0009192875 0.0006362219 0.0 0.0008260173 0.000874398 -1.334972e-05
-0.00015812063 0.0016814985 0.0 0.0014200179 0.00022845404 0.00030275225 -8.101536e-05 0.0
-0.00012537681 0.0 -5.9385642e-05 0.0 0.0010172018 0.0 0.0 -4.9125447e-07
0.001617966 0.0004942307 -8.682412e-06 1.8705898e-05 0.0019470887 0.0 0.00017860827 0.00073624874
0.00028612724 0.00029055204 0.00045404924 0.0009599143 5.4527036e-06 -6.1306455e-06 0.0 0.00011989803
0.0 0.00137041 0.0015035247 0.0 -2.2610195e-05 0.0 0.0 0.0015120979
0.0 0.00022221498 0.0 -2.2707006e-06 0.00030645347 9.051934e-06 0.0 -0.00023957486
-0.00012828731 0.00014976307 0.00040779228 0.0 0.00010433803 0.00029419613 0.00026561777 0.00017273235
0.00014711624 0.00014397061 9.457854e-05 0.00029092867 0.0 0.00022415418 0.00034242478 0.00018194318
-0.00021497585 0.00057613855 0.0 0.000301916 2.503598e-05 0.00014435155 7.776504e-05 0.0
4.7469683e-05 0.0 7.497596e-05 0.0 0.00036914027 0.0 0.0 -1.4500898e-08
0.0003150868 -3.571409e-05 -1.2776977e-05 -2.7666379e-06 0.00058827875 0.0 3.2188982e-05 0.000245847
0.00024823344 0.0001160394 8.875914e-06 0.0002347292 1.8977167e-05 0.00024262213 0.0 6.38789e-05
0.0 0.00040134368 0.00016451109 0.0 -3.833769e-05 0.0 0.0 0.0002504732
00000000: 0000 0000 2a12 ec38 0000 0000 439e 5337
00000010: 1caa 64b8 9771 0d39 0000 0000 6aaa 4538
00000020: d183 a8b8 8ee1 1b39 b4ac 0839 0000 0000
00000030: 9b76 e5b7 73bb a538 e67c bb38 9d8c 1539
00000040: 8691 9738 ce0c e438 d9c4 4c38 9465 8b38
00000050: 0000 0000 8241 2139 964d e338 b863 c8b8
00000060: dfbd 0db8 6746 fe38 0000 0000 b815 8238
00000070: 6399 1bb8 5821 1838 b3e4 98b5 0000 0000
00000080: bd23 7eb8 0000 0000 3ba4 21b8 0000 0000
00000090: 9d56 0639 0000 0000 0000 0000 3657 f333
000000a0: 3155 ca37 9a2b 4b36 4eb1 c736 7104 7037
000000b0: 6abe 0d39 0000 0000 614b fa38 a082 0c39
000000c0: 3145 7638 0958 02b9 8d59 82b7 51c0 2538
000000d0: b63e f735 3439 94b8 0000 0000 61f1 8238
000000e0: 0000 0000 8406 a637 0ca0 81b7 0000 0000
000000f0: fb41 3337 0000 0000 0000 0000 6856 0e37
00000100: 0000 0000 f253 bb30 0000 0000 562d 9731
00000110: a8c8 8832 2d59 ea31 0000 0000 e3ce 2032
00000120: 1f8c 0732 bb77 9531 0ea6 aa2f 0000 0000
00000130: bcc5 c5af da1c be32 bb7f 2832 ad5c 8e32
00000140: a4de 1230 0ac6 e931 a530 2a32 085c 1d2f
00000150: 0000 0000 a7df 2532 52c9 d730 895c bf2d
00000160: 4f8f 00b0 683e 2b32 0000 0000 9bd2 2832
00000170: cdb0 2f31 b06c 4a30 1b3b dd30 0000 0000
00000180: 2b1c d4ad 0000 0000 a284 0331 0000 0000
00000190: 55a3 4e32 0000 0000 0000 0000 e1b4 9b2c
000001a0: 37fe 7d32 7e59 1d32 7dfd be2e b4bb e02f
000001b0: 6b3b 7932 0000 0000 15d5 73aa ff35 f031
000001c0: d683 f6ad 0192 152d bfec 2132 7186 9031
000001d0: 980e f8ad 6f70 0031 0000 0000 06ed d130
000001e0: 0000 0000 184a 5132 b005 b032 0000 0000
000001f0: 0000 0000 0000 0000 0000 0000 4c42 8f32
00000200: 0000 0000 6e96 f739 0000 0000 7662 3339
00000210: d879 b53a 3ce5 9939 0000 0000 ce8a 6738
00000220: cd9d 9537 77be 303a c7d2 3f3a 0000 0000
00000230: 1ebd 6d39 5a8f f73a 2c0c 983a a278 9d3a
00000240: af49 f239 f718 8f3a 57fc 703a 21c8 263a
00000250: 0000 0000 1589 583a db37 653a 9cf8 5fb7
00000260: 2fcd 25b9 ba65 dc3a 0000 0000 e51f ba3a
00000270: 2a8d 6f39 b8ba 9e39 cae6 a9b8 0000 0000
00000280: 9577 03b9 0000 0000 d914 79b8 0000 0000
00000290: a153 853a 0000 0000 0000 0000 c0de 03b5
000002a0: ee11 d43a 438f 013a adaa 11b7 9cea 9c37
000002b0: 7535 ff3a 0000 0000 cb48 3b39 d100 413a
000002c0: 5903 9639 3c55 9839 750d ee39 c2a2 7b3a
000002d0: 5ef6 b636 d8b5 cdb6 0000 0000 c471 fb38
000002e0: 0000 0000 549f b33a eb11 c53a 0000 0000
000002f0: 06ab bdb7 0000 0000 0000 0000 9631 c63a
00000300: 0000 0000 6102 6939 0000 0000 5762 18b6
00000310: 7dab a039 c3dd 1737 0000 0000 6336 7bb9
00000320: dd84 06b9 b809 1d39 f4cc d539 0000 0000
00000330: 0ed0 da38 563e 9a39 9d42 8b39 7d1f 3539
00000340: 3743 1a39 d1f6 1639 7858 c638 c987 9839
00000350: 0000 0000 ee0a 6b39 7a87 b339 00c8 3e39
00000360: 246b 61b9 0108 173a 0000 0000 7b4a 9e39
00000370: 5c04 d237 135d 1739 ca15 a338 0000 0000
00000380: 2f1a 4738 0000 0000 693c 9d38 0000 0000
00000390: 2b89 c139 0000 0000 0000 0000 a01f 79b2
000003a0: 3c32 a539 b6cb 15b8 b35c 56b7 7aaa 39b6
000003b0: b836 1a3a 0000 0000 a802 0738 07e5 8039
000003c0: 5425 8239 2e5a f338 c3e9 1437 a421 7639
000003d0: 2831 9f37 6268 7e39 0000 0000 b9f6 8538
000003e0: 0000 0000 706b d239 9c80 2c39 0000 0000
000003f0: c8cc 20b8 0000 0000 0000 0000 f251 8339
