trails/HighwayEnv/DQNAgent/run_20191108-151847_401/checkpoint-124.tar (torch_old, 78250 bytes, 21 tensors)

base_module.layers.0.weight f4 [64, 25]
-0.18795739 -0.1751196 -0.15071651 -0.09732137 0.006302044 -0.05892782 -0.09015508 0.17362882
-0.09457457 0.105423465 -0.14120562 -0.007656306 0.018568426 0.19072898 0.11310412 0.13513662
-0.08871257 -0.12929547 0.11102177 -0.07109682 -0.14449874 -0.16547842 -0.080818914 0.17060252
-0.18149202 0.20332639 -0.09691643 -0.1675208 0.17565839 0.03197695 -0.09054297 -0.037803303
-0.16017602 0.095330685 0.13286068 0.1728564 0.05859825 0.22499892 -0.3401133 0.1437218
0.02966011 -0.23254785 0.19818185 -0.11510966 -0.29812098 -0.15912943 -0.35880414 -0.076592855
-0.03593965 0.018748734 -0.13808206 0.18664815 0.13177885 0.036261648 0.08439492 -0.1565948
0.12699907 0.18329363 0.047593832 0.111898735 0.009364486 -0.037035972 -0.1276184 -0.12697978
0.1395186 -0.11012242 0.14344494 -0.080529906 0.15058737 -0.15868011 -0.14991117 0.13167356
0.18945448 -0.17883272 0.17856361 0.118476994 -0.06862127 -0.057520077 0.13331309 -0.0027969552
-0.16690154 -0.0786843 0.16873987 0.2507271 0.1053658 0.056799002 0.30435973 0.0865244
-0.026175156 0.09267456 -0.14793985 0.12580901 0.22959298 0.2337519 0.094738446 0.10928217
-0.0115114665 -0.11041624 0.039694075 -0.07812517 0.20575331 0.16072208 0.04921636 0.099817276
-0.013686194 0.15490761 -0.16780682 0.054207526 0.08014828 0.024019903 0.10766698 -0.011683365
-0.12799016 0.17971776 0.08738975 0.20889725 -0.02130509 0.006221243 0.1417786 0.14660826
-0.0101057 -0.010894224 -0.14626464 0.021220334 0.1679248 0.02769776 0.15694545 0.05320298
-0.026193937 -0.08052092 0.06455269 0.23286948 0.008825825 0.1709818 -0.05735363 0.02738329
-0.14557779 0.1202046 0.01369802 -0.17430258 -0.0002353447 0.22077015 0.14077455 0.13537546
0.11879862 0.109797396 0.16312575 -0.17965788 -0.13689695 -0.0059016 -0.19411483 -0.11291351
0.016382337 -0.07464865 -0.1426893 0.17572235 0.14889048 -0.14084323 0.07663651 0.04363334
-0.1429468 -0.124163985 0.0138555765 0.18404464 0.027161092 -0.048153758 -0.15721169 -0.17518516
0.13033526 -0.05159989 -0.16655152 0.10027672 0.15012647 0.01507099 0.1828761 0.20938376
0.14577019 -0.03599544 0.18194559 0.015469263 0.042535774 -0.005807565 0.16796945 -0.13411406
0.18969925 -0.13887995 -0.088406265 0.15528014 -0.14386892 0.05628009 0.098474495 0.24481153
-0.0061500636 -0.04366125 0.018203598 0.17415366 0.21198061 -0.18289155 0.19714697 -0.0839985
0.042927917 0.105104685 0.1430001 -0.038505964 0.27888787 -0.06430053 -0.17689304 0.17288917
0.102179006 -0.1844646 0.039034065 0.05054841 0.21838172 0.28404036 -0.042376686 -0.0010894533
0.20267794 -0.10455714 -0.037531566 0.17755438 0.10344204 -0.15007266 -0.042471383 0.08172151
-0.10658002 -0.040289514 0.1857942 0.20898874 0.07338789 -0.094891526 -0.05428839 0.12446208
-0.13117713 0.18511751 0.13488935 0.21897268 -0.04493995 0.17215256 0.10183118 0.003980695
0.03201078 -0.015004345 0.022575807 0.15911065 0.22448647 -0.089779146 0.23250538 0.057579573
-0.0639483 0.06437716 -0.081937924 0.18175536 -0.118697464 0.021146884 0.21024044 -0.10135787
00000000: e777 40be 8d52 33be 6e55 1abe 6d50 c7bd
00000010: 6081 ce3b 4c5e 71bd 3aa3 b8bd c1cb 313e
00000020: 50b0 c1bd 42e8 d73d 3598 10be c0e1 fabb
00000030: d01c 983c 754e 433e 22a3 e73d 4161 0a3e
00000040: f0ae b5bd 0866 04be 625f e33d 369b 91bd
00000050: 7af7 13be 2d73 29be 6384 a5bd 6db2 2e3e
00000060: 0bd9 39be cb34 503e 1f7c c6bd 938a 2bbe
00000070: cbdf 333e 43fa 023d 986e b9bd a3d7 1abd
00000080: 2f05 24be bc3c c33d a10c 083e 4501 313e
00000090: b804 703d 1e66 663e 5523 aebe cf2b 133e
000000a0: c2f9 f23c 0621 6ebe 2ff0 4a3e 9dbe ebbd
000000b0: 50a3 98be d3f2 22be 2db5 b7be b7dc 9cbd
000000c0: 7435 13bd f296 993c 6265 0dbe b120 3f3e
000000d0: 09f1 063e 1887 143d 3ed7 ac3d 635a 20be
000000e0: 0b0c 023e 53b1 3b3e c0f1 423d 2a2b e53d
000000f0: 806d 193c 08b3 17bd 66ae 02be fd06 02be
00000100: f7dd 0e3e dd87 e1bd 3be3 123e ddec a4bd
00000110: 9333 1a3e 0a7d 22be 5082 19be 6fd5 063e
00000120: 5b00 423e ed1f 37be 61d9 363e 11a4 f23d
00000130: 4f89 8cbd 2c9a 6bbd 3a83 083e 1f4d 37bb
00000140: 3de8 2abe 3c25 a1bd 25ca 2c3e 4d5f 803e
00000150: 06ca d73d 12a6 683d 0ad5 9b3e b433 b13d
00000160: 486d d6bc 29cc bd3d 8b7d 17be 14d4 003e
00000170: 6c1a 6b3e a85c 6f3e 3b06 c23d 55cf df3d
00000180: 979a 3cbc e921 e2bd 4196 223d 1700 a0bd
00000190: ffb0 523e 5494 243e 1897 493d 006d cc3d
000001a0: 0f3c 60bc 1aa0 1e3e 8dd5 2bbe b608 5e3d
000001b0: c824 a43d 63c5 c43c 8180 dc3d 966b 3fbc
000001c0: da0f 03be ef07 383e 66f9 b23d 29e9 553e
000001d0: 0388 aebc 92db cb3b 692e 113e 7a20 163e
000001e0: 6192 25bc b07d 32bc 66c6 15be 44d6 ad3c
000001f0: 7bf4 2b3e 6ae6 e23c 4fb6 203e 5eeb 593d
00000200: ab94 d6bc 27e8 a4bd 3334 843d 5675 6e3e
00000210: 319a 103c da15 2f3e a4eb 6abd ec52 e03c
00000220: 5812 15be d42d f63d a96d 603c 607c 32be
00000230: ddc6 76b9 9211 623e 3427 103e dd9f 0a3e
00000240: b14c f33d 75dd e03d 700a 273e 3cf8 37be
00000250: b72e 0cbe 3562 c1bb 0ac6 46be 333f e7bd
00000260: 4034 863c 64e1 98bd 251d 12be 8ff0 333e
00000270: bf76 183e 3539 10be 9af3 9c3d e0b8 323d
00000280: a560 12be b049 febd 8002 633c 3376 3c3e
00000290: f080 de3c e03c 45bd 1afc 20be bd63 33be
000002a0: 9b76 053e 685a 53bd 7b8c 2abe e25d cd3d
000002b0: c1ba 193e 50ec 763c df43 3b3e b268 563e
000002c0: c844 153e f46f 13bd f24f 3a3e cb72 7d3c
000002d0: fe39 2e3d 634d bebb 2f00 2c3e 3255 09be
000002e0: 8540 423e 8c36 0ebe 580e b5bd c201 1f3e
000002f0: 6052 13be f485 663d ffac c93d e0af 7a3e
00000300: 7986 c9bb 24d6 32bd b61f 953c 5655 323e
00000310: 7211 593e ec47 3bbe e5e0 493e 6807 acbd
00000320: 2fd5 2f3d 2041 d73d 9e6e 123e 6eb8 1dbd
00000330: 64ca 8e3e ffaf 83bd 7323 35be dc09 313e
00000340: 3a43 d13d 4ae4 3cbe 2fe2 1f3d d90b 4f3d
00000350: 759f 5f3e bd6d 913e 2d93 2dbd fdcb 8eba
00000360: ce8a 4f3e 0e22 d6bd b3ba 19bd d1d0 353e
00000370: 6cd9 d33d a6ac 19be 79f6 2dbd 9b5d a73d
00000380: a046 dabd 9e06 25bd d640 3e3e 2501 563e
00000390: 644c 963d 7d56 c2bd 815d 5ebd fae5 fe3d
000003a0: 4c53 06be 728f 3d3e 6f20 0a3e 603a 603e
000003b0: f412 38bd c348 303e de8c d03d 7d70 823b
000003c0: bc1d 033d c9d4 75bc e6f0 b83c e7ed 223e
000003d0: c8df 653e 21de b7bd e415 6e3e 8fd8 6b3d
000003e0: 54f7 82bd 2cd8 833d 12cf a7bd 141e 3a3e
000003f0: a817 f3bd 3b3c ad3c 4549 573e b794 cfbd

base_module.layers.0.bias f4 [64]
-0.050723046 -0.105454 -0.1879084 0.163274 0.059149276 0.24535987 0.18896763 0.026782688
-0.09451726 0.14752375 0.06085175 -0.1873341 -0.15820077 0.14766964 0.22294062 0.15577775
0.19605033 -0.050322574 0.072830416 0.06748679 -0.015069991 -0.10251677 0.1522311 -0.07034754
0.18205957 0.23499131 -0.18520187 0.18401058 -0.10112632 0.1383316 -0.15039857 -0.081168465
0.105015345 -0.051762722 -0.062486093 -0.044436175 0.124923654 -0.039358974 -0.11949003 -0.20197666
0.07272557 0.19680953 -0.04607108 0.19421338 0.24786922 -0.04633677 -0.08020097 0.213037
-0.035557635 -0.020518446 0.05213065 0.124210015 0.05274335 0.1920732 -0.16558075 -0.05534782
-0.1688069 0.07291436 0.09674239 0.18627997 0.17358382 -0.16599706 0.14987753 0.11027022
00000000: f8c2 4fbd 44f8 d7bd 0f6b 40be 4d31 273e
00000010: 8346 723d 9e3f 7b3e bb80 413e 5e67 db3c
00000020: 4492 c1bd 7710 173e af3f 793d 83d4 3fbe
00000030: 62ff 21be b636 173e 8c4a 643e 3484 1f3e
00000040: 6bc1 483e 0b1f 4ebd 1d28 953d 8436 8a3d
00000050: 20e8 76bc 50f4 d1bd 78e2 1b3e 5f12 90bd
00000060: d36d 3a3e 90a1 703e 8fa5 3dbe 456d 3c3e
00000070: 511b cfbd cda6 0d3e 1502 1abe a73b a6bd
00000080: 4912 d73d 2605 54bd 6bf1 7fbd b502 36bd
00000090: f9d7 ff3d e036 21bd 30b7 f4bd f8d2 4ebe
000000a0: 25f1 943d 7088 493e 07b5 3cbd dfdf 463e
000000b0: 6ed1 7d3e a0cb 3dbd 6840 a4bd 5f26 5a3e
000000c0: e2a4 11bd 4d16 a8bc f386 553d d261 fe3d
000000d0: 6909 583d d6ae 443e 008e 29be 65b4 62bd
000000e0: b7db 2cbe 2054 953d e020 c63d 2dc0 3e3e
000000f0: f5bf 313e 22fb 29be 7f79 193e 5ad5 e13d

base_module.layers.1.weight f4 [64, 64]
0.05875492 -0.12016509 0.10218935 0.15207306 0.068385236 0.06213918 -0.08976968 -0.07242852
0.093667686 0.03059455 0.1753883 -0.11739625 0.11814758 0.11662522 -0.02918268 0.017261036
0.12314015 -0.10730382 0.10698703 0.054014202 0.019129232 -0.02723742 -0.070607476 0.011647674
-0.13164279 -0.031841125 -0.05688761 -0.05723328 0.13939603 0.03629144 0.0062269345 -0.05122204
0.2004356 0.06373435 -0.0050285226 -0.096266985 0.046495818 0.083951995 0.099034354 -0.14371714
0.011064199 -0.10311439 -0.035302833 0.031377476 0.14919218 -0.008399233 -0.040479813 0.008060613
-0.029352173 0.184109 0.119671926 0.0734593 0.13018383 0.03791001 -0.04687114 0.06599961
0.12285927 -0.08564749 0.08733837 0.064341836 -0.034385927 -0.0694792 0.09429474 0.06049932
0.118820935 0.052820463 0.09801024 0.113217756 0.040385544 -0.05184114 -0.11584443 0.01422477
-0.10868262 -0.06972868 -0.09197549 -0.08115275 -0.062322415 0.038841814 -0.1223037 -0.07646197
0.05032812 -0.030255588 0.020210281 0.022669738 0.060571462 0.043385204 0.030115806 0.0052597444
-0.024157492 -0.10063373 0.051762044 -0.067566976 -0.048882335 -0.008033867 -0.1121724 -0.014238462
-0.070656024 -0.011354402 0.008177654 -0.111150086 0.06029067 -0.016707972 0.05756186 0.07652804
0.05857465 -0.078666635 0.09993489 0.08744451 -0.04555425 0.040251642 0.106105626 -0.06940086
0.080918185 -0.123755984 0.022025848 0.017114982 -0.023125501 -0.10570792 0.07813446 0.104778446
-0.05230032 -0.084654324 -0.053437434 0.000982523 0.12486954 -0.103535414 0.031816468 0.09982153
0.11888076 -0.0077237026 0.10544984 0.22210881 0.14538555 0.13475247 -0.085280836 0.14989659
0.02639402 -0.021485442 0.045429323 -0.082498565 0.14277695 0.16306262 -0.06344266 -0.06535631
0.16319136 0.036989063 0.061011203 0.05790223 -0.07641402 -0.026662545 -0.0286688 0.18986988
0.005725415 -0.048144836 0.09368169 0.1496342 -0.18836702 0.056228448 0.008897553 0.115599945
-0.0064795655 -0.0012964364 0.08507991 -0.0052659223 -0.0100810975 -0.1240754 -0.07149413 -0.012437914
0.04328302 0.10998004 0.12688069 0.17023827 0.10407467 0.11259413 -0.06828832 0.00579465
0.10833585 0.0656072 -0.0647239 -0.07164684 -0.108352825 0.068488 -0.058168545 0.038788673
0.011723489 0.02375011 0.041175973 0.1605615 -0.087342136 0.09995483 -0.08558494 0.11489908
0.056024954 -0.07801202 -0.014786303 0.23594359 -0.053867564 0.07519378 0.092972845 -0.012517285
0.04059336 0.16808146 0.15171072 -0.083969116 0.131293 -0.043864813 0.052860256 0.008480778
0.0039263503 -0.058569796 0.12755859 0.053550884 0.08193293 0.10770175 -0.039584123 -0.027597578
0.1778169 0.1154218 -0.08046974 0.13381284 -0.018505199 0.10837293 0.023670325 -0.118226886
0.06759595 0.06769772 -0.033816233 -0.06721069 0.03298382 0.04548894 0.029441163 0.14275587
-0.032116294 0.15891156 0.13469627 0.116774894 -0.039067294 0.05795403 0.13822733 -0.03704802
0.1592392 -0.09670669 0.1139555 0.15617098 -0.119022876 0.119478785 0.058513507 0.043743294
-0.06217882 0.13093987 0.119726144 0.2309554 -0.059210263 -0.1068535 -0.09789789 0.047851566
00000000: 00a9 703d 1d19 f6bd a648 d13d 0ab9 1b3e
00000010: 8f0d 8c3d a785 7e3d 2ad9 b7bd 6755 94bd
00000020: d8d4 bf3d 6ca1 fa3c fe98 333e 726d f0bd
00000030: 5cf7 f13d 34d9 ee3d 8410 efbc 0467 8d3c
00000040: e730 fc3d 1bc2 dbbd 041c db3d ff3d 5d3d
00000050: e8b4 9c3c 0321 dfbc a79a 90bd e3d5 3e3c
00000060: 5ecd 06be d76b 02bd fc02 69bd 726d 6abd
00000070: d5bd 0e3e 55a6 143d 500b cc3b 34ce 51bd
00000080: fd3e 4d3e 2887 823d 4ec6 a4bb a027 c5bd
00000090: 6672 3e3d 06ef ab3d 86d2 ca3d 962a 13be
000000a0: 9d46 353c a32d d3bd b499 10bd ab85 003d
000000b0: d6c5 183e f09c 09bc 29ce 25bd a910 043c
000000c0: f873 f0bc 1287 3c3e 8e16 f53d d471 963d
000000d0: e94e 053e 8747 1b3d f4fb 3fbd ce2a 873d
000000e0: a49d fb3d f467 afbd 76de b23d a7c5 833d
000000f0: 42d8 0cbd 1c4b 8ebd 9a1d c13d 23ce 773d
00000100: 6458 f33d 455a 583d 98b9 c83d b6de e73d
00000110: 506b 253d 6057 54bd d83f edbd 020f 693c
00000120: fe94 debd e9cd 8ebd a55d bcbd 6a33 a6bd
00000130: ca45 7fbd 9818 1f3d 5d7a fabd 1898 9cbd
00000140: dc24 4e3d 91da f7bc 0890 a53c e3b5 b93c
00000150: c819 783d afb4 313d 6cb5 f63c ef59 ac3b
00000160: efe5 c5bc 0f19 cebd 7004 543d 8e60 8abd
00000170: d838 48bd 7ba0 03bc a5ba e5bd 7048 69bc
00000180: 1bb4 90bd d007 3abc 91fb 053c a8a2 e3bd
00000190: 59f3 763d 28df 88bc fcc5 6b3d bcba 9c3d
000001a0: f9eb 6f3d f91b a1bd aaaa cc3d 1b16 b33d
000001b0: 1897 3abd e8de 243d e84d d93d 0a22 8ebd
000001c0: 6fb8 a53d c773 fdbd 8d6f b43c b834 8c3c
000001d0: b171 bdbc 657d d8bd f604 a03d 1596 d63d
000001e0: dc38 56bd 3f5f adbd 36e1 5abd 00c8 803a
000001f0: 9abb ff3d 600a d4bd fc51 023d 3b6f cc3d
00000200: c277 f33d 1d17 fdbb 16f6 d73d 7e70 633e
00000210: f3df 143e 8dfc 093e b8a7 aebd 7e7e 193e
00000220: 4638 d83c 3d02 b0bc 1914 3a3d 02f5 a8bd
00000230: 1f34 123e e3f9 263e 3aee 81bd 87d9 85bd
00000240: a31b 273e d881 173d e2e6 793d e42a 6d3d
00000250: f47e 9cbd 696b dabc d5da eabc 406d 423e
00000260: 439c bb3b 8533 45bd 30dc bf3d b539 193e
00000270: 49e3 40be cd4f 663d 0bc7 113c aabf ec3d
00000280: 8952 d4bb 30ed a9ba 603e ae3d c28d acbb
00000290: 302b 25bc 3e1b febd 846b 92bd 64c8 4bbc
000002a0: 8949 313d 373d e13d 03ed 013e f152 2e3e
000002b0: 1a25 d53d c097 e63d bfda 8bbd 0ce1 bd3b
000002c0: 30df dd3d 115d 863d f78d 84bd 94bb 92bd
000002d0: 16e8 ddbd 7043 8c3d 2442 6ebd dfe0 1e3d
000002e0: e013 403c 978f c23c 23a8 283d 3c6a 243e
000002f0: 6fe0 b2bd 1eb5 cc3d 2847 afbd 3550 eb3d
00000300: 6c7a 653d c4c4 9fbd 4042 72bc 329b 713e
00000310: 3ca4 5cbd 32ff 993d 8c68 be3d 4c15 4dbc
00000320: 3945 263d 8c1d 2c3e 0e5a 1b3e 00f8 abbd
00000330: ac71 063e 97ab 33bd ff83 583d f6f2 0a3c
00000340: 9da8 803b e2e6 6fbd b89e 023e 2c58 5b3d
00000350: 74cc a73d bc92 dc3d f622 22bd 5114 e2bc
00000360: a215 363e 4462 ec3d 52cd a4bd 3c06 093e
00000370: 3798 97bc a0f2 dd3d 45e8 c13c f020 f2bd
00000380: bf6f 8a3d 1aa5 8a3d e482 0abd c2a5 89bd
00000390: 0b1a 073d 9c52 3a3d 982e f13c 982e 123e
000003a0: 608c 03bd b6b9 223e d2ed 093e ad27 ef3d
000003b0: 0705 20bd 3461 6d3d 778b 0d3e aabf 17bd
000003c0: 9a0f 233e 280e c6bd 8061 e93d 49eb 1f3e
000003d0: 44c2 f3bd 4bb1 f43d dcab 6f3d 2b2c 333d
000003e0: 38af 7ebd 1a15 063e fb32 f53d 937f 6c3e
000003f0: 7686 72bd 02d6 dabd b07e c8bd 0100 443d

base_module.layers.1.bias f4 [64]
0.1381409 0.0828787 0.14503229 0.05631891 0.07883588 -0.083953954 -0.108104676 0.10704344
-0.10712364 0.01611064 0.0979616 0.10126218 0.041431155 -0.04412912 -0.055093892 -0.008355539
-0.013531152 0.054100927 0.06392664 0.12117462 0.12818602 -0.07792139 0.10244936 0.101032786
-0.047730967 0.021489998 0.041464932 0.07066387 0.08984639 -0.00876195 -0.039312176 0.05750527
0.14363456 -0.074399434 -0.009932898 -0.056944832 0.10255176 0.13306239 0.050503325 0.025082022
0.030984432 0.054250583 -0.069959626 0.10295145 0.040998407 -0.10665998 0.09116472 0.018181246
0.020575875 0.06524788 0.10639626 -0.1249693 0.08501494 0.07704894 0.08521561 0.14872877
0.07012738 -0.04773385 -0.09006008 -0.10155229 0.09141564 -0.043889668 0.09081159 -0.025665134
00000000: cf74 0d3e 4fbc a93d 5883 143e a8ae 663d
00000010: b574 a13d 0df0 abbd fc65 ddbd 9739 db3d
00000020: a463 dbbd 76fa 833c 17a0 c83d 8c62 cf3d
00000030: b7b3 293d bcc0 34bd 22aa 61bd ace5 08bc
00000040: c4b1 5dbc ef98 5d3d f8eb 823d 662a f83d
00000050: 3243 033e 4095 9fbd f8d0 d13d 47ea ce3d
00000060: 8c81 43bd cb0b b03c 22d7 293d 38b8 903d
00000070: 6201 b83d 488e 0fbc ce05 21bd a58a 6b3d
00000080: f014 133e bb5e 98bd 98bd 22bc fc3e 69bd
00000090: a806 d23d 8241 083e 93dc 4e3d d078 cd3c
000000a0: 10d3 fd3c dc35 5e3d fe46 8fbd 36d8 d23d
000000b0: f2ed 273d 8c70 dabd 92b4 ba3d d6f0 943c
000000c0: bd8e a83c aea0 853d 48e6 d93d e8ef ffbd
000000d0: 501c ae3d d6cb 9d3d 8685 ae3d 5b4c 183e
000000e0: f29e 8f3d 9284 43bd 6b71 b8bd a6fa cfbd
000000f0: 2038 bb3d a7c5 33bd 6dfb b93d b03f d2bc

advantage.weight f4 [5, 64]
0.1073194 -0.09736883 -0.026034351 0.070580445 0.12724738 -0.11845652 0.12414781 0.058813307
-0.08705991 -0.10729995 -0.11124872 0.094150595 -0.06596987 0.048222438 0.016319107 0.094817236
-0.0721757 -0.04089745 -0.063278586 -0.0021110566 -0.052014682 -0.071692884 -0.06518707 0.025173435
-0.015646711 0.036910042 0.20539318 0.0473066 -0.07632737 0.011025551 0.12256237 0.1211464
0.08894291 -0.07554806 -0.063333 -0.119863026 -0.1309509 0.026581546 -0.025360214 0.07047263
-0.0063812174 0.091566846 -0.09313673 -0.023524558 0.0214966 0.10368962 -0.051846467 -0.029206293
0.07836579 0.02343771 0.106174916 0.0852229 0.06065697 0.03629476 -0.024675388 -0.07001493
-0.01644291 0.069122896 -0.14726108 0.09232622 0.017272457 0.074497595 0.13009205 -0.063201055
-0.0429363 0.112141654 -0.1256281 0.03405454 0.003133098 0.07291701 0.014582255 0.0507496
-0.067006126 0.08586199 -0.030611323 -0.05947287 0.09454215 0.037400514 0.107156955 -0.02862045
-0.123780645 -0.06808445 0.0255865 0.02471773 -0.012164456 0.027958065 0.08188741 0.020560704
-0.083811685 0.02164469 0.00091787963 0.078833 -0.0060319453 -0.05019094 0.022272319 0.06829871
-0.04605068 -0.035450377 0.056568053 0.068852395 0.03784251 0.026967574 -0.07333821 0.0064890385
0.030031698 0.035138007 0.043370456 0.10626348 -0.07198305 -0.035867676 -0.12917309 -0.011253744
0.02557235 0.022925975 -0.08916581 -0.07650384 0.037979346 -0.058368538 -0.04555366 0.024582688
0.08161661 0.06064085 0.15319492 0.10498389 0.032629 0.023865027 0.020018183 -0.08150838
0.018682316 -0.089254245 0.09066039 0.1000113 0.010364622 0.08124003 -0.11326776 -0.11810365
0.0087986635 0.11271319 -0.009938054 -0.014137105 -0.017093752 0.07377446 0.13771251 -0.07957918
0.035903826 -0.009107756 -0.0063314093 -0.096586265 -0.058139976 -0.03732483 -0.016545191 0.03340492
-0.06462678 0.10429841 -0.05653603 -0.14175013 -0.05149153 0.006031664 -0.09157324 -0.062466323
-0.06028624 0.057729863 -0.07084944 0.097967386 0.049236607 0.00586701 -0.0092683155 0.07271555
0.09528031 -0.13048849 -0.10888478 0.01983334 0.09341643 -0.07261837 -0.13015956 -0.07034961
-0.08213013 0.09871638 -0.091031134 0.019570976 -0.038933333 0.08219415 -0.04522566 -0.067882404
0.047613144 -0.0059688855 -0.028678082 0.11368642 -0.10239814 -0.06336961 -0.12024802 -0.11246154
0.030856743 0.09345334 0.06511283 0.05947233 -0.07338615 -0.105610594 -0.19780508 0.11888249
-0.04595589 -0.054282434 -0.01655085 0.0723073 -0.10706089 0.032954693 -0.04782481 0.051963482
0.069418214 -0.09090765 0.033488806 0.064986154 -0.09880327 -0.119884685 0.06909588 -0.0020337238
0.09046626 0.10248951 -0.13366446 0.1995701 0.027544558 0.023429397 0.11173628 0.08810934
-0.038446657 0.09898939 0.051425274 -0.02069931 0.019235555 0.15703541 -0.046559863 0.06766081
-0.025206435 0.11650972 -0.12005547 0.039974723 -0.103734724 -0.058046814 0.06918933 0.06926673
-0.019839276 -0.036557343 0.1037478 0.05687724 -0.07971516 0.05872521 0.052980527 0.12516497
-0.10922596 -0.15034382 -0.072105825 0.07765805 0.046487793 -0.11875708 0.019710863 -0.077935934
00000000: 46ca db3d 4f69 c7bd fe45 d5bc 7b8c 903d
00000010: 234d 023e 5599 f2bd 3541 fe3d 39e6 703d
00000020: 774c b2bd 14c0 dbbd 5ed6 e3bd 07d2 c03d
00000030: 361b 87bd e484 453d a6af 853c 8a2f c23d
00000040: dad0 93bd 1684 27bd 3498 81bd a759 0abb
00000050: 590d 55bd b8d3 92bd cc80 85bd 8538 ce3c
00000060: 882d 80bc fc2e 173d 9752 523e 91c4 413d
00000070: 8651 9cbd 83a4 343c fb01 fb3d 9b1b f83d
00000080: b327 b63d f1b8 9abd bbb4 81bd bf7a f5bd
00000090: fe17 06be 8bc1 d93c 39c0 cfbc f453 903d
000000a0: 8819 d1bb 6687 bb3d 78be bebd 93b6 c0bc
000000b0: a319 b03c 395b d43d f65c 54bd 0942 efbc
000000c0: 3e7e a03d 7100 c03c 3c72 d93d 5889 ae3d
000000d0: 7173 783d d0a9 143d 0a24 cabc fd63 8fbd
000000e0: 48b3 86bc 4e90 8d3d 9ccb 16be 8715 bd3d
000000f0: f87e 8d3c 3292 983d da36 053e 8e6f 81bd
00000100: f9dd 2fbd 86aa e53d a7a4 00be c67c 0b3d
00000110: a954 4d3b 8355 953d 69ea 6e3c d0de 4f3d
00000120: 823a 89bd 69d8 af3d 99c4 fabc d399 73bd
00000130: 519f c13d 4831 193d 1b75 db3d 6f75 eabc
00000140: b580 fdbd dc6f 8bbd c89a d13c d67c ca3c
00000150: 6d4d 47bc 5008 e53c 96b4 a73d ec6e a83c
00000160: 76a5 abbd 3450 b13c dc9d 703a 3273 a13d
00000170: a0a7 c5bb 0495 4dbd 7074 b63c 32e0 8b3d
00000180: a39f 3cbd 6a34 11bd e7b3 673d 7c02 8d3d
00000190: bf00 1b3d 1aeb dc3c 5832 96bd 00a2 d43b
000001a0: 0905 f63c dfec 0f3d 38a5 313d aba0 d93d
000001b0: d96b 93bd fce9 12bd f345 04be a061 38bc
000001c0: 1b7d d13c 41cf bb3c 909c b6bd 0cae 9cbd
000001d0: 3b90 1b3d d913 6fbd 7996 3abd a261 c93c
000001e0: 9c26 a73d 8a62 783d 21df 1c3e cb01 d73d
000001f0: fca5 053d 9780 c33c 2cfd a33c deed a6bd
00000200: a80b 993c eeca b6bd 28ac b93d b9d2 cc3d
00000210: 60d0 293c 2c61 a63d edf8 e7bd 54e0 f1bd
00000220: 4528 103c 2cd6 e63d 38d3 22bc 519f 67bc
00000230: 3208 8cbc 1017 973d 8204 0d3e 69fa a2bd
00000240: e40f 133d b338 15bc b677 cfbb 05cf c5bd
00000250: 2f24 6ebd ece1 18bd c889 87bc 99d3 083d
00000260: 0c5b 84bd 689a d53d 5392 67bd f226 11be
00000270: c8e8 52bd 44a5 c53b c08a bbbd b0dc 7fbd
00000280: b4ee 76bd 2676 6c3d 8319 91bd 20a3 c83d
00000290: 53ac 493d 0c40 c03b 22da 17bc e4eb 943d
000002a0: 5322 c33d c69e 05be fcfe debd 8779 a23c
000002b0: 1d51 bf3d f1b8 94bd 8c48 05be 7513 90bd
000002c0: d733 a8bd d02b ca3d 886e babd 5053 a03c
000002d0: 8f78 1fbd 6855 a83d 8b3e 39bd ee05 8bbd
000002e0: 0006 433d a496 c3bb 4cee eabc 6dd4 e83d
000002f0: 1eb6 d1bd edc7 81bd 9844 f6bd 3c52 e6bd
00000300: 48c7 fc3c 7764 bf3d e059 853d 4299 733d
00000310: 7a4b 96bd 5e4a d8bd 6a8d 4abe aa78 f33d
00000320: 3e3c 3cbd 4257 5ebd a695 87bc da15 943d
00000330: bd42 dbbd 80fb 063d f3e3 43bd a9d7 543d
00000340: 232b 8e3d ca2d babd 8f2b 093d 7617 853d
00000350: 5e59 cabd 1a86 f5bd 2482 8d3d 3948 05bb
00000360: 6046 b93d 05e6 d13d 56df 08be 1b5c 4c3e
00000370: 20a5 e13c 02ef bf3c fed5 e43d ab72 b43d
00000380: 3e7a 1dbd f3ba ca3d 4fa3 523d 9991 a9bc
00000390: e293 9d3c e4cd 203e 8eb5 3ebd c091 8a3d
000003a0: ba7d cebc a69c ee3d a4df f5bd 89bc 233d
000003b0: df72 d4bd 7fc2 6dbd 23b3 8d3d b7db 8d3d
000003c0: fa85 a2bc 27bd 15bd ba79 d43d 1cf8 683d
000003d0: b441 a3bd d989 703d 1c02 593d 3f2b 003e
000003e0: dcb1 dfbd bbf3 19be 38ac 93bd 2f0b 9f3d
000003f0: fc69 3e3d e936 f3bd ad78 a13c e09c 9fbd

advantage.bias f4 [5]
0.02846006 -0.021311393 -0.03919981 -0.07988946 -0.05508668
00000000: 1225 e93c 3b95 aebc fb8f 20bd 169d a3bd
00000010: 92a2 61bd

value.weight f4 [1, 64]
0.036294177 -0.020581432 0.09876746 0.10307064 -0.044071466 -0.05349892 -0.13165836 0.067456275
0.09250702 -0.11182538 -0.11400697 -0.006638549 0.11195932 0.0015082359 0.10524856 -0.0943559
0.15541893 -0.03692662 -0.10209408 0.15428327 0.11063611 -0.061284557 -0.053582013 0.16399656
-0.10118829 0.16575696 -0.02008411 -0.044622004 -0.0019971728 0.10474902 0.14777674 0.15560351
0.112034485 0.040474087 0.16143194 0.17208655 0.085375674 -0.111960106 0.10736151 -0.058636546
0.06546324 -0.040840358 -0.1193115 -0.00024420762 0.17989053 0.009803147 -0.064684935 0.11751503
-0.096983425 0.13130845 0.09195262 0.09892817 0.14790761 0.0053705596 0.0979792 0.1529394
-0.00814718 -0.1756114 0.030730525 -0.029570224 0.105377555 0.08394159 -0.049332034 0.0025798827
00000000: 34a9 143d 649a a8bc 9846 ca3d b316 d33d
00000010: 4884 34bd af21 5bbd 73d1 06be 8426 8a3d
00000020: 5274 bd3d b404 e5bd 7c7c e9bd 2f88 d9bb
00000030: ee4a e53d 00b0 c53a 8f8c d73d ab3d c1bd
00000040: 2426 1f3e 5e40 17bd b316 d1bd 6ffc 1d3e
00000050: 2f95 e23d 8405 7bbd d078 5bbd b7ee 273e
00000060: ce3b cfbd 31bc 293e 6e87 a4bc 90c5 36bd
00000070: 00e3 02bb a786 d63d c952 173e 8756 1f3e
00000080: 5672 e53d 28c8 253d 6a4e 253e 7537 303e
00000090: 71d9 ae3d 574b e5bd 5ae0 db3d e02c 70bd
000000a0: 9711 863d 3848 27bd 9659 f4bd fe08 80b9
000000b0: 3935 383e 619d 203c 8979 84bd b8ab f03d
000000c0: 3f9f c6bd b975 063e a851 bc3d da9a ca3d
000000d0: 1875 173e 85fb af3b 52a9 c83d 259c 1c3e
000000e0: c07b 05bc 7ad3 33be 95be fb3c 413d f2bc
000000f0: 30d0 d73d 91e9 ab3d 6310 4abd 4013 293b

exp_avg f4 [64, 25]
0.0 0.0 0.0 0.0 0.0 0.0 0.0 0.0
0.0 0.0 0.0 0.0 0.0 0.0 0.0 0.0
0.0 0.0 0.0 0.0 0.0 0.0 0.0 0.0
0.0 -0.0002652763 -0.0002652763 0.00015383397 -0.00013842064 9.394137e-07 -0.0002652763 0.0002112198
-0.000277421 5.738198e-05 4.0692066e-05 -0.0002652763 -2.5002631e-05 -0.0002357192 7.045864e-05 -4.721001e-07
-0.0002652763 -0.00020165199 0.00013653777 2.294644e-05 -1.775209e-05 -0.0002652763 -0.00011159347 4.7320766e-05
2.5947142e-05 -4.63614e-06 0.0 0.0 0.0 0.0 0.0 0.0
0.0 0.0 0.0 0.0 0.0 0.0 0.0 0.0
0.0 0.0 0.0 0.0 0.0 0.0 0.0 0.0
0.0 0.0 0.0 0.0009435901 0.0009435901 8.976061e-05 0.00047193887 1.5490727e-05
0.0009435901 -0.0011200086 0.0009700579 -0.00010930917 -3.960285e-06 0.0009435901 0.00039482684 -0.00065766316
-0.0001991623 -1.1560556e-05 0.0009435901 -0.0003430253 0.00034151375 -0.00019774455 -5.110034e-05 0.0009435901
-0.0003799912 0.00025033802 -0.00027450768 1.69952e-06 0.0010469343 0.0010469343 0.0004207368 0.0005170814
1.4974709e-05 0.0010469343 -0.00041359765 0.00067510316 -0.00018501362 1.9909444e-06 0.0010469343 -0.00031705323
-0.000104707186 -0.00022956841 -4.2941276e-05 0.0010469343 5.0996212e-05 0.00045389702 -0.00016510116 -4.5377164e-05
0.0010469343 -0.00028992112 0.0002978278 -0.00017905653 -2.8524053e-05 0.0010870778 0.0010870778 0.0002707912
0.0005431706 1.5209455e-05 0.0010870778 -0.0007801455 0.0010246553 -0.00020630799 -1.793571e-05 0.0010870778
-0.0002779199 -0.00012768983 -0.00027141618 -5.254322e-05 0.0010870778 2.2058002e-05 0.0004484441 -0.00019042197
-5.6527617e-05 0.0010870778 -0.00042783064 0.0005259314 -0.00019049157 -3.2064305e-05 0.0 0.0
0.0 0.0 0.0 0.0 0.0 0.0 0.0 0.0
0.0 0.0 0.0 0.0 0.0 0.0 0.0 0.0
0.0 0.0 0.0 0.0 0.0 0.0 0.0 0.0012856052
0.0012856052 0.00046421288 0.0006157761 1.4486478e-05 0.0012856052 -0.0007218165 0.00080725056 -0.00021451029
-5.9329e-06 0.0012856052 -0.0003310172 -0.000324627 -0.00026328862 -5.005239e-05 0.0012856052 -5.9525187e-06
0.0005364852 -0.00018635749 -5.5754866e-05 0.0012856052 -0.00048304544 0.00042736196 -0.00018870593 -3.392145e-05
0.0004938973 0.0004938973 -9.82114e-05 0.0002540758 1.4882148e-06 0.0004938973 -0.0004195761 0.0006095445
-9.978758e-05 -1.7998587e-05 0.0004938973 0.0001500908 0.00022136643 -0.00011142563 -8.119181e-06 0.0004938973
5.218655e-05 0.00013494334 -9.3919356e-05 -4.3812983e-05 0.0004938973 -0.000101861435 0.00042418312 -0.0001215674
-1.2466589e-06 0.00090272224 0.00090272224 0.00026763807 0.00046150864 7.983943e-06 0.00090272224 -0.000728004
0.0007793032 -0.00019497801 -5.715586e-06 0.00090272224 -0.00033898404 -0.00015394234 -0.00024257324 -4.053605e-05
0.00090272224 -6.254001e-05 0.000503062 -0.00018219276 -4.966037e-05 0.00090272224 -0.00045243444 0.00040056917
-0.00016264929 -3.1141648e-05 0.00020865875 0.00020865875 -0.0008559014 0.00016183085 -1.9834359e-05 0.00020865875
00000000: 0000 0000 0000 0000 0000 0000 0000 0000
00000010: 0000 0000 0000 0000 0000 0000 0000 0000
00000020: 0000 0000 0000 0000 0000 0000 0000 0000
00000030: 0000 0000 0000 0000 0000 0000 0000 0000
00000040: 0000 0000 0000 0000 0000 0000 0000 0000
00000050: 0000 0000 0000 0000 0000 0000 0000 0000
00000060: 0000 0000 c814 8bb9 c814 8bb9 7e4e 2139
00000070: 0225 11b9 052c 7c35 c814 8bb9 e27a 5d39
00000080: d172 91b9 6fad 7038 c6ac 2a38 c814 8bb9
00000090: bebc d1b7 642b 77b9 32c3 9338 f274 fdb4
000000a0: c814 8bb9 8b72 53b9 942b 0f39 1b7d c037
000000b0: 53ea 94b7 c814 8bb9 4a07 eab8 497a 4638
000000c0: 10a9 d937 2490 9bb6 0000 0000 0000 0000
000000d0: 0000 0000 0000 0000 0000 0000 0000 0000
000000e0: 0000 0000 0000 0000 0000 0000 0000 0000
000000f0: 0000 0000 0000 0000 0000 0000 0000 0000
00000100: 0000 0000 0000 0000 0000 0000 0000 0000
00000110: 0000 0000 0000 0000 0000 0000 0000 0000
00000120: 0000 0000 0000 0000 0000 0000 425b 773a
00000130: 425b 773a dc3d bc38 906e f739 15f2 8137
00000140: 425b 773a 41cd 92ba 7c4b 7e3a ea3c e5b8
00000150: 97e2 84b6 425b 773a c300 cf39 0767 2cba
00000160: 39d6 50b9 36f4 41b7 425b 773a 14d8 b3b9
00000170: 330d b339 a659 4fb9 9354 56b8 425b 773a
00000180: 8e39 c7b9 cd3f 8339 cceb 8fb9 101b e435
00000190: 4939 893a 4939 893a 5696 dc39 bf8c 073a
000001a0: e33b 7b37 4939 893a 23d8 d8b9 68f9 303a
000001b0: 3700 42b9 2a9c 0536 4939 893a 2a3a a6b9
000001c0: 3e96 dbb8 4db8 70b9 d81b 34b8 4939 893a
000001d0: c4e4 5538 07f9 ed39 011f 2db9 5c53 3eb8
000001e0: 4939 893a 8e00 98b9 c525 9c39 1fc1 3bb9
000001f0: f046 efb7 477c 8e3a 477c 8e3a fbf8 8d39
00000200: 9063 0e3a 1d2c 7f37 477c 8e3a ae82 4cba
00000210: ba4d 863a 6154 58b9 a574 96b7 477c 8e3a
00000220: c7b5 91b9 7ae4 05b9 dd4c 8eb9 da61 5cb8
00000230: 477c 8e3a 3309 b937 261d eb39 02ac 47b9
00000240: 1118 6db8 477c 8e3a 754e e0b9 a9de 093a
00000250: b1be 47b9 c97c 06b8 0000 0000 0000 0000
00000260: 0000 0000 0000 0000 0000 0000 0000 0000
00000270: 0000 0000 0000 0000 0000 0000 0000 0000
00000280: 0000 0000 0000 0000 0000 0000 0000 0000
00000290: 0000 0000 0000 0000 0000 0000 0000 0000
000002a0: 0000 0000 0000 0000 0000 0000 0000 0000
000002b0: 0000 0000 0000 0000 0000 0000 c181 a83a
000002c0: c181 a83a 9961 f339 096c 213a f30a 7337
000002d0: c181 a83a 4938 3dba ab9d 533a 2bee 60b9
000002e0: 3913 c7b6 c181 a83a 608c adb9 b332 aab9
000002f0: 000a 8ab9 58ef 51b8 c181 a83a bfbb c7b6
00000300: eaa2 0c3a f568 43b9 55da 69b8 c181 a83a
00000310: 4341 fdb9 8d0f e039 5ddf 45b9 e146 0eb8
00000320: e378 013a e378 013a d8f6 cdb8 7a35 8539
00000330: acbe c735 e378 013a 8dfa dbb9 d7c9 1f3a
00000340: 0d45 d1b8 acfb 96b7 e378 013a b161 1d39
00000350: 991e 6839 2ead e9b8 9e37 08b7 e378 013a
00000360: e2e2 5a38 947f 0d39 92f6 c4b8 d5c3 37b8
00000370: e378 013a 719e d5b8 e564 de39 00f2 feb8
00000380: e052 a7b5 aaa4 6c3a aaa4 6c3a c651 8c39
00000390: a4f6 f139 c6f2 0537 aaa4 6c3a 85d7 3eba
000003a0: 274a 4c3a 0373 4cb9 83c8 bfb6 aaa4 6c3a
000003b0: abb9 b1b9 956b 21b9 425b 7eb9 4105 2ab8
000003c0: aaa4 6c3a ea27 83b8 ebdf 033a ff0a 3fb9
000003d0: 6b4a 50b8 aaa4 6c3a b934 edb9 7c03 d239
000003e0: d68c 2ab9 179e 02b8 68cb 5a39 68cb 5a39
000003f0: 925e 60ba 23b1 2939 f661 a6b7 68cb 5a39

exp_avg_sq f4 [64, 25]
0.0 0.0 0.0 0.0 0.0 0.0 0.0 0.0
0.0 0.0 0.0 0.0 0.0 0.0 0.0 0.0
0.0 0.0 0.0 0.0 0.0 0.0 0.0 0.0
0.0 1.3114053e-05 1.3114053e-05 1.3155012e-06 2.7617268e-06 1.0656943e-09 1.3114053e-05 7.835202e-07
1.9326012e-06 1.5880246e-07 2.1722186e-09 1.3114053e-05 1.4167023e-06 1.7450907e-06 1.5466019e-07 1.583155e-09
1.3114053e-05 1.4123149e-06 1.944759e-06 1.8090307e-07 5.064488e-09 1.3114053e-05 1.2156569e-06 2.6568691e-06
1.625577e-07 4.308049e-09 0.0 0.0 0.0 0.0 0.0 0.0
0.0 0.0 0.0 0.0 0.0 0.0 0.0 0.0
0.0 0.0 0.0 0.0 0.0 0.0 0.0 0.0
0.0 0.0 0.0 7.163156e-05 7.163156e-05 8.270438e-06 1.3691104e-05 4.073166e-09
7.163156e-05 4.5397146e-06 8.5522515e-06 7.1827725e-07 1.1236157e-08 7.163156e-05 5.218003e-06 8.08704e-06
6.4268005e-07 6.323836e-09 7.163156e-05 4.7349536e-06 7.700338e-06 6.796562e-07 1.2916214e-08 7.163156e-05
4.2255815e-06 1.020268e-05 6.86923e-07 8.9462056e-09 7.7166136e-05 7.7166136e-05 1.3753355e-05 1.45093245e-05
4.035335e-09 7.7166136e-05 4.623336e-06 8.134801e-06 7.130779e-07 9.136918e-09 7.7166136e-05 5.3824742e-06
7.919039e-06 6.7764256e-07 8.115604e-09 7.7166136e-05 4.629936e-06 7.5550843e-06 7.0590954e-07 1.1233964e-08
7.7166136e-05 4.7482863e-06 9.460256e-06 7.0578267e-07 1.23036825e-08 0.00018087414 0.00018087414 3.144307e-05
3.398302e-05 8.930396e-09 0.00018087414 1.0637046e-05 1.8379187e-05 1.5610418e-06 2.0023624e-08 0.00018087414
1.2701878e-05 1.7890714e-05 1.4875216e-06 1.7666103e-08 0.00018087414 1.1868582e-05 1.7517941e-05 1.623621e-06
3.1664655e-08 0.00018087414 1.2253868e-05 2.2823657e-05 1.5881647e-06 3.1477818e-08 0.0 0.0
0.0 0.0 0.0 0.0 0.0 0.0 0.0 0.0
0.0 0.0 0.0 0.0 0.0 0.0 0.0 0.0
0.0 0.0 0.0 0.0 0.0 0.0 0.0 0.00018164574
0.00018164574 2.9034314e-05 3.372758e-05 8.64443e-09 0.00018164574 9.986829e-06 1.7803486e-05 1.5198304e-06
1.8250207e-08 0.00018164574 1.2092139e-05 1.715511e-05 1.4462144e-06 1.6298104e-08 0.00018164574 1.1001934e-05
1.6388258e-05 1.545459e-06 2.6216014e-08 0.00018164574 1.1217423e-05 2.134559e-05 1.5107769e-06 2.8772078e-08
1.706467e-05 1.706467e-05 3.0386782e-06 3.319333e-06 1.1177732e-09 1.706467e-05 1.0432598e-06 1.9782995e-06
1.670844e-07 2.700763e-09 1.706467e-05 1.3263793e-06 2.178875e-06 1.5335418e-07 1.722612e-09 1.706467e-05
1.4059899e-06 2.0290022e-06 1.7679442e-07 4.456372e-09 1.706467e-05 1.4087104e-06 2.7166207e-06 1.7207145e-07
3.746952e-09 0.00015178324 0.00015178324 2.6349619e-05 2.853886e-05 7.546333e-09 0.00015178324 8.57985e-06
1.592243e-05 1.341225e-06 1.5973527e-08 0.00015178324 1.0610246e-05 1.4816671e-05 1.2706791e-06 1.4446876e-08
0.00015178324 9.838376e-06 1.4741619e-05 1.3730645e-06 2.5181842e-08 0.00015178324 1.0003134e-05 1.9369483e-05
1.3357648e-06 2.696416e-08 0.00014156717 0.00014156717 2.0830586e-05 2.675866e-05 7.4714315e-09 0.00014156717
00000000: 0000 0000 0000 0000 0000 0000 0000 0000
00000010: 0000 0000 0000 0000 0000 0000 0000 0000
00000020: 0000 0000 0000 0000 0000 0000 0000 0000
00000030: 0000 0000 0000 0000 0000 0000 0000 0000
00000040: 0000 0000 0000 0000 0000 0000 0000 0000
00000050: 0000 0000 0000 0000 0000 0000 0000 0000
00000060: 0000 0000 6e04 5c37 6e04 5c37 4790 b035
00000070: 1b56 3936 c977 9230 6e04 5c37 1953 5235
00000080: d6b1 0136 4a83 2a34 1346 1531 6e04 5c37
00000090: 8525 be35 dc38 ea35 ab10 2634 5196 d930
000000a0: 6e04 5c37 c58e bd35 b582 0236 423e 4234
000000b0: b503 ae31 6e04 5c37 a729 a335 aa4c 3236
000000c0: 858b 2e34 0006 9431 0000 0000 0000 0000
000000d0: 0000 0000 0000 0000 0000 0000 0000 0000
000000e0: 0000 0000 0000 0000 0000 0000 0000 0000
000000f0: 0000 0000 0000 0000 0000 0000 0000 0000
00000100: 0000 0000 0000 0000 0000 0000 0000 0000
00000110: 0000 0000 0000 0000 0000 0000 0000 0000
00000120: 0000 0000 0000 0000 0000 0000 e738 9638
00000130: e738 9638 43c1 0a37 d8b2 6537 f2f3 8b31
00000140: e738 9638 da53 9836 a47b 0f37 a3cf 4035
00000150: 2409 4132 e738 9638 4e16 af36 93ad 0737
00000160: a384 2c35 0d49 d931 e738 9638 f1e0 9e36
00000170: b330 0137 9e71 3635 1ce6 5d32 e738 9638
00000180: 78c9 8d36 2d2c 2b37 fd64 3835 d4b1 1932
00000190: 41d4 a138 41d4 a138 36be 6637 136d 7337
000001a0: 2fa7 8a31 41d4 a138 2722 9b36 b47a 0837
000001b0: 576a 3f35 97f8 1c32 41d4 a138 1a9b b436
000001c0: 03dc 0437 3ee7 3535 ce6c 0b32 41d4 a138
000001d0: d95a 9b36 ae81 fd36 bc7d 3d35 7fff 4032
000001e0: 41d4 a138 7853 9f36 7db7 1e37 0475 3d35
000001f0: 2b60 5332 08a9 3d39 08a9 3d39 bde1 0338
00000200: fd88 0e38 4c6c 1932 08a9 3d39 c475 3237
00000210: 012d 9a37 fd84 d135 6a00 ac32 08a9 3d39
00000220: 271a 5537 0414 9637 daa6 c735 2cc0 9732
00000230: 08a9 3d39 2c1f 4737 7ef3 9237 31eb d935
00000240: a8ff 0733 08a9 3d39 f695 4d37 6e75 bf37
00000250: ec28 d535 3a32 0733 0000 0000 0000 0000
00000260: 0000 0000 0000 0000 0000 0000 0000 0000
00000270: 0000 0000 0000 0000 0000 0000 0000 0000
00000280: 0000 0000 0000 0000 0000 0000 0000 0000
00000290: 0000 0000 0000 0000 0000 0000 0000 0000
000002a0: 0000 0000 0000 0000 0000 0000 0000 0000
000002b0: 0000 0000 0000 0000 0000 0000 2878 3e39
000002c0: 2878 3e39 b78e f337 b776 0d38 9b82 1432
000002d0: 2878 3e39 1b8d 2737 b258 9537 fafc cb35
000002e0: a1c4 9c32 2878 3e39 57df 4a37 51e8 8f37
000002f0: 8c1b c235 e9ff 8b32 2878 3e39 f294 3837
00000300: 8479 8937 916d cf35 a031 e132 2878 3e39
00000310: 7732 3c37 4e0f b337 e6c5 ca35 7826 f732
00000320: 1a26 8f37 1a26 8f37 18ec 4b36 b5c1 5e36
00000330: 26a0 9930 1a26 8f37 2206 8c35 edc2 0436
00000340: cf67 3334 5398 3931 1a26 8f37 0c06 b235
00000350: ca38 1236 ada9 2434 06c1 ec30 1a26 8f37
00000360: 72b5 bc35 fe29 0836 e1d4 3d34 aa1e 9931
00000370: 1a26 8f37 ec12 bd35 304f 3636 a4c2 3834
00000380: 8abe 8031 0128 1f39 0128 1f39 6009 dd37
00000390: bc66 ef37 20a5 0132 0128 1f39 2df2 0f37
000003a0: 2891 8537 2404 b435 2836 8932 0128 1f39
000003b0: a902 3237 1e95 7837 348c aa35 0832 7832
000003c0: 0128 1f39 810f 2537 c652 7737 234a b835
000003d0: 754f d832 0128 1f39 22d3 2737 a67b a237
000003e0: 8748 b335 d19e e732 a671 1439 a671 1439
000003f0: 58bd ae37 c977 e037 b45b 0032 a671 1439

exp_avg f4 [64]
0.0 -0.0002652763 0.0 0.00094358984 0.0010469342 0.0010870778 0.0 0.0012856052
0.00049389724 0.00090272224 0.00020865898 0.0 0.0001474148 0.0014093135 0.00073744846 0.0010936299
0.0011040482 0.0007812041 0.0012231121 0.0015462996 0.0 0.00082205527 0.0010718161 0.00027625458
0.00050786824 0.00088466675 0.0 0.0012031334 -0.00030022176 0.0010400545 0.00077362376 0.0
0.00053194043 6e-45 -0.00034959824 -6.376394e-13 0.0014160876 0.0 0.0 6e-45
0.0009795745 0.001099977 -0.0011137488 0.0015970548 0.00044662788 0.0 -0.0007879233 0.00076871144
0.0011463547 -0.00047538953 0.0010364741 0.00053214317 -0.00088695245 0.00096106273 0.0 0.0012625261
0.0 0.0008804965 0.00053467246 0.0010517234 -6.358607e-06 0.0 0.0 0.00047785425
00000000: 0000 0000 c814 8bb9 0000 0000 3e5b 773a
00000010: 4839 893a 477c 8e3a 0000 0000 c181 a83a
00000020: e278 013a aaa4 6c3a 78cb 5a39 0000 0000
00000030: 5c93 1a39 b7b8 b83a 5451 413a 2158 8f3a
00000040: b6b5 903a b8c9 4c3a d550 a03a 34ad ca3a
00000050: 0000 0000 327f 573a 2e7c 8c3a 43d6 9039
00000060: 7622 053a fbe8 673a 0000 0000 75b2 9d3a
00000070: 1567 9db9 7052 883a 03cd 4a3a 0000 0000
00000080: eb71 0b3a 0400 0000 484a b7b9 c37a 33ab
00000090: 049c b93a 0000 0000 0000 0000 0400 0000
000000a0: 1165 803a 1a2d 903a 35fb 91ba 4454 d13a
000000b0: 6129 ea39 0000 0000 a38c 4eba 5a83 493a
000000c0: 4841 963a b43d f9b9 4dda 873a 867f 0b3a
000000d0: 5f82 68ba d4ef 7b3a 0000 0000 597b a53a
000000e0: 0000 0000 1fd1 663a 4329 0c3a fbd9 893a
000000f0: 055c d5b6 0000 0000 0000 0000 8388 fa39

exp_avg_sq f4 [64]
0.0 1.3114052e-05 0.0 7.163156e-05 7.7166136e-05 0.00018087414 0.0 0.00018164574
1.7064673e-05 0.00015178323 0.00014156717 0.0 7.5648695e-06 0.00021120718 0.00016403022 5.234243e-05
0.00010758564 0.00011343694 8.64624e-05 8.7506734e-05 0.0 6.527635e-05 0.00018581701 0.00014737972
4.623887e-05 0.00013554544 0.0 0.00017464026 2.3634666e-05 5.001972e-05 5.227873e-05 0.0
6.2289755e-06 6.1138167e-10 1.2730046e-05 1.5939915e-10 0.00017257678 0.0 0.0 3.6829146e-08
7.355043e-05 0.0001146968 2.1310841e-05 0.00011236272 0.00011597398 0.0 0.00010401283 5.3598164e-05
0.00011071477 1.5617567e-05 8.223619e-05 4.278991e-05 5.7145153e-06 2.516467e-05 0.0 5.0179813e-05
0.0 9.952835e-05 7.69732e-05 6.0577568e-05 4.261911e-08 0.0 0.0 5.6209832e-05
00000000: 0000 0000 6d04 5c37 0000 0000 e738 9638
00000010: 41d4 a138 08a9 3d39 0000 0000 2878 3e39
00000020: 1b26 8f37 0028 1f39 a671 1439 0000 0000
00000030: bcd5 fd36 7f77 5d39 87ff 2b39 428a 5b38
00000040: 9a9f e138 fee4 ed38 2653 b538 d283 b738
00000050: 0000 0000 f9e4 8838 e0d7 4239 f189 1a39
00000060: 9cf0 4138 3421 0e39 0000 0000 a31f 3739
00000070: 0f43 c637 44cc 5138 dc45 5b38 0000 0000
00000080: 7e02 d136 290e 2830 2293 5537 df42 2f2f
00000090: baf5 3439 0000 0000 0000 0000 132e 1e33
000000a0: 163f 9a38 6089 f038 afc4 b237 47a4 eb38
000000b0: 0e37 f338 0000 0000 7721 da38 97ce 6038
000000c0: 8a2f e838 7802 8337 3876 ac38 5179 3338
000000d0: 50bf bf36 b818 d337 0000 0000 2a78 5238
000000e0: 0000 0000 e0b9 d038 ac6c a138 ab14 7e38
000000f0: 350c 3733 0000 0000 0000 0000 d9c2 6b38

exp_avg f4 [64, 64]
0.0 0.00010377779 0.0 0.00014878044 0.00025561056 0.00017287546 0.0 0.00026694627
0.000100354904 6.340103e-05 5.0751028e-06 0.0 1.0748481e-05 0.00038332853 4.8351932e-05 0.0002449414
-3.5149893e-05 0.0002818983 0.0002955759 0.00020647916 0.0 0.00017698405 7.6208256e-05 -6.1581624e-05
-6.088842e-06 0.00015927383 0.0 0.00011671729 7.969921e-05 -6.682876e-05 -9.756727e-05 0.0
-4.353002e-05 -6e-45 -4.8400085e-05 3.6065877e-13 0.00019454176 0.0 0.0 6e-45
0.00024456502 0.00014509581 2.0148358e-05 -2.734473e-05 0.00024243358 0.0 -9.117579e-05 0.00018945629
0.00012459226 3.183926e-05 0.00011429399 -4.6003406e-06 -8.175939e-06 2.887941e-05 0.0 9.158451e-05
0.0 0.00028810147 0.00032880605 -4.7415318e-07 3.209625e-08 0.0 0.0 0.00010187522
0.0 6e-45 0.0 6e-45 6e-45 6e-45 0.0 6e-45
6e-45 6e-45 6e-45 0.0 -6e-45 6e-45 6e-45 6e-45
6e-45 6e-45 6e-45 6e-45 0.0 6e-45 6e-45 6e-45
6e-45 6e-45 0.0 6e-45 6e-45 6e-45 6e-45 0.0
-6e-45 0.0 6e-45 0.0 6e-45 0.0 0.0 6e-45
6e-45 6e-45 6e-45 6e-45 6e-45 0.0 6e-45 6e-45
6e-45 6e-45 6e-45 6e-45 -6e-45 6e-45 0.0 6e-45
0.0 6e-45 6e-45 0.0 0.0 0.0 0.0 6e-45
0.0 -8.7421e-05 0.0 0.0002639198 0.0003149499 0.00018149296 0.0 0.0004014607
0.0002935517 3.864979e-06 0.00021364001 0.0 3.869559e-05 0.00042176555 4.5141696e-05 0.0004092859
2.8890403e-05 0.00014111762 0.00041784305 0.00023677021 0.0 9.296243e-05 0.0002488907 6.0467453e-05
-0.00010341667 0.00016257098 0.0 0.00015527311 4.2880456e-06 -0.00011544652 1.3944736e-05 0.0
-4.326185e-05 -6e-45 -9.0234986e-05 -2.0525444e-15 0.00039830199 0.0 0.0 6e-45
0.0002269735 0.00018924888 -3.4920402e-05 -0.00014828036 0.00024079657 0.0 -0.0001713872 0.00026644577
6.0994877e-05 -2.7014115e-05 0.00020222549 2.5369192e-05 1.0607659e-05 0.00010388655 0.0 0.00011239991
0.0 0.00034142888 0.00035603959 -2.1758591e-05 2.4956736e-07 0.0 0.0 0.00022955782
0.0 4.283103e-05 0.0 0.00013556973 0.00060161366 0.0003239691 0.0 0.00044361735
0.00018581626 0.00014189708 1.47699675e-05 0.0 3.3741366e-05 0.00074724096 0.00029561046 0.0004942904
8.686553e-05 0.00037347837 0.0005588179 0.00016853807 0.0 0.00021571346 0.00018998452 0.00012819357
4.5229397e-05 0.00037957166 0.0 0.0003349541 0.00015856224 4.2853513e-05 -4.8900706e-06 0.0
-6.619889e-06 -6e-45 2.1357606e-05 4.279317e-13 0.0004509947 0.0 0.0 6e-45
0.00052292435 0.00036524778 -1.4115698e-05 5.396456e-05 0.00051616307 0.0 -6.8036396e-05 0.00029698887
0.00018354469 0.0001188669 0.00042192274 0.00018417202 1.7634615e-05 0.00012287329 0.0 0.00014908987
0.0 0.0005821419 0.00073883316 -2.5083591e-05 1.2521593e-07 0.0 0.0 0.00039675785
00000000: 0000 0000 47a3 d938 0000 0000 f201 1c39
00000010: 7803 8639 e745 3539 0000 0000 ecf4 8b39
00000020: a175 d238 2bf6 8438 cd4a aa36 0000 0000
00000030: 6054 3437 7cf9 c839 7ecd 4a38 7a6b 8039
00000040: e96d 13b8 c0cb 9339 87f7 9a39 5482 5839
00000050: 0000 0000 cb94 3939 ffd1 9f38 6225 81b8
00000060: c14e ccb6 be02 2739 0000 0000 1ec6 f438
00000070: 3024 a738 6b26 8cb8 079d ccb8 0000 0000
00000080: 0194 36b8 0400 0080 3201 4bb8 6808 cb2a
00000090: e8fd 4b39 0000 0000 0000 0000 0400 0000
000000a0: f638 8039 dc24 1839 4504 a937 5c62 e5b7
000000b0: c535 7e39 0000 0000 a135 bfb8 c9a8 4639
000000c0: fba4 0239 258b 0538 1eb1 ef38 a05c 9ab6
000000d0: 642b 09b7 1042 f237 0000 0000 0f11 c038
000000e0: 0000 0000 530c 9739 9a63 ac39 1e8f feb4
000000f0: 33da 0933 0000 0000 0000 0000 d8a5 d538
00000100: 0000 0000 0400 0000 0000 0000 0400 0000
00000110: 0400 0000 0400 0000 0000 0000 0400 0000
00000120: 0400 0000 0400 0000 0400 0000 0000 0000
00000130: 0400 0080 0400 0000 0400 0000 0400 0000
00000140: 0400 0000 0400 0000 0400 0000 0400 0000
00000150: 0000 0000 0400 0000 0400 0000 0400 0000
00000160: 0400 0000 0400 0000 0000 0000 0400 0000
00000170: 0400 0000 0400 0000 0400 0000 0000 0000
00000180: 0400 0080 0000 0000 0400 0000 0000 0000
00000190: 0400 0000 0000 0000 0000 0000 0400 0000
000001a0: 0400 0000 0400 0000 0400 0000 0400 0000
000001b0: 0400 0000 0000 0000 0400 0000 0400 0000
000001c0: 0400 0000 0400 0000 0400 0000 0400 0000
000001d0: 0400 0080 0400 0000 0000 0000 0400 0000
000001e0: 0000 0000 0400 0000 0400 0000 0000 0000
000001f0: 0000 0000 0000 0000 0000 0000 0400 0000
00000200: 0000 0000 cb55 b7b8 0000 0000 b75e 8a39
00000210: dc1f a539 254f 3e39 0000 0000 257b d239
00000220: d8e7 9939 ebaf 8136 8e04 6039 0000 0000
00000230: 134d 2238 6a20 dd39 8756 3d38 6c95 d639
00000240: ab59 f237 f9f8 1339 f211 db39 8545 7839
00000250: 0000 0000 d3f4 c238 8b7d 8239 6f9e 7d38
00000260: 67e1 d8b8 d177 2a39 0000 0000 cfd0 2239
00000270: 08e2 8f36 e11b f2b8 2ff4 6937 0000 0000
00000280: 0f74 35b8 0400 0080 8a3c bdb8 c3e6 13a7
00000290: 30d3 d039 0000 0000 0000 0000 0400 0000
000002a0: bcff 6d39 1c71 4639 7f77 12b8 b57b 1bb9
000002b0: 567e 7c39 0000 0000 67b6 33b9 bfb1 8b39
000002c0: c0d4 7f38 5f9c e2b7 7e0c 5439 edcf d437
000002d0: 8cf7 3137 abdd d938 0000 0000 3eb8 eb38
000002e0: 0000 0000 cf01 b339 d3aa ba39 3886 b6b7
000002f0: 47fc 8534 0000 0000 0000 0000 75b5 7039
00000300: 0000 0000 78a5 3338 0000 0000 b927 0e39
00000310: 9cb5 1d3a 66da a939 0000 0000 5095 e839
00000320: acd7 4239 35ca 1439 87cc 7737 0000 0000
00000330: 8485 0d38 7ee2 433a 2afc 9a39 4493 013a
00000340: 942b b638 6bcf c339 a27d 123a 98b9 3039
00000350: 0000 0000 2431 6239 9536 4739 b36b 0639
00000360: b2b4 3d38 3f01 c739 0000 0000 c79c af39
00000370: ba43 2639 9cbd 3338 6315 a4b6 0000 0000
00000380: 6a20 deb6 0400 0080 1c29 b337 75e7 f02a
00000390: 7c73 ec39 0000 0000 0000 0000 0400 0000
000003a0: dc14 093a ba7e bf39 76d2 6cb7 0158 6238
000003b0: 1e4f 073a 0000 0000 c3ae 8eb8 2cb5 9b39
000003c0: e775 4039 2e48 f938 8335 dd39 4d1e 4139
000003d0: 0cee 9337 8cd7 0039 0000 0000 0255 1c39
000003e0: 0000 0000 e29a 183a 41ae 413a 9a6a d2b7
000003f0: 1873 0634 0000 0000 0000 0000 f003 d039
