trails/HighwayEnv/DQNAgent/run_20191108-151847_401/checkpoint-63.tar (torch_old, 78250 bytes, 21 tensors)

base_module.layers.0.weight f4 [64, 25]
00000000: e777 40be 8d52 33be 6e55 1abe 6d50 c7bd
00000010: 6081 ce3b 4c5e 71bd 3aa3 b8bd c1cb 313e
00000020: 50b0 c1bd 42e8 d73d 3598 10be c0e1 fabb
00000030: d01c 983c 754e 433e 22a3 e73d 4161 0a3e
00000040: f0ae b5bd 0866 04be 625f e33d 369b 91bd
00000050: 7af7 13be 2d73 29be 6384 a5bd 6db2 2e3e
00000060: 0bd9 39be 68d9 573e 0233 b7bd 915b 0dbe
00000070: d067 2a3e 55a2 103e 7b25 aabd 8a0c 67bd
00000080: 649f 0abe d87b 1d3e 5b75 f33d e2a5 383e
00000090: 1752 e93c 38b6 463e 4868 8ebe 0ef8 043d
000000a0: 1c0f 183d 0b6c 6dbe 4757 2f3e 5006 7cbd
000000b0: be73 81be 364e 1bbe 30ad bdbe fb0f 6abc
000000c0: 44c4 4f3c 9e92 a9bd 6265 0dbe b120 3f3e
000000d0: 09f1 063e 1887 143d 3ed7 ac3d 635a 20be
000000e0: 0b0c 023e 53b1 3b3e c0f1 423d 2a2b e53d
000000f0: 806d 193c 08b3 17bd 66ae 02be fd06 02be
00000100: f7dd 0e3e dd87 e1bd 3be3 123e ddec a4bd
00000110: 9333 1a3e 0a7d 22be 5082 19be 6fd5 063e
00000120: 5b00 423e ed1f 37be 61d9 363e 4334 ec3d
00000130: 1df9 92bd ae45 46bd 1e30 093e 0ec5 613d
00000140: 2820 2ebe ca14 32bd 2f41 3a3e c447 623e
00000150: f59f 443d 5fc6 5b3d ae8b 863e 5ed6 5a3d
00000160: a504 8cbd e600 b53d 76b5 1abe dec3 653d
00000170: 6e1c 473e 39cf 6e3e eef9 073d 875f d93d
00000180: b854 3abd 745f d5bd 54da 263d 1e14 0fbd
00000190: 2f9a 513e 847d 233e d5bd 793d cacf c63d
000001a0: 42f1 3e3a 4a89 1d3e b1e1 0fbe a6ed 873d
000001b0: 4c50 803d 2776 98bc db52 da3d 4c6f 733b
000001c0: 0a5a 07be 2a1d 263e c774 c83d 59d2 543e
000001d0: 09c3 843a 8e3b a23b 162b 253e 6d50 f53d
000001e0: bfff 36bc cf62 7b3c 6d08 16be b48d 293d
000001f0: e0c0 033e 3c72 c53c d907 1d3e 0bb4 793d
00000200: 454e e9bc 0f83 c3bd 6cae 793d 441e 893e
00000210: 8449 283c e734 183e b2e2 98bd bede c23c
00000220: 9ded e7bd b02d f43d 0784 e4bb 3ab0 0ebe
00000230: b60d 7bbb 4f98 793e a7fe 0d3e 0aae 113e
00000240: a828 983d 7180 d93d 74a3 423e d530 41be
00000250: 64a4 02be 605e 91bb 0ac6 46be 333f e7bd
00000260: 4034 863c 64e1 98bd 251d 12be 8ff0 333e
00000270: bf76 183e 3539 10be 9af3 9c3d e0b8 323d
00000280: a560 12be b049 febd 8002 633c 3376 3c3e
00000290: f080 de3c e03c 45bd 1afc 20be bd63 33be
000002a0: 9b76 053e 685a 53bd 7b8c 2abe e25d cd3d
000002b0: c1ba 193e 50ec 763c df43 3b3e 6da7 533e
000002c0: 8383 123e c9a2 e6bc d51e 383e 8b93 053c
000002d0: dc34 233d c21a b13c 4852 313e 1401 20be
000002e0: 14bb 2d3e d1f7 10be 6358 86bd 05fc 1a3e
000002f0: f6a8 27be 20a0 a93d 832a c43d 394b 873e
00000300: f9ae 91bb 54e6 02bd 9d13 a1bc 1194 2f3e
00000310: 90c7 6b3e cd3a 3fbe 1cba 553e 20b2 bebd
00000320: 8988 233d cb1a d13d 2e25 1a3e a3b0 0ebd
00000330: 6aed 813e 54d6 89bd 061b 0abe 46bf 283e
00000340: 44cf 823d 1084 26be 8995 133d 551d d03d
00000350: f0f2 3e3e 7ee1 783e f746 e93c bd17 86bb
00000360: 37db 5c3e 84c6 05be 79b8 7dbd 1d72 b43d
00000370: 17b3 cd3d 20e7 d9bd 5771 2abd efd7 783d
00000380: fe1f a3bd bed0 31bd 4c0e 3b3e 14c7 5e3e
00000390: cf11 923d 2876 e8bd a127 6bbd 2488 1e3e
000003a0: f53b 06be d674 243e 2523 f73d d607 5d3e
000003b0: fbd6 94bc 63bf 2e3e b402 a33d c606 1d3d
000003c0: 43a7 ec3c fef9 023c 93d7 ea3c 78a9 2b3e
000003d0: cd46 433e 2843 bebd b653 823e f25b 403d
000003e0: 7e65 54bd a2d9 753d 92e2 95bd 5114 433e
000003f0: ac26 cbbd 2737 f73c d771 623e 37a8 bdbd
-0.18795739 -0.1751196 -0.15071651 -0.09732137 0.006302044 -0.05892782 -0.09015508 0.17362882
-0.09457457 0.105423465 -0.14120562 -0.007656306 0.018568426 0.19072898 0.11310412 0.13513662
-0.08871257 -0.12929547 0.11102177 -0.07109682 -0.14449874 -0.16547842 -0.080818914 0.17060252
-0.18149202 0.21079028 -0.08945276 -0.13804461 0.16641164 0.14124425 -0.0830793 -0.056408443
-0.13537365 0.15379274 0.11887618 0.1803203 0.028481526 0.19405448 -0.27813935 0.032463126
0.037123784 -0.23185746 0.17123137 -0.061529458 -0.25283617 -0.15166554 -0.37046194 -0.014286037
0.012681071 -0.08279918 -0.13808206 0.18664815 0.13177885 0.036261648 0.08439492 -0.1565948
0.12699907 0.18329363 0.047593832 0.111898735 0.009364486 -0.037035972 -0.1276184 -0.12697978
0.1395186 -0.11012242 0.14344494 -0.080529906 0.15058737 -0.15868011 -0.14991117 0.13167356
0.18945448 -0.17883272 0.17856361 0.11533406 -0.07176421 -0.048406295 0.13397262 0.055119567
-0.17004454 -0.043476857 0.18188928 0.22097689 0.04800411 0.05365598 0.26278442 0.053427093
-0.068368234 0.08838062 -0.15108284 0.056094997 0.19444439 0.23321237 0.033197336 0.106139235
-0.04549095 -0.10418597 0.040735558 -0.034931295 0.20468973 0.15965849 0.060972054 0.09707601
0.0007283875 0.15384403 -0.14050938 0.06637125 0.062653154 -0.018611027 0.10660335 0.0037145196
-0.13217941 0.16222063 0.097878985 0.20783366 0.0010128926 0.004950947 0.16129717 0.119782306
-0.011169373 0.015343382 -0.14651652 0.041394904 0.12866545 0.024102323 0.15335025 0.060962718
-0.028479705 -0.09546482 0.060957357 0.26780903 0.010271434 0.1486393 -0.07465114 0.023787852
-0.11324618 0.11922777 -0.0069737467 -0.13934413 -0.0038307733 0.24374507 0.13866673 0.14226547
0.074296296 0.106202014 0.19007665 -0.18866284 -0.12758023 -0.004436299 -0.19411483 -0.11291351
0.016382337 -0.07464865 -0.1426893 0.17572235 0.14889048 -0.14084323 0.07663651 0.04363334
-0.1429468 -0.124163985 0.0138555765 0.18404464 0.027161092 -0.048153758 -0.15721169 -0.17518516
0.13033526 -0.05159989 -0.16655152 0.10027672 0.15012647 0.01507099 0.1828761 0.20669337
0.1430798 -0.028153794 0.17980511 0.008152853 0.039845333 0.021619204 0.17316544 -0.15625411
0.16965896 -0.14157034 -0.06559827 0.151352 -0.16373047 0.082824945 0.09578421 0.26424578
-0.004445907 -0.03195794 -0.019662673 0.17146327 0.23025346 -0.18674774 0.20871776 -0.093113184
0.039925132 0.102101885 0.15053245 -0.034836423 0.25376445 -0.06730333 -0.13486871 0.16479215
0.06387189 -0.16261315 0.03603128 0.10161845 0.18647361 0.24304768 0.028476221 -0.0040921853
0.21567999 -0.13064009 -0.061943505 0.08810828 0.10043924 -0.10639787 -0.041611996 0.060752805
-0.079650864 -0.043411963 0.18267173 0.2175563 0.07132303 -0.113506615 -0.05741084 0.15481621
-0.1310881 0.16060194 0.1206725 0.2158502 -0.018168917 0.17065196 0.079595 0.038336538
0.02888835 0.007994173 0.028667247 0.16763866 0.19069977 -0.09290153 0.2545449 0.046962686
-0.051854603 0.060022004 -0.073186055 0.19050719 -0.099194854 0.030177666 0.22113739 -0.092606

base_module.layers.0.bias f4 [64]
00000000: f8c2 4fbd 27af c8bd 0f6b 40be 61f9 233e
00000010: 2deb 6d3d 2991 773e bb80 413e 365d c53c
00000020: 9ab8 c7bd eddd 133e 5d8c 8e3d 83d4 3fbe
00000030: e6d4 14be dded 143e 80e1 603e d557 1e3e
00000040: 4450 453e 2707 57bd ec44 923d 4b72 873d
00000050: 20e8 76bc c193 d5bd 2a79 1a3e 1394 91bd
00000060: 2942 303e b21a 6e3e 8fa5 3dbe 3c88 393e
00000070: c718 c5bd 9140 0d3e 4450 16be a73b a6bd
00000080: e924 f23d 2605 54bd 136b 68bd b949 34bd
00000090: 5332 f93d e036 21bd 30b7 f4bd f8d2 4ebe
000000a0: 1058 903d 2da0 473e 59d8 3dbd 6dae 393e
000000b0: e6a6 7c3e a0cb 3dbd bc2c a8bd b7bc 583e
000000c0: 95d3 11bd a54e 4ebc 110a 533d 2e85 f93d
000000d0: 700d 443d ed85 483e 008e 29be 053d 5ebd
000000e0: b7db 2cbe f2f1 913d f6f5 c13d 55c9 3f3e
000000f0: a9b1 313e 22fb 29be 7f79 193e 017c dc3d
-0.050723046 -0.09799033 -0.1879084 0.16013099 0.05808561 0.24176468 0.18896763 0.024092298
-0.09752007 0.14440127 0.06960366 -0.1873341 -0.1453434 0.14543863 0.21961021 0.15463193
0.192689 -0.052497055 0.07142052 0.066135965 -0.015069991 -0.104285724 0.15085283 -0.07108321
0.17212738 0.23252371 -0.18520187 0.18118376 -0.096238665 0.13794161 -0.14679056 -0.081168465
0.11823446 -0.051762722 -0.05674274 -0.04401562 0.12167802 -0.039358974 -0.11949003 -0.20197666
0.070480466 0.19494696 -0.046348903 0.18132944 0.24673042 -0.04633677 -0.082116574 0.21165739
-0.03560217 -0.0125919925 0.051523272 0.12183605 0.047864377 0.19582339 -0.16558075 -0.05425741
-0.1688069 0.071262255 0.094707415 0.18729146 0.17352928 -0.16599706 0.14987753 0.10765839

base_module.layers.1.weight f4 [64, 64]
00000000: 00a9 703d 6a68 bebd a648 d13d 27e6 123e
00000010: 9753 943d cb58 933d 2ad9 b7bd 0222 80bd
00000020: 8b56 9f3d b000 d83c 5ae1 053e 726d f0bd
00000030: 1d6e b93d 9f55 f33d bc0d ecbc e31c 713c
00000040: 110e f03d e7f6 cbbd 8c10 dc3d f0fa 633d
00000050: e8b4 9c3c c7d7 95bc b617 adbd 7dea 8d3c
00000060: 69c6 f3bd 1185 10bd fc02 69bd 3189 73bd
00000070: cf61 113e 254e 273d a100 28bc 34ce 51bd
00000080: ddf6 393e 2887 823d b302 a83b ff4a c4bd
00000090: 94c5 3c3d 06ef ab3d 86d2 ca3d 962a 13be
000000a0: 51a8 3f3c d4be cabd 6a46 33bd 3ca8 723b
000000b0: 4bf4 1b3e f09c 09bc ac7c 03bd cff5 093c
000000c0: e4e4 8abb 0f0a 303e 3339 023e 5b27 783d
000000d0: 059f f13d b0c4 3a3d f4fb 3fbd 34bb 9a3d
000000e0: a49d fb3d ced4 a1bd 1686 c33d 1946 b93d
000000f0: 6c56 0cbd 1c4b 8ebd 9a1d c13d 037f 503d
00000100: 6458 f33d 455a 583d 98b9 c83d b6de e73d
00000110: 506b 253d 6057 54bd d83f edbd 020f 693c
00000120: fe94 debd e9cd 8ebd a55d bcbd 6a33 a6bd
00000130: ca45 7fbd 9818 1f3d 5d7a fabd 1898 9cbd
00000140: dc24 4e3d 91da f7bc 0890 a53c e3b5 b93c
00000150: c819 783d afb4 313d 6cb5 f63c ef59 ac3b
00000160: efe5 c5bc 0f19 cebd 7004 543d 8e60 8abd
00000170: d838 48bd 7ba0 03bc a5ba e5bd 7048 69bc
00000180: 1bb4 90bd d007 3abc 91fb 053c a8a2 e3bd
00000190: 59f3 763d 28df 88bc fcc5 6b3d bcba 9c3d
000001a0: f9eb 6f3d f91b a1bd aaaa cc3d 1b16 b33d
000001b0: 1897 3abd e8de 243d e84d d93d 0a22 8ebd
000001c0: 6fb8 a53d c773 fdbd 8d6f b43c b834 8c3c
000001d0: b171 bdbc 657d d8bd f604 a03d 1596 d63d
000001e0: dc38 56bd 3f5f adbd 36e1 5abd 00c8 803a
000001f0: 9abb ff3d 600a d4bd fc51 023d 3b6f cc3d
00000200: c277 f33d 3b46 20bc 16f6 d73d ce5b 2d3e
00000210: fce4 103e b5c0 123e b8a7 aebd 5df9 213e
00000220: b405 423b bd1c 84bc 41b4 2c3d 02f5 a8bd
00000230: d4be 023e ef29 233e b949 6fbd 82e5 82bd
00000240: 9650 313e e3d6 093d 92e7 873d 5a14 a93c
00000250: f47e 9cbd f2d6 d9bc e740 c4bc a2b1 473e
00000260: 5261 6d3c c63d 3fbd 30dc bf3d 6036 143e
00000270: 359a 44be b4e0 6f3d bb1d 9f3c aabf ec3d
00000280: 6b65 973c 30ed a9ba 7049 573d fb80 acbb
00000290: d657 75bb 3e1b febd 846b 92bd 64c8 4bbc
000002a0: 16e6 1f3d d074 e23d a1bb 453d 9a84 e83d
000002b0: ec9c cc3d c097 e63d 0340 69bd b5b3 cf3b
000002c0: 3baf e13d 64a2 b63c 2079 73bd 5551 9bbd
000002d0: 72b1 a3bd 8dcc 913d 2442 6ebd bdf7 5d3d
000002e0: e013 403c 47b4 b03c 5120 1a3d e362 ba3d
000002f0: 8ec8 b0bd 1eb5 cc3d 2847 afbd ef1e e63d
00000300: 6c7a 653d 85e8 b4bd 4042 72bc c777 4c3e
00000310: 0d62 66bd 0dba a23d 8c68 be3d e35c 07bc
00000320: c2cb 183d ebd7 2d3e c202 153e 00f8 abbd
00000330: cf0a 003e fe41 40bd 95d5 5e3d a7a1 023c
00000340: 0548 243c da9b 76bd ca18 043e 633d 0c3d
00000350: 74cc a73d d0ad dc3d e248 1abd 8857 a1bc
00000360: 3894 363e 61f2 ec3d 52cd a4bd 0917 063e
00000370: 55cd dbbc ba99 e63d f49e dc3c f020 f2bd
00000380: 9e89 a83d 1aa5 8a3d e168 64bd d9bf 88bd
00000390: 86e4 133d 9c52 3a3d 982e f13c 982e 123e
000003a0: fb0e 0ebd 0504 223e 93d1 ae3d 313c 6a3d
000003b0: 8d06 29bd 3461 6d3d 1075 163e 6b87 0cbd
000003c0: 7540 273e 8a03 f2bd 50b7 ef3d ec4b 1c3e
000003d0: 441b 6ebd fb56 ff3d dcab 6f3d 7961 423d
000003e0: 38af 7ebd 4dfe 053e b037 f33d cb57 173e
000003f0: e1da 6fbd 02d6 dabd b07e c8bd 818d 393d
0.05875492 -0.09297259 0.10218935 0.14345609 0.07242506 0.0719467 -0.08976968 -0.062564865
0.07780179 0.026367515 0.13074246 -0.11739625 0.090542056 0.11881565 -0.028815143 0.01471636
0.11721433 -0.09959202 0.107453436 0.055659235 0.019129232 -0.018291367 -0.08451788 0.017323727
-0.11903078 -0.035283152 -0.05688761 -0.059457008 0.14197467 0.04084601 -0.010254056 -0.05122204
0.18160577 0.06373435 0.005127275 -0.09584617 0.046086863 0.083951995 0.099034354 -0.14371714
0.011697845 -0.09899679 -0.043768324 0.0037026545 0.15229909 -0.008399233 -0.03210132 0.008420422
-0.0042387117 0.17191337 0.12717132 0.060584407 0.11797909 0.045597732 -0.04687114 0.075552374
0.12285927 -0.079019174 0.09547059 0.09046573 -0.034262106 -0.0694792 0.09429474 0.050902378
0.118820935 0.052820463 0.09801024 0.113217756 0.040385544 -0.05184114 -0.11584443 0.01422477
-0.10868262 -0.06972868 -0.09197549 -0.08115275 -0.062322415 0.038841814 -0.1223037 -0.07646197
0.05032812 -0.030255588 0.020210281 0.022669738 0.060571462 0.043385204 0.030115806 0.0052597444
-0.024157492 -0.10063373 0.051762044 -0.067566976 -0.048882335 -0.008033867 -0.1121724 -0.014238462
-0.070656024 -0.011354402 0.008177654 -0.111150086 0.06029067 -0.016707972 0.05756186 0.07652804
0.05857465 -0.078666635 0.09993489 0.08744451 -0.04555425 0.040251642 0.106105626 -0.06940086
0.080918185 -0.123755984 0.022025848 0.017114982 -0.023125501 -0.10570792 0.07813446 0.104778446
-0.05230032 -0.084654324 -0.053437434 0.000982523 0.12486954 -0.103535414 0.031816468 0.09982153
0.11888076 -0.009782369 0.10544984 0.16929552 0.1414985 0.14331324 -0.085280836 0.15817781
0.002960545 -0.016126985 0.04216409 -0.082498565 0.12768108 0.15933965 -0.058419917 -0.063914314
0.17315897 0.033652198 0.066359654 0.020639587 -0.07641402 -0.026591752 -0.02395673 0.19501355
0.014488535 -0.04668977 0.09368169 0.14473867 -0.1919945 0.058563903 0.019423356 0.115599945
0.018480977 -0.0012964364 0.05256027 -0.005264399 -0.0037436388 -0.1240754 -0.07149413 -0.012437914
0.039037786 0.110574365 0.04827464 0.11353417 0.09990868 0.11259413 -0.056945812 0.0063385614
0.11019751 0.02229423 -0.059441686 -0.07583872 -0.079928294 0.07119093 -0.058168545 0.05419134
0.011723489 0.021570338 0.037628476 0.091008924 -0.08632003 0.09995483 -0.08558494 0.11236369
0.056024954 -0.08833412 -0.014786303 0.19967566 -0.056245852 0.079456426 0.092972845 -0.008261892
0.037303694 0.16976897 0.14551833 -0.083969116 0.12504123 -0.046937935 0.054402906 0.007973111
0.010026936 -0.060207225 0.12900081 0.03423823 0.08193293 0.107753396 -0.037667163 -0.019695058
0.17829978 0.115696676 -0.08046974 0.13094725 -0.026831308 0.1125979 0.026931264 -0.118226886
0.082293734 0.06769772 -0.055764083 -0.06677217 0.03610661 0.04548894 0.029441163 0.14275587
-0.034682255 0.15821846 0.08536067 0.05718631 -0.041266013 0.05795403 0.14693093 -0.034308832
0.16333182 -0.11817081 0.11704886 0.15263337 -0.05813147 0.12467762 0.058513507 0.04745624
-0.06217882 0.1308529 0.11875856 0.14779584 -0.05855835 -0.1068535 -0.09789789 0.045300964

base_module.layers.1.bias f4 [64]
00000000: 5856 103e 4fbc a93d b0aa 123e 8abd 5d3d
00000010: d994 a13d 0df0 abbd c43c c5bd a8e3 d43d
00000020: a463 dbbd 76fa 833c 17a0 c83d 01b8 cf3d
00000030: b83a 1f3d bcc0 34bd 298f 68bd 86d7 08bc
00000040: b543 88bc 6b70 603d f8eb 823d f743 f13d
00000050: 3dc2 003e 4095 9fbd f8d0 d13d 72a1 c93d
00000060: 8c81 43bd 6242 973c e365 393d f847 833d
00000070: 6201 b83d dca8 35bc d81c 2dbd 5e19 5f3d
00000080: d6a5 113e bb5e 98bd 6347 62bc f882 76bd
00000090: 32d6 ca3d ae2a f43d 4e4e 473d d078 cd3c
000000a0: 80fc fa3c dc35 5e3d fe46 8fbd 7189 d33d
000000b0: b53c 203d 8c70 dabd df4b bb3d 861b 713c
000000c0: bd8e a83c e5e9 803d 48e6 d93d e8ef ffbd
000000d0: 1b4a a93d 6e2c a23d 1b50 a83d b226 143e
000000e0: f29e 8f3d 0338 3abd 3b65 bdbd a6fa cfbd
000000f0: 2038 bb3d 0179 37bd 6dfb b93d b03f d2bc
0.14095438 0.0828787 0.14322925 0.054135837 0.078897186 -0.083953954 -0.09630731 0.103949845
-0.10712364 0.01611064 0.0979616 0.10142518 0.038874358 -0.04412912 -0.056777153 -0.008352166
-0.016633848 0.05479471 0.06392664 0.117805414 0.12574096 -0.07792139 0.10244936 0.098452464
-0.047730967 0.018464271 0.045263182 0.06410211 0.08984639 -0.0110876225 -0.042263836 0.05446755
0.14223418 -0.074399434 -0.013810965 -0.060183495 0.09904136 0.11922203 0.04865866 0.025082022
0.03063798 0.054250583 -0.069959626 0.10328949 0.039120395 -0.10665998 0.09145331 0.014716035
0.020575875 0.06294612 0.10639626 -0.1249693 0.082660876 0.079186305 0.08218404 0.14467886
0.07012738 -0.045463573 -0.09247824 -0.10155229 0.09141564 -0.044793133 0.09081159 -0.025665134

advantage.weight f4 [5, 64]
00000000: 4dee d23d 4f69 c7bd 6fc0 cabc 154d 913d
00000010: 6f4d 023e 5599 f2bd 002d af3d 8221 743d
00000020: 774c b2bd 14c0 dbbd 5ed6 e3bd 13d2 c03d
00000030: d413 84bd e484 453d 3af5 6c3c 2030 c23d
00000040: f935 99bd a466 27bd 3498 81bd a71a cbba
00000050: 029f 4ebd b8d3 92bd cc80 85bd 4b58 de3c
00000060: 882d 80bc 76a3 113d bdbe 2e3e 5b09 443d
00000070: 8651 9cbd a887 443c dde4 f43d bf13 f93d
00000080: 8201 b73d f1b8 9abd c952 82bd bfe5 f3bd
00000090: 159e 09be 80e5 69bd 679d d7bc f453 903d
000000a0: cf30 12bc 6687 bb3d 78be bebd d553 c0bc
000000b0: 3f6e 9e3c 395b d43d d95a 54bd 7fb3 f5bc
000000c0: 3e7e a03d f35b bc3c 3c72 d93d 5889 ae3d
000000d0: 002a 7e3d 6fd6 283d c8b0 ddbc b43f 93bd
000000e0: 48b3 86bc bbd2 5e3d 0530 11be 8715 bd3d
000000f0: f87e 8d3c c976 913d da36 053e 8e6f 81bd
00000100: 0a7d 19bd 86aa e53d 643e 00be ff89 133d
00000110: 9674 4d3b 8355 953d a969 98bc 10dd 6f3d
00000120: 823a 89bd 69d8 af3d 99c4 fabc dc99 73bd
00000130: 1747 bf3d 4831 193d f1fe cf3d 8b72 eabc
00000140: 7a77 f7bd b750 8bbd c89a d13c 322c b73c
00000150: 7c55 42bc 5008 e53c 96b4 a73d a44f 933c
00000160: 76a5 abbd 89ed d43c 5884 eabc 2a00 ac3d
00000170: a0a7 c5bb 37ed 43bd 11e9 e93c f7af 943d
00000180: 3e33 3fbd 6a34 11bd b516 6d3d bb26 8a3d
00000190: a296 1e3d b0d6 23bc 687d 94bd 00a2 d43b
000001a0: f147 e63c dfec 0f3d 38a5 313d fec7 d93d
000001b0: 1c8e 94bd fce9 12bd 5549 04be 61c6 1bbc
000001c0: 1b7d d13c ee17 a33c 909c b6bd 0cae 9cbd
000001d0: 354e 253d ba68 58bd 7455 2ebd d0d2 053d
000001e0: 9c26 a73d 91c1 8dbb ad30 123e cb01 d73d
000001f0: fca5 053d 3ec1 013d 2cfd a33c deed a6bd
00000200: 5f35 d73c eeca b6bd 6e77 b43d bd39 ca3d
00000210: 8bd6 293c 2c61 a63d 219d b6bd 29b4 e7bd
00000220: 4528 103c 2cd6 e63d 38d3 22bc 6f9f 67bc
00000230: 2774 9fbc 1017 973d 8f85 0d3e dff9 a2bd
00000240: 3938 133d f7af 14bc b677 cfbb 722e c7bd
00000250: 3987 73bd ece1 18bd c889 87bc da3c 033d
00000260: 0c5b 84bd feb6 d83d 23ac 98bc 9cbd fabd
00000270: c8e8 52bd 2891 053c 026c b2bd eebf 77bd
00000280: a2e6 76bd 2676 6c3d 0fcc 91bd 3e93 ca3d
00000290: 0537 523d b024 ba3c 5d02 0bbc e4eb 943d
000002a0: ae87 bf3d c69e 05be fcfe debd a2bb a13c
000002b0: e62d c23d f1b8 94bd e747 05be f6dd 87bd
000002c0: d733 a8bd 4e9d ca3d 886e babd 5053 a03c
000002d0: ef0d 2cbd 202c bb3d 41f6 2fbd 5075 8ebd
000002e0: 0006 433d 72ce ad3b 3de5 26bd 6dd4 e83d
000002f0: 1eb6 d1bd e9d3 83bd 9844 f6bd 3c52 e6bd
00000300: ca23 a63c 7764 bf3d 26e3 833d d22f 7e3d
00000310: 9a4a 96bd 5e4a d8bd dd77 49be 6502 df3d
00000320: 3e3c 3cbd 4257 5ebd a695 87bc d915 943d
00000330: 2151 d8bd 80fb 063d 5f99 39bd b1d3 543d
00000340: d7fe 963d 9782 babd 8f2b 093d 797c 843d
00000350: faf9 cabd 1a86 f5bd 2482 8d3d fa55 05bb
00000360: 6046 b93d 7a0e ca3d c0dd 14be a99c 123e
00000370: 20a5 e13c 7332 983c 9083 df3d eb66 b23d
00000380: e0cf 2cbd f3ba ca3d 7d45 593d 9828 9abc
00000390: b86f c43c 8eef ca3d e79a 47bd c091 8a3d
000003a0: 2680 c3bc a69c ee3d a4df f5bd 357d 233d
000003b0: a2e7 cdbd 7fc2 6dbd a3b4 8d3d f8ba 813d
000003c0: fa85 a2bc 436c 0abd ba79 d43d 1cf8 683d
000003d0: 05cf a0bd 75ef 653d fe97 583d ad24 fe3d
000003e0: dcb1 dfbd 6d22 09be f2c6 8fbd 2f0b 9f3d
000003f0: fc69 3e3d d25f fbbd ad78 a13c e09c 9fbd
0.102993585 -0.09736883 -0.024749963 0.0709478 0.12724851 -0.11845652 0.08553505 0.059602268
-0.08705991 -0.10729995 -0.11124872 0.094150685 -0.064490944 0.048222438 0.014462763 0.09481835
-0.074809976 -0.04086937 -0.063278586 -0.0015495614 -0.05044461 -0.071692884 -0.06518707 0.02714171
-0.015646711 0.03555628 0.17064948 0.047860485 -0.07632737 0.011995234 0.11957715 0.121619694
0.089358345 -0.07554806 -0.06363446 -0.11909055 -0.1343921 -0.057103634 -0.026320172 0.07047263
-0.00892277 0.091566846 -0.09313673 -0.023477474 0.019339679 0.10368962 -0.05184445 -0.029992817
0.07836579 0.022993064 0.106174916 0.0852229 0.062051773 0.041220125 -0.027061835 -0.07189885
-0.01644291 0.054400187 -0.14178474 0.09232622 0.017272457 0.071027346 0.13009205 -0.063201055
-0.037472762 0.112141654 -0.125238 0.036020275 0.0031350008 0.07291701 -0.01860507 0.05856043
-0.067006126 0.08586199 -0.030611323 -0.059472904 0.09339731 0.037400514 0.10156048 -0.028619071
-0.12083335 -0.068025045 0.0255865 0.022359941 -0.011861201 0.027958065 0.08188741 0.017982312
-0.083811685 0.025992172 -0.02862756 0.08398469 -0.0060319453 -0.047833648 0.028553518 0.07260125
-0.046679728 -0.035450377 0.057882983 0.067456685 0.038717873 -0.009999916 -0.07250482 0.0064890385
0.028110476 0.035138007 0.043370456 0.106338486 -0.07253668 -0.035867676 -0.12918599 -0.009507746
0.02557235 0.019908872 -0.08916581 -0.07650384 0.040357787 -0.05283425 -0.042561963 0.03267175
0.08161661 -0.0043260534 0.14276381 0.10498389 0.032629 0.03167843 0.020018183 -0.08150838
0.026270567 -0.089254245 0.08811842 0.09874294 0.010366092 0.08124003 -0.08916689 -0.1131366
0.0087986635 0.11271319 -0.009938054 -0.014137133 -0.019464565 0.07377446 0.1382048 -0.079578154
0.03594229 -0.009075156 -0.0063314093 -0.097256556 -0.05945513 -0.03732483 -0.016545191 0.032040454
-0.06462678 0.10581778 -0.018636769 -0.12243196 -0.05149153 0.008152284 -0.08712007 -0.060485773
-0.060278542 0.057729863 -0.07118999 0.098913655 0.051322002 0.022722572 -0.00848445 0.07271555
0.09352051 -0.13048849 -0.10888478 0.01974279 0.09481411 -0.07261837 -0.1301571 -0.066341326
-0.08213013 0.09893285 -0.091031134 0.019570976 -0.042005476 0.091392756 -0.042959455 -0.06955969
0.047613144 0.005304151 -0.040745962 0.11368642 -0.10239814 -0.06436903 -0.12024802 -0.11246154
0.020280737 0.09345334 0.064398095 0.062057324 -0.07338448 -0.105610594 -0.1967463 0.108891286
-0.04595589 -0.054282434 -0.01655085 0.072307296 -0.10562349 0.032954693 -0.04531228 0.051959697
0.073728256 -0.09106939 0.033488806 0.06469054 -0.099109605 -0.119884685 0.06909588 -0.0020345435
0.09046626 0.098660424 -0.14537716 0.14317574 0.027544558 0.018578744 0.109137654 0.08711036
-0.042190433 0.09898939 0.053044785 -0.018818185 0.023979053 0.09908973 -0.04873171 0.06766081
-0.023864817 0.11650972 -0.12005547 0.03991433 -0.10053946 -0.058046814 0.06919219 0.063344896
-0.019839276 -0.033794653 0.1037478 0.05687724 -0.07851986 0.056136567 0.052879326 0.12409339
-0.10922596 -0.13392039 -0.07020368 0.07765805 0.046487793 -0.12274136 0.019710863 -0.077935934

advantage.bias f4 [5]
00000000: c1e2 f93c 32b3 c6bc fee9 17bd caa6 a9bd
00000010: 0dcd 5cbd
0.030503633 -0.024255369 -0.037088387 -0.082837656 -0.05390649

value.weight f4 [1, 64]
00000000: b38c 073d 649a a8bc 0a79 c43d a1d9 d03d
00000010: 0585 34bd af21 5bbd ffe0 09be cf34 873d
00000020: 5274 bd3d b404 e5bd 7c7c e9bd 1288 d9bb
00000030: cc70 e13d 00b0 c53a a492 d03d fa3d c1bd
00000040: 68e0 1e3e 3b58 17bd b316 d1bd 30b9 1a3e
00000050: f0aa de3d 8405 7bbd d078 5bbd 8d54 253e
00000060: ce3b cfbd 9434 273e 832f d4bc 09e7 37bd
00000070: 00e3 02bb cffb d23d 22a6 163e 629e 1e3e
00000080: abc9 dc3d 28c8 253d 5f46 233e 714a 2f3e
00000090: a147 ab3d 6850 b0bd a804 d73d e02c 70bd
000000a0: 8f64 7e3d 3848 27bd 9659 f4bd 9cac 90b9
000000b0: 7fcf 363e 619d 203c 277a 84bd 201f ea3d
000000c0: 3f9f c6bd acea 043e a851 bc3d da9a ca3d
000000d0: e6b4 153e 3da8 2c3c 7fed c63d cd9d 1a3e
000000e0: c07b 05bc 0ee8 1dbe 0603 cf3c 413d f2bc
000000f0: 30d0 d73d a0c3 9c3d 6310 4abd 4013 293b
0.033093166 -0.020581432 0.09593399 0.101977594 -0.04407217 -0.05349892 -0.13464735 0.06601869
0.09250702 -0.11182538 -0.11400697 -0.0066385353 0.110078424 0.0015082359 0.101842195 -0.09435649
0.15515292 -0.036949378 -0.10209408 0.15109706 0.108724475 -0.061284557 -0.053582013 0.16145535
-0.10118829 0.1632865 -0.025901562 -0.044898067 -0.0019971728 0.10301935 0.14711812 0.15490106
0.107806526 0.040474087 0.15944813 0.17118241 0.083632715 -0.08609086 0.10498935 -0.058636546
0.06210762 -0.040840358 -0.1193115 -0.00027594424 0.17852591 0.009803147 -0.06468611 0.11431718
-0.096983425 0.12980145 0.09195262 0.09892817 0.14619789 0.010538158 0.097132675 0.15099259
-0.00814718 -0.15420553 0.025269996 -0.029570224 0.105377555 0.076545 -0.049332034 0.0025798827

exp_avg f4 [64, 25]
00000000: 0000 0000 0000 0000 0000 0000 0000 0000
00000010: 0000 0000 0000 0000 0000 0000 0000 0000
00000020: 0000 0000 0000 0000 0000 0000 0000 0000
00000030: 0000 0000 0000 0000 0000 0000 0000 0000
00000040: 0000 0000 0000 0000 0000 0000 0000 0000
00000050: 0000 0000 0000 0000 0000 0000 0000 0000
00000060: 0000 0000 eb35 08ba eb35 08ba a532 48b9
00000070: ca6e 9eb9 78da 0635 eb35 08ba fcb4 37b8
00000080: 4464 123a a288 cb38 d4ab 80b6 eb35 08ba
00000090: a603 ba39 b782 cf38 1124 e138 c5bc c533
000000a0: eb35 08ba 8d08 0739 99d9 b2b9 9700 0739
000000b0: 0762 a236 eb35 08ba dbed 9138 26ee 9eb7
000000c0: f325 a638 327c 72b6 0000 0000 0000 0000
000000d0: 0000 0000 0000 0000 0000 0000 0000 0000
000000e0: 0000 0000 0000 0000 0000 0000 0000 0000
000000f0: 0000 0000 0000 0000 0000 0000 0000 0000
00000100: 0000 0000 0000 0000 0000 0000 0000 0000
00000110: 0000 0000 0000 0000 0000 0000 0000 0000
00000120: 0000 0000 0000 0000 0000 0000 abda 0abb
00000130: abda 0abb 760b e5b9 e929 63ba f332 1237
00000140: abda 0abb f2ed 7039 51f4 eab9 404d 8438
00000150: c7d2 b4b6 abda 0abb dd4f dbb9 f4a4 adb9
00000160: a8be fd38 2c10 0db6 abda 0abb 0514 3db9
00000170: 1390 4bba 399e 8e38 6db4 ff35 abda 0abb
00000180: 3c4c 8639 c6a7 02ba 9c47 4a39 c5dd 51b7
00000190: 9aec 11bb 9aec 11bb 8f8b 5eba b34d 80ba
000001a0: c9b3 2bb7 9aec 11bb f459 ae39 31f6 b138
000001b0: e71e ce38 7406 98b7 9aec 11bb 4bc8 aab9
000001c0: a1a8 8f39 aacc 3539 a10c 0b38 9aec 11bb
000001d0: a8de a838 e609 ccb9 04fe 1239 2603 bc37
000001e0: 9aec 11bb 3bc7 cf39 5a08 3a39 a7b6 8539
000001f0: 347c adb5 eb08 36bb eb08 36bb 3ed9 a1ba
00000200: f3a1 96ba 2ca5 66b7 eb08 36bb 8b3c 123a
00000210: 1b6e 86b9 9f40 8138 40c5 8ab7 eb08 36bb
00000220: ba16 30ba cd22 0b3a 8064 1939 c688 4f38
00000230: eb08 36bb 6a03 7039 b177 28b9 6730 ac38
00000240: 5002 ad37 eb08 36bb 95da 423a 376f 2f3a
00000250: 71c5 9739 5731 c536 0000 0000 0000 0000
00000260: 0000 0000 0000 0000 0000 0000 0000 0000
00000270: 0000 0000 0000 0000 0000 0000 0000 0000
00000280: 0000 0000 0000 0000 0000 0000 0000 0000
00000290: 0000 0000 0000 0000 0000 0000 0000 0000
000002a0: 0000 0000 0000 0000 0000 0000 0000 0000
000002b0: 0000 0000 0000 0000 0000 0000 b89a 3cbb
000002c0: b89a 3cbb 8917 a0ba 73f0 9eba 548b 6fb7
000002d0: b89a 3cbb b906 033a 93c0 03b9 1050 a838
000002e0: 3350 8cb7 b89a 3cbb 70c7 21ba 87bc 003a
000002f0: 9235 3a39 d520 4a38 b89a 3cbb 0aaa 3c39
00000300: 4e9f 96b9 6121 f638 3195 c837 b89a 3cbb
00000310: 9080 283a 44fc 073a 91fc 9f39 cbd8 be36
00000320: 4e30 8bba 4e30 8bba a3a0 05ba 2641 e7b9
00000330: 9b7c 93b5 4e30 8bba 62a8 3039 bd7b 75b8
00000340: a253 f037 9b4e 97b6 4e30 8bba a66f 0139
00000350: cf3e a2b7 3d8b 7c38 1fff 9837 4e30 8bba
00000360: 184c 9e38 398f e9b8 b8c9 2238 8953 6536
00000370: 4e30 8bba 9b44 ce39 322d 003a 7b01 cb38
00000380: 5c23 9eb6 773e 21bb 773e 21bb e5b5 8dba
00000390: 6b39 86ba 0e49 58b7 773e 21bb 3d95 013a
000003a0: 8d65 f6b8 505d 6738 ee5a 68b7 773e 21bb
000003b0: d44c 0eba 92cc ee39 5795 1639 88ca 3a38
000003c0: 773e 21bb 724c 7039 8cdc 63b9 ffff a338
000003d0: 56b6 a837 773e 21bb 0518 223a a305 ee39
000003e0: d63d 8939 5db8 d036 f3b1 593a f3b1 593a
000003f0: 7f9b 4c3a db60 e539 21f7 aab5 f3b1 593a
0.0 0.0 0.0 0.0 0.0 0.0 0.0 0.0
0.0 0.0 0.0 0.0 0.0 0.0 0.0 0.0
0.0 0.0 0.0 0.0 0.0 0.0 0.0 0.0
0.0 -0.00051960227 -0.00051960227 -0.00019092353 -0.00030218653 5.0236804e-07 -0.00051960227 -4.3799155e-05
0.0005584399 9.705244e-05 -3.8347007e-06 -0.00051960227 0.00035479403 9.894877e-05 0.00010735554 9.207864e-08
-0.00051960227 0.00012877789 -0.0003411293 0.00012874823 4.839388e-06 -0.00051960227 6.958443e-05 -1.8945964e-05
7.9225654e-05 -3.6133101e-06 0.0 0.0 0.0 0.0 0.0 0.0
0.0 0.0 0.0 0.0 0.0 0.0 0.0 0.0
0.0 0.0 0.0 0.0 0.0 0.0 0.0 0.0
0.0 0.0 0.0 -0.0021187465 -0.0021187465 -0.00043686823 -0.0008665608 8.714141e-06
-0.0021187465 0.00022976825 -0.00044813988 6.3086394e-05 -5.3889557e-06 -0.0021187465 -0.00041830438 -0.0003312003
0.000120994926 -2.102005e-06 -0.0021187465 -0.00018031902 -0.0007765304 6.800559e-05 1.9051491e-06 -0.0021187465
0.0002561527 -0.00049841066 0.00019290898 -1.25090055e-05 -0.002226627 -0.002226627 -0.0008489424 -0.0009788781
-1.0234254e-05 -0.002226627 0.00033254887 8.4858744e-05 9.8286015e-05 -1.8122817e-05 -0.002226627 -0.00032574157
0.00027400724 0.00017337748 3.3151944e-05 -0.002226627 8.052337e-05 -0.00038917287 0.00014018273 2.2412813e-05
-0.002226627 0.00039630555 0.00017741453 0.00025503823 -1.2925652e-06 -0.0027776312 -0.0027776312 -0.0012348068
-0.0011492356 -1.3747525e-05 -0.0027776312 0.00055784796 -0.00025640507 6.163236e-05 -1.6542734e-05 -0.0027776312
-0.0006717254 0.0005307615 0.00014628656 4.9480026e-05 -0.0027776312 0.00022889455 -0.00016066317 8.210615e-05
2.0624284e-05 -0.0027776312 0.0007433084 0.00066922925 0.0002894807 5.8768014e-06 0.0 0.0
0.0 0.0 0.0 0.0 0.0 0.0 0.0 0.0
0.0 0.0 0.0 0.0 0.0 0.0 0.0 0.0
0.0 0.0 0.0 0.0 0.0 0.0 0.0 -0.0028778743
-0.0028778743 -0.0012214045 -0.0012126103 -1.427795e-05 -0.0028778743 0.0004998255 -0.00012564873 8.025777e-05
-1.6726646e-05 -0.0028778743 -0.0006171381 0.0004910905 0.00017758299 4.819113e-05 -0.0028778743 0.00017992422
-0.0002872892 0.000117364114 2.391133e-05 -0.0028778743 0.0006427849 0.0005187432 0.0003051502 5.6876793e-06
-0.0010619254 -0.0010619254 -0.0005097484 -0.00044108293 -1.0988618e-06 -0.0010619254 0.00016847395 -5.8527792e-05
2.8649174e-05 -4.5093016e-06 -0.0010619254 0.00012343991 -1.9341152e-05 6.0211158e-05 1.8238612e-05 -0.0010619254
7.548201e-05 -0.00011136983 3.8811675e-05 3.4172283e-06 -0.0010619254 0.00039342497 0.0004889547 9.68007e-05
-4.7128833e-06 -0.0024603882 -0.0024603882 -0.0010811655 -0.00102405 -1.2891613e-05 -0.0024603882 0.0004943198
-0.000117491094 5.5161596e-05 -1.3849449e-05 -0.0024603882 -0.00054283184 0.00045547314 0.00014360748 4.4534478e-05
-0.0024603882 0.00022916662 -0.00021730567 7.820129e-05 2.0112067e-05 -0.0024603882 0.0006183389 0.00045399097
0.00026176748 6.2203458e-06 0.00083044096 0.00083044096 0.0007805153 0.00043750447 -1.2737911e-06 0.00083044096

exp_avg_sq f4 [64, 25]
00000000: 0000 0000 0000 0000 0000 0000 0000 0000
00000010: 0000 0000 0000 0000 0000 0000 0000 0000
00000020: 0000 0000 0000 0000 0000 0000 0000 0000
00000030: 0000 0000 0000 0000 0000 0000 0000 0000
00000040: 0000 0000 0000 0000 0000 0000 0000 0000
00000050: 0000 0000 0000 0000 0000 0000 0000 0000
00000060: 0000 0000 3f3c db36 3f3c db36 6213 2935
00000070: 91e1 b335 7a48 c32f 3f3c db36 22d5 a234
00000080: b01c 7435 f851 9533 bc4d ce2f 3f3c db36
00000090: 3fe0 1a35 e001 6235 d52e 9433 5425 3830
000000a0: 3f3c db36 0b8a 0a35 06c6 7735 5d90 b933
000000b0: 9199 9930 3f3c db36 62fb 1335 4eb5 ac35
000000c0: 841b ae33 98ad 0231 0000 0000 0000 0000
000000d0: 0000 0000 0000 0000 0000 0000 0000 0000
000000e0: 0000 0000 0000 0000 0000 0000 0000 0000
000000f0: 0000 0000 0000 0000 0000 0000 0000 0000
00000100: 0000 0000 0000 0000 0000 0000 0000 0000
00000110: 0000 0000 0000 0000 0000 0000 0000 0000
00000120: 0000 0000 0000 0000 0000 0000 dd08 a337
00000130: dd08 a337 9823 dc35 cc9b 7836 feaa 9530
00000140: dd08 a337 b26f aa35 f4bf f135 4252 4c34
00000150: b419 e030 dd08 a337 947f a535 3b52 2836
00000160: ff17 3434 25fa d430 dd08 a337 5da7 9835
00000170: 7e2e e835 090e 3234 bd51 fa30 dd08 a337
00000180: 4ba1 9535 26fe 1536 b301 3a34 41a4 5231
00000190: bf0b 8738 bf0b 8738 43a2 1437 1586 4237
000001a0: 4a7e 2531 bf0b 8738 8721 6236 9e7c 8f36
000001b0: 35ea f834 784c 7e31 bf0b 8738 1400 7336
000001c0: fc09 aa36 0aed e734 dbe4 7731 bf0b 8738
000001d0: d0c8 5e36 bc4d 5e36 7a1a f934 d939 9931
000001e0: bf0b 8738 091b 5e36 e74b 9c36 8d00 0435
000001f0: 9d4f ff31 a351 3a39 a351 3a39 3962 d537
00000200: a2f9 0638 7031 e731 a351 3a39 bae2 1937
00000210: cd34 4437 3574 a335 c772 1f32 a351 3a39
00000220: dab3 2e37 dc75 6d37 947c 9d35 2324 3c32
00000230: a351 3a39 9a07 2f37 a43b 2837 c4d6 ab35
00000240: 172b 8632 a351 3a39 7820 3937 75d0 6b37
00000250: 3712 b135 88d0 e132 0000 0000 0000 0000
00000260: 0000 0000 0000 0000 0000 0000 0000 0000
00000270: 0000 0000 0000 0000 0000 0000 0000 0000
00000280: 0000 0000 0000 0000 0000 0000 0000 0000
00000290: 0000 0000 0000 0000 0000 0000 0000 0000
000002a0: 0000 0000 0000 0000 0000 0000 0000 0000
000002b0: 0000 0000 0000 0000 0000 0000 7cf1 4e39
000002c0: 7cf1 4e39 1a33 d037 0c7b 1338 71b4 db31
000002d0: 7cf1 4e39 e2a5 1837 da41 4337 747e a535
000002e0: a525 1d32 7cf1 4e39 48e7 2837 1e98 7937
000002f0: dfe8 a035 83c7 2c32 7cf1 4e39 38e7 2737
00000300: a3ca 2237 0b3a ab35 3ac4 6a32 7cf1 4e39
00000310: 3bd7 2937 16b5 6037 ce25 ad35 bf34 c832
00000320: 8cc8 6637 8cc8 6637 99e3 1b36 6cb5 2e36
00000330: b4e9 5630 8cc8 6637 4afe 5735 13d2 a635
00000340: 1710 f633 9702 9230 8cc8 6637 f2a0 7d35
00000350: 80da d835 e40c e333 6069 9c30 8cc8 6637
00000360: 595e 8535 3d6d 9a35 6150 0034 f6e9 ed30
00000370: 8cc8 6637 b434 9835 caff e935 fa50 0434
00000380: a8bf 4b31 b2ce 1539 b2ce 1539 c670 aa37
00000390: 8ed6 d837 1c94 b731 b2ce 1539 06d9 ee36
000003a0: f3ab 2137 4b77 8435 e063 fb31 b2ce 1539
000003b0: 5ece 0937 c8c2 3b37 931e 7d35 75bb 1232
000003c0: b2ce 1539 5462 0837 322c 0437 e4a9 8935
000003d0: 38fd 4b32 b2ce 1539 7e29 0d37 611c 3c37
000003e0: 5f05 8d35 0c3c ac32 6e5c 0d39 6e5c 0d39
000003f0: 6600 9937 ca8d cc37 ad4f d431 6e5c 0d39
0.0 0.0 0.0 0.0 0.0 0.0 0.0 0.0
0.0 0.0 0.0 0.0 0.0 0.0 0.0 0.0
0.0 0.0 0.0 0.0 0.0 0.0 0.0 0.0
0.0 6.533722e-06 6.533722e-06 6.298561e-07 1.3402188e-06 3.552179e-10 6.533722e-06 3.0329926e-07
9.093883e-07 6.953263e-08 3.7526415e-10 6.533722e-06 5.769579e-07 8.419429e-07 6.900306e-08 6.6991857e-10
6.533722e-06 5.1609885e-07 9.230283e-07 8.640993e-08 1.1175861e-09 6.533722e-06 5.512758e-07 1.2867765e-06
8.1075115e-08 1.9016166e-09 0.0 0.0 0.0 0.0 0.0 0.0
0.0 0.0 0.0 0.0 0.0 0.0 0.0 0.0
0.0 0.0 0.0 0.0 0.0 0.0 0.0 0.0
0.0 0.0 0.0 1.9435241e-05 1.9435241e-05 1.6401636e-06 3.7045565e-06 1.0889776e-09
1.9435241e-05 1.2698495e-06 1.8011765e-06 1.9028906e-07 1.630545e-09 1.9435241e-05 1.2330588e-06 2.5081815e-06
1.6772536e-07 1.5496125e-09 1.9435241e-05 1.1373592e-06 1.7298878e-06 1.6582648e-07 1.8213125e-09 1.9435241e-05
1.1148308e-06 2.2350664e-06 1.7323218e-07 3.065239e-09 6.4394895e-05 6.4394895e-05 8.859267e-06 1.15945195e-05
2.4082447e-09 6.4394895e-05 3.369614e-06 4.2762395e-06 4.6364008e-07 3.7005332e-09 6.4394895e-05 3.6209867e-06
5.067557e-06 4.3199572e-07 3.607332e-09 6.4394895e-05 3.3197466e-06 3.3125825e-06 4.6399128e-07 4.4594626e-09
6.4394895e-05 3.3096314e-06 4.6579985e-06 4.9174633e-07 7.4305277e-09 0.00017768754 0.00017768754 2.5437317e-05
3.218058e-05 6.7286052e-09 0.00017768754 9.1722995e-06 1.1694804e-05 1.2178267e-06 9.281115e-09 0.00017768754
1.0413083e-05 1.4153742e-05 1.1733669e-06 1.0951257e-08 0.00017768754 1.0432583e-05 1.00274665e-05 1.2802998e-06
1.5619248e-08 0.00017768754 1.1034419e-05 1.4055627e-05 1.3192829e-06 2.6288276e-08 0.0 0.0
0.0 0.0 0.0 0.0 0.0 0.0 0.0 0.0
0.0 0.0 0.0 0.0 0.0 0.0 0.0 0.0
0.0 0.0 0.0 0.0 0.0 0.0 0.0 0.00019735651
0.00019735651 2.4819328e-05 3.5162127e-05 6.3942527e-09 0.00019735651 9.098529e-06 1.1638238e-05 1.2330261e-06
9.147162e-09 0.00019735651 1.006743e-05 1.4876974e-05 1.1988703e-06 1.0057081e-08 0.00019735651 1.00078105e-05
9.7031325e-06 1.2757386e-06 1.3665209e-08 0.00019735651 1.0123297e-05 1.3393603e-05 1.2900507e-06 2.330705e-08
1.3755762e-05 1.3755762e-05 2.322928e-06 2.6033622e-06 7.818486e-10 1.3755762e-05 8.046378e-07 1.2429103e-06
1.14581944e-07 1.0623634e-09 1.3755762e-05 9.448405e-07 1.6156846e-06 1.0572856e-07 1.1380443e-09 1.3755762e-05
9.936731e-07 1.1505687e-06 1.195017e-07 1.7310515e-09 1.3755762e-05 1.1340221e-06 1.7434297e-06 1.2322917e-07
2.9649332e-09 0.00014286747 0.00014286747 2.0318093e-05 2.5849116e-05 5.342839e-09 0.00014286747 7.1182176e-06
9.636383e-06 9.869485e-07 7.316416e-09 0.00014286747 8.213885e-06 1.119142e-05 9.4294336e-07 8.540941e-09
0.00014286747 8.1291255e-06 7.878103e-06 1.025674e-06 1.187373e-08 0.00014286747 8.413916e-06 1.1212281e-05
1.0506882e-06 2.0050742e-08 0.0001348124 0.0001348124 1.8239207e-05 2.438472e-05 6.17907e-09 0.0001348124

exp_avg f4 [64]
00000000: 0000 0000 ea35 08ba 0000 0000 abda 0abb
00000010: 99ec 11bb ec08 36bb 0000 0000 b99a 3cbb
00000020: 4e30 8bba 783e 21bb fcb1 593a 0000 0000
00000030: 28a3 dc39 24bb 4ebb 9086 13bb 13b4 dcba
00000040: a9fb 29bb 763f 20bb 9d53 1abb a622 57bb
00000050: 0000 0000 19ed f1ba 938d 32bb d896 0fbb
00000060: 7159 bcba e2ca 20bb 0000 0000 c60c 3abb
00000070: fdf5 183a 8821 e6ba 2053 c6ba 0000 0000
00000080: eb82 6d3a d7d1 9103 7b52 d5b9 e289 eb2c
00000090: 102c 35bb 0000 0000 0000 0000 c262 1f22
000000a0: a716 13bb 53ec 1dbb 0675 5439 2585 21bb
000000b0: b47c d9ba 0000 0000 672b 3fbb 3113 f4ba
000000c0: ce4a 33bb 414f 8e39 b60f 0dbb 2ca2 a7ba
000000d0: ce3e 3039 50a1 b5ba 0000 0000 85e3 14bb
000000e0: 0000 0000 780e 16bb 9e7e c1ba ce44 0eb9
000000f0: bf5a 5031 0000 0000 0000 0000 3c40 a7ba
0.0 -0.0005196022 0.0 -0.0021187465 -0.0022266267 -0.0027776314 0.0 -0.0028778745
-0.0010619254 -0.0024603885 0.0008304415 0.0 0.0004208323 -0.003154465 -0.0022510625 -0.0016838334
-0.0025937355 -0.0024451888 -0.0023548373 -0.0032827049 0.0 -0.0018457501 -0.002724503 -0.0021909978
-0.0014369917 -0.002453499 0.0 -0.0028388961 0.0005834995 -0.00175576 -0.0015130974 0.0
0.0009060341 8.570511e-37 -0.0004068798 6.69441e-12 -0.0027644671 0.0 0.0 2.16008e-18
-0.0022443922 -0.002409716 0.0002026149 -0.002464601 -0.001659295 0.0 -0.0029170157 -0.0018621442
-0.002735782 0.000271434 -0.0021524257 -0.001278942 0.00016808065 -0.0013857279 0.0 -0.002271862
0.0 -0.0022896808 -0.0014762466 -0.00013567807 3.0319567e-09 0.0 0.0 -0.0012760232

exp_avg_sq f4 [64]
00000000: 0000 0000 3f3c db36 0000 0000 dd08 a337
00000010: bf0b 8738 a351 3a39 0000 0000 7af1 4e39
00000020: 8bc8 6637 b2ce 1539 6d5c 0d39 0000 0000
00000030: c391 1437 0dd7 6239 19ec 3339 7eac 4138
00000040: ceaa e038 faf5 ef38 c75c ab38 4112 6b38
00000050: 0000 0000 2953 8b38 fda8 4039 e5e9 0839
00000060: 4f2a d937 7757 0839 0000 0000 af40 3539
00000070: 7b9d 8737 6891 3638 ba49 3238 0000 0000
00000080: bd30 7c36 bde3 cb30 8c41 f136 4f55 d42f
00000090: 6a52 3839 0000 0000 0000 0000 9ce8 bf33
000000a0: 706c 8838 087b d538 b581 0a37 ade8 b537
000000b0: 0887 e638 0000 0000 1a2b c238 a198 4a38
000000c0: 446c eb38 f51e 4d37 f57c a038 a9ff 1838
000000d0: 4b72 3b35 20ac bd37 0000 0000 eb7c 2a38
000000e0: 0000 0000 fc42 cd38 b93f 9d38 3482 2a37
000000f0: 881b db33 0000 0000 0000 0000 7ff2 4638
0.0 6.533722e-06 0.0 1.9435241e-05 6.4394895e-05 0.00017768754 0.0 0.00019735648
1.3755761e-05 0.00014286747 0.00013481239 0.0 8.855425e-06 0.00021633152 0.00017158723 4.617543e-05
0.00010712967 0.00011442225 8.1711965e-05 5.6045366e-05 0.0 6.643526e-05 0.000183735 0.00013057103
2.5888117e-05 0.00013002554 0.0 0.00017285602 1.6166587e-05 4.35276e-05 4.250717e-05 0.0
3.7579296e-06 1.4834921e-09 7.1899904e-06 3.862319e-10 0.00017578309 0.0 0.0 8.936442e-08
6.5051834e-05 0.00010179548 8.255641e-06 2.168523e-05 0.00010992406 0.0 9.258669e-05 4.83027e-05
0.00011225839 1.222616e-05 7.6526696e-05 3.6477726e-05 6.9829247e-07 2.2610708e-05 0.0 4.0647497e-05
0.0 9.7876386e-05 7.498213e-05 1.0163105e-05 1.020299e-07 0.0 0.0 4.743272e-05

exp_avg f4 [64, 64]
00000000: 0000 0000 366a 8eb8 0000 0000 0251 98b8
00000010: e3cd efb8 c563 56b9 0000 0000 92cf bfb8
00000020: 4530 0b38 e203 5fb9 b34d e4b8 0000 0000
00000030: 02e5 d437 48b1 a7b9 6d19 24b9 0b06 89b9
00000040: 5279 8eb8 20c8 10b9 494f 3fb9 e1a1 bdb8
00000050: 0000 0000 d9e0 12b9 c3c2 e5b8 b937 1e38
00000060: c4a3 1839 60b6 8db9 0000 0000 a0b3 0ab9
00000070: 0bae abb7 95f7 28b8 e00d 17b8 0000 0000
00000080: cf52 3e38 171b ad80 1704 7636 b606 682b
00000090: 9104 99b9 0000 0000 0000 0000 3a8e 3a1d
000000a0: 6e49 43b9 2348 8db8 7fb5 33b7 2ea7 4538
000000b0: ab50 8cb9 0000 0000 484d 45b7 4404 81b9
000000c0: 604c 9ab8 3bbb 4f38 6897 c9b8 461b e2b8
000000d0: a698 6eb6 ea76 ccb7 0000 0000 c41f 4a38
000000e0: 0000 0000 9d8a 5db9 a53d 64b9 fcb5 65b6
000000f0: 13b9 81ac 0000 0000 0000 0000 637b 1ab9
00000100: 0000 0000 245b c328 0000 0000 0400 0000
00000110: 4819 9b29 00e6 1f29 0000 0000 a445 0129
00000120: 895f 4826 fecb 0a29 0400 0000 0000 0000
00000130: 0400 0080 ac0c 8929 5b43 6829 fd63 1229
00000140: 906a d328 4dc4 7029 7021 1729 0400 0000
00000150: 0000 0000 b238 0529 af3a 1328 22c4 d628
00000160: 4752 2229 31c2 0629 0000 0000 9152 6829
00000170: 8052 ab28 7f77 2029 2bac 6b27 0000 0000
00000180: 0400 0080 0000 0000 0400 0000 0000 0000
00000190: ff0b b125 0000 0000 0000 0000 0400 0000
000001a0: 43ac a329 61c6 7629 0400 0000 ac45 5329
000001b0: 0da3 4a29 0000 0000 7767 0e29 b9df 2828
000001c0: 4972 5628 0515 f128 52df 5f29 b265 1a29
000001d0: 0400 0080 0400 0000 0000 0000 587b cd28
000001e0: 0000 0000 c20f 3529 dafa b329 0000 0000
000001f0: 0000 0000 0000 0000 0000 0000 4efa 6d29
00000200: 0000 0000 7254 6c37 0000 0000 842d e2b9
00000210: bb55 0eba dc4c f4b9 0000 0000 5f25 d6b9
00000220: 618c 98b9 a508 53b9 1fc3 59b9 0000 0000
00000230: c5a4 7837 8ba1 23ba aa42 74b9 226d 18ba
00000240: 52ca 05b9 be71 e3b9 ec00 cfb9 c3b8 d8b9
00000250: 0000 0000 a1a7 cbb9 7dbb dab9 6ea7 07b9
00000260: c253 8239 dfb3 b6b9 0000 0000 99aa c0b9
00000270: 90c4 5639 b75d abb8 08b5 e6b8 0000 0000
00000280: 1f0f 8036 99ae 8581 da06 ffb7 d540 732b
00000290: 14c3 fab9 0000 0000 0000 0000 73b9 6a1e
000002a0: 7fb4 12ba 3ef1 b9b9 bb75 feb7 99cd 01b8
000002b0: c23a 0aba 0000 0000 f31f 0b39 2f90 01ba
000002c0: d8fd 59b9 1df2 8038 303d 9db9 edda c2b8
000002d0: 7e1c 9a36 7756 7bb9 0000 0000 2c42 08b9
000002e0: 0000 0000 323d 12ba b497 2dba 1002 23b8
000002f0: 1981 94ae 0000 0000 0000 0000 46ba b0b9
00000300: 0000 0000 4c35 07b9 0000 0000 de55 a0b9
00000310: c3d5 a2ba 33c7 41ba 0000 0000 2dca 36ba
00000320: 6df6 3fb9 d322 08ba f214 55b9 0000 0000
00000330: efaa 0fb8 7ea0 afba 09d8 5fba 1520 72ba
00000340: 91b9 ccb9 d45a 71ba 169a 6bba 4ba8 b0b9
00000350: 0000 0000 a31d 30ba d676 05ba 46ef d9b9
00000360: e985 b8b8 42a2 70ba 0000 0000 3c2f 69ba
00000370: 115e 0fb9 cfc2 c3b9 d784 2cb9 0000 0000
00000380: 5cab feb8 fe53 8281 777f 99b8 9c65 842b
00000390: 8183 43ba 0000 0000 0000 0000 f630 a41d
000003a0: 3eed a8ba f480 52ba db01 dbb7 4836 23b9
000003b0: 4646 8cba 0000 0000 23cc cbb8 3358 2aba
000003c0: 7301 e5b9 bef5 5ab9 1be4 4fba 92cb 02ba
000003d0: 4ebe 1bb7 0674 c8b9 0000 0000 e88c 9ab9
000003e0: 0000 0000 3787 91ba c867 c2ba 8555 e2b7
000003f0: 8de3 1aae 0000 0000 0000 0000 15b2 80ba
0.0 -6.790871e-05 0.0 -7.263014e-05 -0.000114347575 -0.00020445797 0.0 -9.146253e-05
3.3185137e-05 -0.00021268384 -0.0001088636 0.0 2.537901e-05 -0.00031984807 -0.0001564973 -0.0002613518
-6.793685e-05 -0.00013807463 -0.00018244715 -9.0423746e-05 0.0 -0.00014007407 -0.00010955848 3.772203e-05
0.00014556857 -0.00027029496 0.0 -0.00013227621 -2.0465834e-05 -4.02849e-05 -3.6014128e-05 0.0
4.537665e-05 -1.5897259e-38 3.6659237e-06 8.243227e-13 -0.00029185836 0.0 0.0 2.4690424e-21
-0.00018624004 -6.7368404e-05 -1.0711489e-05 4.712416e-05 -0.00026762983 0.0 -1.17601085e-05 -0.00024607976
-7.357518e-05 4.9527018e-05 -9.6126285e-05 -0.000107816 -3.5553617e-06 -2.4374069e-05 0.0 4.8190137e-05
0.0 -0.0002112784 -0.00021766739 -3.4229588e-06 -3.686948e-12 0.0 0.0 -0.0001473255
0.0 2.1688875e-14 0.0 6e-45 6.8877684e-14 3.5504585e-14 0.0 2.8704158e-14
6.9518413e-16 3.081909e-14 6e-45 0.0 -6e-45 6.0862204e-14 5.157277e-14 3.250524e-14
2.347192e-14 5.346097e-14 3.3557738e-14 6e-45 0.0 2.9581108e-14 8.172864e-15 2.3843832e-14
3.604259e-14 2.992241e-14 0.0 5.1585963e-14 1.9020592e-14 3.5630783e-14 3.2706134e-15 0.0
-6e-45 0.0 6e-45 0.0 3.0712734e-16 0.0 0.0 6e-45
7.268537e-14 5.479504e-14 6e-45 4.6911842e-14 4.4994434e-14 0.0 3.1620075e-14 9.3743855e-15
1.1904168e-14 2.676549e-14 4.9709646e-14 3.4283076e-14 -6e-45 6e-45 0.0 2.2813064e-14
0.0 4.020374e-14 7.992713e-14 0.0 0.0 0.0 0.0 5.2841676e-14
0.0 1.4086358e-05 0.0 -0.0004313999 -0.0005429645 -0.0004659657 0.0 -0.00040845104
-0.0002909629 -0.00020125748 -0.00020767421 0.0 1.4820315e-05 -0.00062420283 -0.00023294488 -0.0005814602
-0.00012759239 -0.00043381558 -0.00039482804 -0.0004133639 0.0 -0.0003884407 -0.0004171989 -0.00012936976
0.00024857937 -0.0003484776 0.0 -0.000367482 0.00020481856 -8.171371e-05 -0.00011000974 0.0
3.8164576e-06 -4.910702e-38 -3.040156e-05 8.6420915e-13 -0.0004782906 0.0 0.0 1.2426207e-20
-0.0005596354 -0.0003546569 -3.0333982e-05 -3.0947474e-05 -0.0005273038 0.0 0.00013267975 -0.00049424445
-0.00020789297 6.148613e-05 -0.00029990962 -9.291419e-05 4.5928746e-06 -0.00023969436 0.0 -0.00012994622
0.0 -0.0005578577 -0.0006622032 -3.886415e-05 -6.753193e-11 0.0 0.0 -0.0003370812
0.0 -0.00012894458 0.0 -0.00030581554 -0.0012423325 -0.0007392049 0.0 -0.00069728756
-0.0001830698 -0.00051931775 -0.00020321066 0.0 -3.425305e-05 -0.0013399271 -0.00085389666 -0.0009236348
-0.0003904817 -0.0009206955 -0.0008987499 -0.00033694724 0.0 -0.00067182834 -0.00050912553 -0.00041567738
-8.7987464e-05 -0.0009179452 0.0 -0.0008895283 -0.00013672585 -0.00037338442 -0.00016452685 0.0
-0.00012143582 -4.787498e-38 -7.319351e-05 9.407366e-13 -0.0007458255 0.0 0.0 4.3461063e-21
-0.0012888086 -0.000803008 -2.6107698e-05 -0.00015565113 -0.0010702095 0.0 -9.717818e-05 -0.0006498128
-0.00043679363 -0.00020881646 -0.00079304137 -0.0004989441 -9.283029e-06 -0.00038233417 0.0 -0.00029478152
0.0 -0.0011102919 -0.0014831955 -2.6981123e-05 -3.521765e-11 0.0 0.0 -0.0009818698
