trails/HighwayEnv/DQNAgent/run_20191108-151847_401/checkpoint-0.tar (torch_old, 26606 bytes, 7 tensors)

base_module.layers.0.weight f4 [64, 25]
000000 e7 77 40 be 8d 52 33 be 6e 55 1a be 6d 50 c7 bd
       -0.18795739 -0.1751196 -0.15071651 -0.09732137
000010 60 81 ce 3b 4c 5e 71 bd 3a a3 b8 bd c1 cb 31 3e
       0.006302044 -0.05892782 -0.09015508 0.17362882
000020 50 b0 c1 bd 42 e8 d7 3d 35 98 10 be c0 e1 fa bb
       -0.09457457 0.105423465 -0.14120562 -0.007656306
000030 d0 1c 98 3c 75 4e 43 3e 22 a3 e7 3d 41 61 0a 3e
       0.018568426 0.19072898 0.11310412 0.13513662
000040 f0 ae b5 bd 08 66 04 be 62 5f e3 3d 36 9b 91 bd
       -0.08871257 -0.12929547 0.11102177 -0.07109682
000050 7a f7 13 be 2d 73 29 be 63 84 a5 bd 6d b2 2e 3e
       -0.14449874 -0.16547842 -0.080818914 0.17060252
000060 0b d9 39 be d7 bd 45 3e 37 6a db bd dc bb 0b be
       -0.18149202 0.193107 -0.10713618 -0.13645881
000070 cb f2 0e 3e 5d e4 23 3e b0 5c ce bd 14 b4 46 3d
       0.13959806 0.16005082 -0.100762725 0.04851158
000080 b3 a4 d4 bd e1 c6 3d 3e a9 29 09 3e 51 8a 26 3e
       -0.103829764 0.18532898 0.13394798 0.16263701
000090 cc 3f 0c 3d 47 76 08 3e f7 b1 48 be 1a 62 8e bd
       0.03424053 0.13326369 -0.19599138 -0.06952305
0000a0 28 41 9f 3c c5 9e 2d be c7 80 0d 3e c0 42 d8 bc
       0.019440249 -0.16955097 0.13818656 -0.026399016
0000b0 3b 0a 1d be c7 69 2d be 38 1c 2b be 12 c8 9d 3d
       -0.15335934 -0.16934882 -0.16709983 0.07704176
0000c0 60 82 47 3d 15 ac 25 be 62 65 0d be b1 20 3f 3e
       0.04870832 -0.16178925 -0.13808206 0.18664815
0000d0 09 f1 06 3e 18 87 14 3d 3e d7 ac 3d 63 5a 20 be
       0.13177885 0.036261648 0.08439492 -0.1565948
0000e0 0b 0c 02 3e 53 b1 3b 3e c0 f1 42 3d 2a 2b e5 3d
       0.12699907 0.18329363 0.047593832 0.111898735
0000f0 80 6d 19 3c 08 b3 17 bd 66 ae 02 be fd 06 02 be
       0.009364486 -0.037035972 -0.1276184 -0.12697978
000100 f7 dd 0e 3e dd 87 e1 bd 3b e3 12 3e dd ec a4 bd
       0.1395186 -0.11012242 0.14344494 -0.080529906
000110 93 33 1a 3e 0a 7d 22 be 50 82 19 be 6f d5 06 3e
       0.15058737 -0.15868011 -0.14991117 0.13167356
000120 5b 00 42 3e ed 1f 37 be 61 d9 36 3e ea 69 f8 3d
       0.18945448 -0.17883272 0.17856361 0.121295765
000130 76 c3 86 bd 00 12 b4 bc 5f 08 1e 3e 42 b4 9c 3d
       -0.0658025 -0.02198124 0.15432881 0.07651569
000140 50 05 28 be a0 33 e2 bb e5 bf 20 3e 82 18 df 3d
       -0.16408277 -0.006903127 0.15698202 0.10893346
000150 30 9b eb bc 9c 31 74 3d 19 97 3e 3e 2c 83 3f 3d
       -0.028760523 0.059617624 0.18612327 0.046755955
000160 36 a8 21 be 70 0c c0 3c 9e 9a 14 be 70 2b bf bc
       -0.15786824 0.02344343 -0.14512107 -0.023336142
000170 92 e5 ee 3d 49 44 23 3e 60 11 67 bc 2e 95 e5 3d
       0.11664881 0.15944017 -0.014103264 0.112100944
000180 f2 5d 20 be ea f5 bd bd 54 61 57 bd d0 df d2 3c
       -0.15660837 -0.0927542 -0.052583054 0.025741488
000190 c7 b7 33 3e 1b 9b 05 3e 88 da 0e 3d ce 50 92 3d
       0.17550574 0.1304745 0.034876376 0.071443185
0001a0 08 f7 31 bd c2 4d ff 3d 83 7e 3e be 12 df 8f 3d
       -0.043448478 0.12466003 -0.18602948 0.07024969
0001b0 50 0f e0 3c 14 ed 0f bd 12 8e 9e 3d f8 b1 14 bd
       0.027351052 -0.035138205 0.077419415 -0.036302537
0001c0 76 6e 2c be 7b c7 33 3e 0e 29 bb 3d f1 ef 36 3e
       -0.16839013 0.17556565 0.0913869 0.17864968
0001d0 c8 60 2c bd a4 b0 4e 3d 8d e7 15 3e fe ae e4 3d
       -0.042084485 0.050461426 0.14639111 0.111661896
0001e0 88 49 25 bd 28 96 e9 bc be 7d 06 be e0 a0 63 3c
       -0.040353328 -0.028513983 -0.13133904 0.013893336
0001f0 ed 90 08 3e d8 01 e8 bc a6 b2 ce 3d 00 41 fe 3b
       0.13336535 -0.028321192 0.10092668 0.0077592134
000200 96 38 99 bd 92 1e 28 be 60 d1 0b 3c ff 95 49 3e
       -0.07481496 -0.16417912 0.008533806 0.19686125
000210 40 1b 58 bb 93 5d 02 3e a8 5c 11 bd 58 95 ea bc
       -0.0032975227 0.12731008 -0.035488755 -0.028635666
000220 12 51 2c be bc 48 71 3d 50 e0 9c 3c ba 97 00 be
       -0.16827801 0.058907256 0.01914993 -0.12557879
000230 ec 6a 66 bd a1 0c 1a 3e 0f 27 3f 3e 69 41 0a 3e
       -0.056254312 0.1504388 0.18667243 0.13501514
000240 40 ff f8 3c e4 46 5c 3d fe 76 ee 3d 1b 7c 38 be
       0.03039515 0.053778544 0.1164379 -0.18016092
000250 9b 71 15 be 3e 16 a4 3d 0a c6 46 be 33 3f e7 bd
       -0.14594118 0.08012055 -0.19411483 -0.11291351
000260 40 34 86 3c 64 e1 98 bd 25 1d 12 be 8f f0 33 3e
       0.016382337 -0.07464865 -0.1426893 0.17572235
000270 bf 76 18 3e 35 39 10 be 9a f3 9c 3d e0 b8 32 3d
       0.14889048 -0.14084323 0.07663651 0.04363334
000280 a5 60 12 be b0 49 fe bd 80 02 63 3c 33 76 3c 3e
       -0.1429468 -0.124163985 0.0138555765 0.18404464
000290 f0 80 de 3c e0 3c 45 bd 1a fc 20 be bd 63 33 be
       0.027161092 -0.048153758 -0.15721169 -0.17518516
0002a0 9b 76 05 3e 68 5a 53 bd 7b 8c 2a be e2 5d cd 3d
       0.13033526 -0.05159989 -0.16655152 0.10027672
0002b0 c1 ba 19 3e 50 ec 76 3c df 43 3b 3e e7 c5 28 3e
       0.15012647 0.01507099 0.1828761 0.16481744
0002c0 02 44 cf 3d 43 5b 9b bd 33 3e 13 3e e8 40 5c bd
       0.10120393 -0.07585766 0.14379196 -0.053772837
0002d0 40 13 05 bb 54 db 17 bd a9 23 26 3e 5f 84 3c be
       -0.0020305663 -0.037074402 0.16224541 -0.1840987
0002e0 69 40 4a 3e 57 d9 3b be d3 f2 e4 bd 26 a4 f6 3d
       0.19751133 -0.18344627 -0.111791275 0.120430276
0002f0 4d 93 1b be 82 a9 ce 3d 04 cf 5c 3d 51 27 4b 3e
       -0.1519291 0.10090925 0.053908363 0.19839217
000300 90 72 bd 3c ac 6e 37 bd d4 e8 4d bd 8b b2 04 3e
       0.023125917 -0.04478328 -0.05027087 0.12958734
000310 2b 3e 2b 3e ca 2d 33 be c9 a6 37 3e 30 cd f9 bc
       0.16722934 -0.17497936 0.17934717 -0.030493349
000320 84 76 67 3d c6 11 f3 3d 19 09 46 3e b0 f1 2a bc
       0.05650951 0.118686244 0.19339408 -0.010433599
000330 99 64 38 3e b4 be 4f bd af 5d 30 be f1 9e 27 3e
       0.18007125 -0.050718978 -0.17223237 0.16369225
000340 98 2f dc bc 18 89 08 be 84 83 57 3d 7a dc 9e 3d
       -0.026878163 -0.13333547 0.052615657 0.07756896
000350 45 ed 14 3e 13 87 45 3e bc 95 6d 3d e0 ab 4c 3c
       0.14543636 0.19289808 0.058004126 0.01249215
000360 5d 9f 0a 3e 20 84 e5 bd 0e 58 0c be 14 80 31 3d
       0.13537355 -0.112068415 -0.13705465 0.043335035
000370 12 aa ef 3d 34 80 0b be 54 98 11 bd a0 4b 0c bd
       0.1170236 -0.13623124 -0.035545662 -0.03425181
000380 d8 5c 06 bd 13 72 a1 bd 65 c9 16 3e fd 7d 33 3e
       -0.032803386 -0.07883086 0.14725263 0.1752853
000390 48 30 2e 3d 8a 26 48 be 8a 1d be bd 9e 8e cc 3d
       0.042526513 -0.19545951 -0.09282978 0.099881396
0003a0 68 d2 08 be 86 e3 f1 3d 03 74 1c 3e ef c2 38 3e
       -0.13361514 0.11810975 0.1527863 0.18043111
0003b0 c8 ac 5f bd 1f f6 14 3e 66 91 ac 3d 44 ae 7b 3d
       -0.054608136 0.14547013 0.0842617 0.06144549
0003c0 c0 fe d5 bb 94 2e 68 bd 22 7c be 3d b7 b0 14 3e
       -0.0065306127 -0.056685045 0.0930102 0.14520536
0003d0 7d 04 38 3e 6d 66 03 be 19 4c 43 3e 92 06 9e 3d
       0.17970462 -0.12832041 0.19071998 0.07716097
0003e0 9d 4f bf bd 49 f0 09 3e 0a 3e f5 bd 99 66 13 3e
       -0.09341357 0.13470568 -0.11974724 0.14394607
0003f0 d0 ba fd bd b0 b7 63 bc 7f b5 31 3e d6 81 0e be
       -0.12389147 -0.013898775 0.17354392 -0.13916716

base_module.layers.0.bias f4 [64]
000000 f8 c2 4f bd 5d e6 ec bd 0f 6b 40 be 39 14 2a 3e
       -0.050723046 -0.11567376 -0.1879084 0.16609277
000010 10 c3 ec 3c a1 e2 41 3e bb 80 41 3e e8 ae 91 bc
       0.028901607 0.18934108 0.18896763 -0.017783597
000020 9d c1 a5 bd 12 32 df 3d 98 c3 bc 3c 83 d4 3f be
       -0.080935694 0.10898222 0.023042485 -0.1873341
000030 ff d7 38 be 6e 1a c9 3d f1 78 35 3e c2 de e5 3d
       -0.18051146 0.09819494 0.17721917 0.11224128
000040 b7 0f 1f 3e 1d 58 da bd d0 84 8c 3c 0c 65 05 3d
       0.15533338 -0.106613375 0.017153174 0.03256707
000050 20 e8 76 bc d5 95 06 be 42 a7 cb 3d 84 bc 0b be
       -0.015069991 -0.13143094 0.09944011 -0.13646132
000060 45 0e 2a 3e 9d c0 39 3e 8f a5 3d be 0f a4 07 3e
       0.16607006 0.18139882 -0.18520187 0.13246177
000070 70 eb c6 bd 76 f5 dc 3d 58 17 23 be a7 3b a6 bd
       -0.09712875 0.107890055 -0.15926874 -0.081168465
000080 3e ae d7 3d 08 c3 34 bd 40 12 28 bd d8 a7 d4 bc
       0.10531281 -0.04413131 -0.04103303 -0.02595894
000090 32 61 9c 3d e0 36 21 bd 30 b7 f4 bd b7 01 3d be
       0.07635726 -0.039358974 -0.11949003 -0.18457685
0000a0 40 ec 91 3c 1f 40 2a 3e 4c f5 29 bd 55 2d 2b 3e
       0.017812848 0.16626023 -0.0414937 0.16716512
0000b0 59 a1 4c 3e a0 cb 3d bd 1a 3d fb bd 39 98 25 3e
       0.19983424 -0.04633677 -0.122675136 0.1617135
0000c0 4a 36 bc bd 4c a7 32 bd a8 dd af 3c 92 97 b1 3d
       -0.09190042 -0.043616578 0.021467999 0.08671488
0000d0 62 e9 84 3d 39 b6 3e 3e 00 8e 29 be b3 09 a3 bd
       0.06489827 0.186242 -0.16558075 -0.07960834
0000e0 b7 db 2c be f0 49 9b 3c b8 f2 45 3d 03 aa 40 3e
       -0.1688069 0.018956155 0.048327178 0.18814854
0000f0 9f 1b 36 3e 22 fb 29 be 7f 79 19 3e 96 0b b5 3d
       0.17783974 -0.16599706 0.14987753 0.088401005

base_module.layers.1.weight f4 [64, 64]
000000 00 a9 70 3d d0 af 5f bd a6 48 d1 3d 78 c2 cb 3d
       0.05875492 -0.054611027 0.10218935 0.09949201
000010 fc ae 42 3d 5c 40 5e 3d 2a d9 b7 bd c0 a1 95 bd
       0.04753016 0.054260597 -0.08976968 -0.07306242
000020 20 b7 a9 3d 00 6e 4c 3c d2 be 9e 3d 72 6d f0 bd
       0.082868814 0.012477398 0.0775124 -0.11739625
000030 b2 37 cb 3d a8 4f bf 3d 80 16 66 bd 50 3b 22 bc
       0.099227324 0.09341365 -0.0561738 -0.0099018365
000040 26 ed ed 3d 34 d9 cb bd 14 2a ab 3d d0 25 6a 3d
       0.11617498 -0.099535376 0.08357635 0.057164967
000050 e8 b4 9c 3c e0 5d e9 bc 0a 18 d8 bd c0 bb bc bb
       0.019129232 -0.028487146 -0.1055146 -0.005759686
000060 50 a2 6e bd 22 e0 92 bd fc 02 69 bd 1e 55 a4 bd
       -0.058260262 -0.07171656 -0.05688761 -0.08024047
000070 1e 3f e9 3d f0 ba 14 3d 34 ce 5f bd 34 ce 51 bd
       0.11388992 0.03631109 -0.05464001 -0.05122204
000080 42 ad ff 3d 18 1d 86 3d 14 ac 81 bd 90 1e b7 bd
       0.12484218 0.06548518 -0.063316494 -0.08941376
000090 80 4b 6f 3b 06 ef ab 3d 86 d2 ca 3d 82 3d df bd
       0.0036513507 0.083951995 0.099034354 -0.109004036
0000a0 e0 3c 18 bc f0 81 e6 bd 38 bd 5d bd 74 9a 8e 3d
       -0.0092918575 -0.11255252 -0.05413553 0.06963053
0000b0 32 89 f2 3d f0 9c 09 bc 58 f7 17 3d f0 6d 6d bc
       0.11842574 -0.008399233 0.03710112 -0.014491543
0000c0 a0 ab 80 bc c0 eb f6 3d e4 83 d6 3d e0 c0 1c 3d
       -0.015706837 0.120566845 0.10474375 0.038269877
0000d0 6c 99 b6 3d 40 27 a3 3b f4 fb 3f bd b8 4e 8c 3d
       0.08915982 0.004979044 -0.04687114 0.06850952
0000e0 a4 9d fb 3d 82 21 dd bd b6 03 9c 3d a0 1a f6 3d
       0.12285927 -0.10797407 0.07617895 0.12016797
0000f0 28 7e b0 bc 1c 4b 8e bd 9a 1d c1 3d 78 c6 e6 3c
       -0.021544531 -0.0694792 0.09429474 0.02817081
000100 64 58 f3 3d 3a 2f 8e 3d 98 b9 c8 3d 7e a6 fc 3d
       0.118820935 0.069426015 0.09801024 0.12336443
000110 2c e0 54 3d 30 36 24 bd d8 3f ed bd 00 63 cc 3c
       0.0519716 -0.04009074 -0.11584443 0.02494955
000120 c6 4f c9 bd b8 82 6f bd 5e 23 ad bd 6a 33 a6 bd
       -0.09829669 -0.058474272 -0.084540114 -0.08115275
000130 6c a6 97 bd 64 9e 4f 3d b2 25 e1 bd 86 e5 84 bd
       -0.07404789 0.050688162 -0.10993518 -0.064890906
000140 74 dc 84 3d 00 53 8c bc c4 69 01 3d 58 b1 e5 3c
       0.064873606 -0.017129421 0.031595007 0.028038666
000150 c8 19 78 3d 10 05 60 3d cc 9f 33 3d 40 e1 af 3c
       0.060571462 0.054692328 0.043853566 0.021469712
000160 70 a6 6a bc a2 9c b5 bd 70 04 54 3d a4 3b 60 bd
       -0.014321908 -0.08867766 0.051762044 -0.054744378
000170 ac 41 12 bd 30 84 26 3c 00 8f d2 bd 70 48 69 bc
       -0.03570716 0.010163352 -0.10281181 -0.014238462
000180 36 a8 9f bd d0 07 3a bc 20 59 93 3c a8 a2 e3 bd
       -0.077957556 -0.011354402 0.017986834 -0.111150086
000190 e4 f1 91 3d 28 df 88 bc fc c5 6b 3d a2 df a5 3d
       0.07126215 -0.016707972 0.05756186 0.08099295
0001a0 36 94 90 3d 04 c8 89 bd 58 47 e1 3d 78 b1 d6 3d
       0.07059519 -0.06727603 0.10999936 0.10483068
0001b0 b0 08 08 bd e8 de 24 3d de 5a eb 3d d0 1e 6e bd
       -0.03321141 0.040251642 0.11491941 -0.058134854
0001c0 2a cb ab 3d 60 42 dc bd 40 04 09 3d 74 b9 04 3d
       0.0838836 -0.107548475 0.03345132 0.032403424
0001d0 00 e9 8a bc b4 00 c6 bd f6 04 a0 3d a4 94 ec 3d
       -0.016956806 -0.09668103 0.07813446 0.115517884
0001e0 dc 38 56 bd ac 06 95 bd 6c e4 29 bd 00 c8 80 3a
       -0.05230032 -0.07276663 -0.041477606 0.000982523
0001f0 9a bb ff 3d 60 0a d4 bd fc 51 02 3d 1a fa e3 3d
       0.12486954 -0.103535414 0.031816468 0.111316875
000200 c2 77 f3 3d f0 72 7a 3c 16 f6 d7 3d a8 d2 e0 3d
       0.11888076 0.015286192 0.10544984 0.109776795
000210 4c 09 cd 3d 6c fb b2 3d b8 a7 ae bd d8 ac cc 3d
       0.10011539 0.08739361 -0.085280836 0.09993905
000220 90 14 6e bd 44 a7 7a bd 44 1c 3a bd 02 f5 a8 bd
       -0.05812508 -0.061194673 -0.045437112 -0.082498565
000230 e4 ff fd 3d c6 25 f8 3d 02 c9 d6 bd 50 ce db bd
       0.12402323 0.1211658 -0.10487558 -0.1073271
000240 b2 ac e9 3d f0 23 18 bc b8 0e a4 3c 00 82 77 3a
       0.11409892 -0.009285912 0.02002655 0.0009441674
000250 f4 7e 9c bd 04 9e 8b bd 6a c3 b0 bd f0 fe f2 3d
       -0.07641402 -0.068172485 -0.08631022 0.11865032
000260 f4 8f 1d bd 0e 7c b9 bd 30 dc bf 3d 78 f3 c7 3d
       -0.038467363 -0.09056865 0.09368169 0.09763235
000270 ea 06 fd bd e0 bd 31 3c 0c 64 64 bd aa bf ec 3d
       -0.123548344 0.010848492 -0.055759475 0.115599945
000280 e8 7a 43 bd 00 af ed 3a c0 96 92 bc 00 19 82 3a
       -0.047724634 0.0018133819 -0.017894149 0.0009925663
000290 60 3b 64 bd 3e 1b fe bd 84 6b 92 bd 00 9e 82 ba
       -0.055720687 -0.1240754 -0.07149413 -0.00099653
0002a0 a0 3f c5 bb 90 62 7f 3d a0 fb b7 3c 50 6c c6 3c
       -0.0060195476 0.062349856 0.022458851 0.02422157
0002b0 14 45 86 3d c0 97 e6 3d fc 96 ef bd c0 a4 4b bd
       0.06556144 0.11259413 -0.1169872 -0.049717665
0002c0 24 4d 0f 3d 44 62 cf 3d c2 a4 dd bd 76 1d d7 bd
       0.034985676 0.101261646 -0.10822441 -0.10503666
0002d0 2c f8 79 bd 40 96 04 3b 24 42 6e bd 50 0b 3c 3c
       -0.06102769 0.0020231158 -0.058168545 0.0114773065
0002e0 e0 13 40 3c f0 c0 cd bc e0 c7 c8 bb e0 79 2a 3c
       0.011723489 -0.025116414 -0.0061273426 0.010405034
0002f0 72 2a a2 bd 1e b5 cc 3d 28 47 af bd 3e 7b 92 3d
       -0.07918252 0.09995483 -0.08558494 0.07152413
000300 6c 7a 65 3d 16 fe f4 bd 40 42 72 bc 8c 80 c9 3d
       0.056024954 -0.119625255 -0.014786303 0.098389715
000310 8c b8 de bd b0 a0 be 3c 8c 68 be 3d 3c e2 81 bd
       -0.10875043 0.023269981 0.092972845 -0.06341979
000320 80 11 82 bc 18 e0 ec 3d ee 8e b0 3d 00 f8 ab bd
       -0.015877485 0.1156618 0.08621012 -0.083969116
000330 7e db e8 3d 78 74 c7 bd 00 ec b9 3a f0 da 35 bd
       0.1136999 -0.097390115 0.0014184713 -0.04439825
000340 7c e1 2f bd 98 a2 e4 bd 6c aa 9e 3d 80 bc 80 bc
       -0.042939648 -0.11163825 0.07747349 -0.015714884
000350 74 cc a7 3d ec d0 69 3d 36 4e c6 bd ec 5c 69 bd
       0.08193293 0.05708401 -0.09682886 -0.056973383
000360 04 ac f9 3d b6 5d 80 3d 52 cd a4 bd fe 24 9c 3d
       0.121910125 0.06267874 -0.08046974 0.07624243
000370 80 6b e3 bb 42 4b 82 3d d0 87 fe bc f0 20 f2 bd
       -0.0069403052 0.063620105 -0.03107062 -0.118226886
000380 52 a5 b0 3d 86 18 87 3d ea 3b e3 bd 38 3a 78 bd
       0.08625282 0.06596474 -0.11095412 -0.060602397
000390 60 ac 9b bc 9c 52 3a 3d 98 2e f1 3c 12 f7 fb 3d
       -0.019003093 0.04548894 0.029441163 0.12302984
0003a0 20 4b b5 bd ec d3 d2 3d 78 b4 16 3d b0 dc 3e bd
       -0.088522196 0.10294327 0.036793202 -0.046597183
0003b0 40 b9 bc bd 34 61 6d 3d 62 96 cd 3d 9e f4 b9 bd
       -0.09215021 0.05795403 0.10038449 -0.0907986
0003c0 da 1c e6 3d 88 89 b7 bd 98 20 83 3d 44 20 e1 3d
       0.11235972 -0.08961779 0.06402701 0.10992482
0003d0 24 53 6b bd 76 a7 99 3d dc ab 6f 3d a0 9e e9 bb
       -0.057452336 0.07502644 0.058513507 -0.0071295053
0003e0 38 af 7e bd d0 a0 a1 3d d2 a5 8a 3d 58 e6 45 3d
       -0.06217882 0.07892001 0.06769909 0.048315376
0003f0 64 71 71 bd 02 d6 da bd b0 7e c8 bd 40 48 c7 bb
       -0.05894603 -0.1068535 -0.09789789 -0.006081611

base_module.layers.1.bias f4 [64]
000000 5e 1a f4 3d e6 01 c1 3d 40 e5 d5 3d 00 73 54 3b
       0.11919092 0.0942419 0.104441166 0.0032417178
000010 fa 14 ce 3d 06 a7 a0 bd 76 b2 b8 bd 46 5a 97 3d
       0.10062595 -0.07844357 -0.09018414 0.07390265
000020 0c 8d c2 bd 58 66 cf 3c c2 9e d9 3d d0 53 f8 3d
       -0.09499559 0.025317356 0.10625984 0.12125361
000030 a0 7e 1c bc bc c0 34 bd 6e 08 ec bd a0 2b 93 3b
       -0.009551674 -0.04412912 -0.11525045 0.0044912845
000040 c6 34 86 bd 90 bc 8d 3d 94 ab 9c 3d b6 62 a6 3d
       -0.065530345 0.06920731 0.076499134 0.08124296
000050 c2 e4 a8 3d 40 95 9f bd f8 d0 d1 3d 14 8a 6d 3d
       0.08246757 -0.07792139 0.10244936 0.05799301
000060 8c 81 43 bd b0 22 b9 bc 6c 0d 10 3d 3a 2c be 3d
       -0.047730967 -0.022599548 0.03516905 0.09285779
000070 62 01 b8 3d 30 5f 5b bd 90 2c 9c bd 30 97 98 3c
       0.08984639 -0.053557575 -0.07625687 0.01862678
000080 fc 1c da 3d e0 83 89 bd ac b4 5a bd a4 7e e1 bd
       0.106500596 -0.06714606 -0.05339496 -0.11010483
000090 cc 7e 2b 3d ae 2a f4 3d 00 db da 3b d0 78 cd 3c
       0.04186897 0.11922203 0.006678939 0.025082022
0000a0 c0 3f aa bc b6 c0 96 3d fe 46 8f bd aa 3f f1 3d
       -0.020782351 0.073609754 -0.069959626 0.11779721
0000b0 20 23 9f bb 88 61 d3 bd d2 65 eb 3d d8 c3 cf bc
       -0.004856482 -0.10321337 0.1149403 -0.02536194
0000c0 ec a6 06 3d 80 94 3a 3c 48 e6 d9 3d e8 ef ff bd
       0.032874033 0.011387944 0.10639626 -0.1249693
0000d0 8c e0 2e 3d e0 95 c6 3d b4 28 2b 3d 80 b4 da 3d
       0.042694613 0.09696555 0.041786864 0.10678959
0000e0 f2 9e 8f 3d 74 06 28 bd d6 35 d2 bd 7e ee be bd
       0.07012738 -0.04102178 -0.10264175 -0.093228325
0000f0 20 38 bb 3d fe aa ba bd 82 70 d9 3d b0 3f d2 bc
       0.09141564 -0.091146454 0.10617162 -0.025665134

advantage.weight f4 [5, 64]
000000 ca 1f b4 3d 80 8b d4 bd 60 a7 3f bc ba 31 bc 3d
       0.08795126 -0.1037817 -0.01169762 0.09189172
000010 8a db f5 3d 90 94 e4 bd 20 a2 cb bb f8 53 8c 3d
       0.120047644 -0.111611485 -0.006214395 0.06851953
000020 7a 6f cf bd fe 4c e3 bd e8 56 f2 bd ac 66 b4 3d
       -0.10128684 -0.110986695 -0.11832982 0.088086456
000030 08 2e 5d bd e4 84 45 3d 1c 61 3e 3d 62 80 b4 3d
       -0.053998977 0.048222438 0.04647933 0.088135496
000040 94 79 42 bd 34 54 4d bd a6 fe 8e bd e0 98 dc 3b
       -0.047479227 -0.05012913 -0.06982164 0.0067320913
000050 c4 23 18 bd b8 d3 92 bd cc 80 85 bd 64 0b 08 3d
       -0.037143484 -0.071692884 -0.06518707 0.033213988
000060 88 2d 80 bc 4c 62 1b 3d d6 e8 e6 3d 08 75 45 3d
       -0.015646711 0.03793554 0.11274879 0.048207313
000070 86 51 9c bd a0 43 5a 3c c0 b9 ed 3d 50 aa fe 3d
       -0.07632737 0.013321787 0.116076946 0.12434828
000080 3e 04 ae 3d b8 01 a6 bd cc 8e 88 bd 5c d0 d7 bd
       0.08496903 -0.081057966 -0.06667861 -0.10537788
000090 cc b3 fa bd 80 e5 69 bd a8 5c db bc f4 53 90 3d
       -0.12241325 -0.057103634 -0.02677758 0.07047263
0000a0 b0 63 df 3c ba 6d aa 3d 78 be be bd 80 6f 05 bd
       0.027269214 0.0832171 -0.09313673 -0.032577038
0000b0 7c 78 1e 3d 98 45 cc 3d 10 74 72 bd 98 e6 bf bc
       0.03868912 0.099742115 -0.059192717 -0.023425385
0000c0 c0 b3 90 3d 28 d8 14 3d 3c 72 d9 3d 58 89 ae 3d
       0.070655346 0.036338955 0.106174916 0.0852229
0000d0 34 1e 96 3d 8c f2 4f 3d 00 78 e4 bb 28 4b 81 bd
       0.073299795 0.05076842 -0.006972313 -0.06313163
0000e0 48 b3 86 bc 04 18 70 3d a6 14 8a bd a2 51 cd 3d
       -0.01644291 0.058616653 -0.067422196 0.10025336
0000f0 f8 7e 8d 3c 74 8e a5 3d 74 ce f9 3d 8e 6f 81 bd
       0.017272457 0.080838114 0.12197581 -0.063201055
000100 08 db d5 bc 74 3a f0 3d 6e 05 f3 bd 14 ec 3c 3d
       -0.026105419 0.11729899 -0.1186627 0.04612358
000110 e0 ae 63 3c 6c d9 9b 3d 1e a3 8e bd 8a da 8e 3d
       0.013896674 0.07609829 -0.06964706 0.06975277
000120 ac ab 7c bd 3e 33 b9 3d b0 86 c0 bc d4 80 3a bd
       -0.061687157 0.09042977 -0.023501724 -0.045533016
000130 94 6d c5 3d 48 31 19 3d 08 1a cc 3d 68 f8 9e bc
       0.09640041 0.037400514 0.099659026 -0.019405559
000140 9e 50 ce bd c0 d1 70 bd 48 84 0f 3d f0 7d c6 3c
       -0.1007397 -0.058793783 0.035038263 0.024229974
000150 a0 57 f5 bb 50 08 e5 3c 96 b4 a7 3d 50 ac c1 3c
       -0.0074872524 0.027958065 0.08188741 0.023641735
000160 76 a5 ab bd 78 a3 29 3d 9c f6 85 bd 78 f9 b7 3d
       -0.083811685 0.04141566 -0.06541178 0.08983129
000170 a0 a7 c5 bb e0 7f fd bc 7c f7 48 3d 5c 6a b3 3d
       -0.0060319453 -0.030944765 0.049064144 0.08760521
000180 0c 32 34 bd f4 c5 27 bd 66 9e 86 3d 56 c0 a3 3d
       -0.04399304 -0.040960267 0.06573181 0.079956695
000190 68 3d 6e 3d b0 d6 23 bc 30 4a 57 bd 00 a2 d4 3b
       0.05816403 -0.009999916 -0.052560985 0.0064890385
0001a0 50 c2 bc 3c 9c 51 37 3d 38 a5 31 3d a2 00 f8 3d
       0.023041874 0.044755563 0.043370456 0.12109496
0001b0 a4 8d 58 bd 70 37 d3 bc 60 c7 f7 bd 30 9b 1f bc
       -0.052869454 -0.02578327 -0.12098575 -0.009741589
0001c0 5c 65 0a 3d d8 92 d4 3c 90 9c b6 bd 0c ae 9c bd
       0.03378807 0.025948927 -0.08916581 -0.07650384
0001d0 78 a7 4b 3d 70 15 36 bd 6c 7b 16 bd e4 11 22 3d
       0.049720258 -0.04445404 -0.036738798 0.039567843
0001e0 9c 26 a7 3d 04 55 75 bd aa b7 e6 3d e6 3d e7 3d
       0.08161661 -0.05989553 0.112655 0.11291103
0001f0 fc a5 05 3d e0 fd af 3b a0 97 f6 3c de ed a6 bd
       0.032629 0.0053708404 0.030101597 -0.08150838
000200 00 65 b6 3c 94 7d a6 bd 68 56 8a 3d 8a b1 a3 3d
       0.022264957 -0.08129421 0.06754762 0.07992847
000210 70 b2 94 3c 24 30 9e 3d 40 ed a8 bd b6 01 f7 bd
       0.018151492 0.07724026 -0.08248377 -0.12060873
000220 40 35 10 3c ea 44 f6 3d 00 56 4b bb 90 58 11 bc
       0.008801758 0.12024863 -0.0031026602 -0.008871213
000230 bc 5a 0f bd 10 17 97 3d 20 67 e3 3d 46 85 8e bd
       -0.03499864 0.07377446 0.11103654 -0.06959014
000240 a0 7f 9e 3c 00 fc 81 ba 00 76 84 39 60 c1 e3 bd
       0.019347966 -0.0009917021 0.0002526492 -0.11120868
000250 4e 60 90 bd ec e1 18 bd c8 89 87 bc 40 80 7d 3c
       -0.07049619 -0.03732483 -0.016545191 0.015472472
000260 0c 5b 84 bd fc 07 b7 3d 00 de 1b bb 38 24 d6 bd
       -0.06462678 0.0893707 -0.0023783445 -0.10456127
000270 c8 e8 52 bd a0 d4 cd bb ae a6 ca bd f8 50 85 bd
       -0.05149153 -0.0062814504 -0.09895073 -0.06509584
000280 d8 f8 8b bd 9c e4 55 3d a4 8e aa bd 24 d0 ae 3d
       -0.068345726 0.052219972 -0.08327988 0.085357934
000290 3c eb 0f 3d b0 24 ba 3c 90 69 ea bc e4 eb 94 3d
       0.035136446 0.022722572 -0.02861479 0.07271555
0002a0 bc 05 41 3d 12 4d f6 bd fc fe de bd 78 3e ef 3c
       0.04712461 -0.12026419 -0.10888478 0.029204592
0002b0 1c 63 8b 3d ae 71 a0 bd e4 ba f8 bd 68 d9 a5 bd
       0.06806013 -0.07834183 -0.121450216 -0.080981076
0002c0 4c ca 9b bd b6 8c a2 3d 88 6e ba bd 50 53 a0 3c
       -0.076069444 0.07936995 -0.091031134 0.019570976
0002d0 be be 80 bd f8 c5 d5 3d 2c bd 73 bd ba db a2 bd
       -0.06286381 0.1043815 -0.05950658 -0.07952066
0002e0 00 06 43 3d e0 85 33 3d d4 52 52 bd 88 10 f9 3d
       0.047613144 0.043828845 -0.051348522 0.12161356
0002f0 1e b6 d1 bd e0 6b 7f bd 2a 82 e4 bd 3c 52 e6 bd
       -0.10239814 -0.062358737 -0.11157639 -0.11246154
000300 54 b6 00 3d f0 0a b6 3d 2e 0a 8b 3d c0 04 2f 3d
       0.03142388 0.08888805 0.06789051 0.04272914
000310 c4 15 ab bd 6c 71 ce bd 18 9c e9 bc fa b8 e0 3d
       -0.08353761 -0.10080227 -0.028516814 0.109727815
000320 14 4f 7b bd 28 5a 7d bd e0 a4 bf bc 5c 30 7c 3d
       -0.06135471 -0.061853558 -0.023394048 0.061569557
000330 0a 41 e4 bd 80 fb 06 3d a8 6f 3e bd e8 42 27 3d
       -0.11145218 0.032954693 -0.046493202 0.04083529
000340 f0 62 31 3d f4 47 ca bd 78 76 f1 3c 3c 33 90 3d
       0.043307245 -0.09877005 0.029475436 0.07041022
000350 88 8e db bd 1a 86 f5 bd 24 82 8d 3d 40 e5 67 3b
       -0.10720545 -0.119884685 0.06909588 0.0035384446
000360 60 46 b9 3d 80 76 e3 3d 20 17 ec bc de d7 ff 3d
       0.09046626 0.111065865 -0.02881962 0.12492345
000370 20 a5 e1 3c 58 c3 be 3c 54 63 cf 3d 58 00 96 3d
       0.027544558 0.023286507 0.10126367 0.07324284
000380 98 20 0e bd 2c 72 bf 3d 84 37 61 3d 30 6b e9 bc
       -0.034699053 0.093479484 0.054984584 -0.028493494
000390 00 4f d4 3b 8e ef ca 3d a0 aa 2c bd c0 91 8a 3d
       0.006479144 0.09908973 -0.04215491 0.06766081
0003a0 00 80 b1 b9 28 b5 da 3d a4 df f5 bd f0 c2 d3 3c
       -0.00033855438 0.10679084 -0.12005547 0.02584979
0003b0 1c 95 f3 bd 64 94 81 bd 60 6c 75 3d 62 83 b4 3d
       -0.11893675 -0.063271314 0.059917808 0.08814122
0003c0 c8 b1 ea bc a0 98 31 bd ba 79 d4 3d 1c f8 68 3d
       -0.028649226 -0.043358445 0.1037478 0.05687724
0003d0 1c 67 ae bd e8 da 15 3d c8 21 26 3d 72 67 e9 3d
       -0.0851576 0.03658572 0.04055956 0.11396684
0003e0 dc b1 df bd 04 36 1a bd 04 0d bf bd 2c ad 9a 3d
       -0.10922596 -0.03764917 -0.093286544 0.07552561
0003f0 fc 69 3e 3d 02 62 a8 bd 00 88 48 3c e0 9c 9f bd
       0.046487793 -0.082218185 0.012239456 -0.077935934

advantage.bias f4 [5]
000000 d8 fd e3 3c 80 5b c3 bc 70 6c 28 bd c0 62 9c bd
       0.027831003 -0.023847342 -0.04111904 -0.076360226
000010 dc ee 3d bd
       -0.046370372

value.weight f4 [1, 64]
000000 00 38 e1 bb 10 5f f9 bc f8 34 36 3d 38 46 27 3d
       -0.006873131 -0.030440837 0.04448411 0.04083845
000010 70 23 75 bd a8 2e 76 bd 32 22 ac bd e0 85 43 3c
       -0.05984825 -0.06010309 -0.0840496 0.011933774
000020 80 45 df 3d f0 1d f6 bd 34 48 f7 bd b0 db c3 bc
       0.10901928 -0.12017429 -0.120743185 -0.023908466
000030 58 e2 62 3d 00 b0 c5 3a 2c d3 28 3d 3a 9e d5 bd
       0.05539164 0.0015082359 0.041217014 -0.1043057
000040 b0 df be 3d 98 a0 49 bd 54 e1 e7 bd d0 48 cd 3d
       0.09320009 -0.04922542 -0.11322275 0.100236535
000050 30 a2 6b 3d 84 05 7b bd d0 78 5b bd 1a d4 e0 3d
       0.05752772 -0.061284557 -0.053582013 0.10977955
000060 ce 3b cf bd 18 92 dd 3d f0 db 99 bc 10 46 7c bd
       -0.10118829 0.10818881 -0.018781632 -0.061590254
000070 00 e3 02 bb f8 a6 46 3d 0c ae c2 3d 62 8f d4 3d
       -0.0019971728 0.048499078 0.09505853 0.103789106
000080 c8 af 75 3d cc c4 41 3d fa 3a d9 3d 4c 06 e8 3d
       0.05998209 0.04730682 0.10606952 0.11329326
000090 70 88 c3 3c 68 50 b0 bd ac 06 55 3d e0 2c 70 bd
       0.02386877 -0.08609086 0.052008316 -0.058636546
0000a0 00 3e 1c ba 48 a8 5d bd 96 59 f4 bd 50 a2 66 bc
       -0.00059601665 -0.054115564 -0.1193115 -0.014076784
0000b0 fa 47 f4 3d f0 bd ab 3c 22 87 a4 bd 84 ed 71 3d
       0.11927791 0.020964593 -0.08033587 0.059064403
0000c0 7e 2e d9 bd a4 ac 8c 3d a8 51 bc 3d da 9a ca 3d
       -0.10604571 0.06868866 0.09195262 0.09892817
0000d0 ee 95 bb 3d e8 23 a2 bc 48 8f 1d 3d f8 ae c9 3d
       0.09159456 -0.019792512 0.03846672 0.09847826
0000e0 c0 7b 05 bc 92 49 bf bd b8 2e e1 bc c0 04 1a bd
       -0.00814718 -0.09340204 -0.027488098 -0.037602186
0000f0 30 d0 d7 3d d8 e2 eb 3c c4 c8 7a bd 40 13 29 3b
       0.105377555 0.028794691 -0.06122662 0.0025798827
